…
I0118 16:34:44.524942 10152 net.cpp:322] The NetState phase (0) differed from the phase (1) specified by a rule in layer mnist
I0118 16:34:44.524969 10152 net.cpp:322] The NetState phase (0) differed from the phase (1) specified by a rule in layer accuracy
I0118 16:34:44.525086 10152 net.cpp:49] Initializing net from parameters: 
name: "LeNet"
state {
  phase: TRAIN
}
layer {
  name: "mnist"
  type: "Data"
  top: "data"
  top: "label"
  include {
    phase: TRAIN
  }
  transform_param {
    scale: 0.00390625
  }
  data_param {
    source: "examples/A-mnist/mnist_train_lmdb"
    batch_size: 64
    backend: LMDB
  }
}
layer {
  name: "conv1"
  type: "Convolution"
  bottom: "data"
  top: "conv1"
  param {
    lr_mult: 1
  }
  param {
    lr_mult: 2
  }
  convolution_param {
    num_output: 20
    kernel_size: 5
    stride: 1
    weight_filler {
      type: "xavier"
    }
    bias_filler {
      type: "constant"
    }
  }
}
layer {
  name: "pool1"
  type: "Pooling"
  bottom: "conv1"
  top: "pool1"
  pooling_param {
    pool: MAX
    kernel_size: 2
    stride: 2
  }
}
layer {
  name: "conv2"
  type: "Convolution"
  bottom: "pool1"
  top: "conv2"
  param {
    lr_mult: 1
  }
  param {
    lr_mult: 2
  }
  convolution_param {
    num_output: 50
    kernel_size: 5
    stride: 1
    weight_filler {
      type: "xavier"
    }
    bias_filler {
      type: "constant"
    }
  }
}
layer {
  name: "pool2"
  type: "Pooling"
  bottom: "conv2"
  top: "pool2"
  pooling_param {
    pool: MAX
    kernel_size: 2
    stride: 2
  }
}
layer {
  name: "ip1"
  type: "InnerProduct"
  bottom: "pool2"
  top: "ip1"
  param {
    lr_mult: 1
  }
  param {
    lr_mult: 2
  }
  inner_product_param {
    num_output: 500
    weight_filler {
      type: "xavier"
    }
    bias_filler {
      type: "constant"
    }
  }
}
layer {
  name: "relu1"
  type: "ReLU"
  bottom: "ip1"
  top: "ip1"
}
layer {
  name: "ip2_sig"
  type: "InnerProduct"
  bottom: "ip1"
  top: "ip2_sig"
  param {
    lr_mult: 1
  }
  param {
    lr_mult: 2
  }
  inner_product_param {
    num_output: 2
    weight_filler {
      type: "xavier"
    }
    bias_filler {
      type: "constant"
    }
  }
}
layer {
  name: "ip2_hash"
  type: "Sigmoid"
  bottom: "ip2_sig"
  top: "ip2_hash"
}
layer {
  name: "ip3"
  type: "InnerProduct"
  bottom: "ip2_hash"
  top: "ip3"
  param {
    lr_mult: 1
  }
  param {
    lr_mult: 2
  }
  inner_product_param {
    num_output: 10
    weight_filler {
      type: "xavier"
    }
    bias_filler {
      type: "constant"
    }
  }
}
layer {
  name: "loss"
  type: "SoftmaxWithLoss"
  bottom: "ip3"
  bottom: "label"
  top: "loss"
}
I0118 16:34:44.525192 10152 layer_factory.hpp:76] Creating layer mnist
I0118 16:34:44.525852 10152 net.cpp:106] Creating Layer mnist
I0118 16:34:44.525876 10152 net.cpp:411] mnist -> data
I0118 16:34:44.525918 10152 net.cpp:411] mnist -> label
I0118 16:34:44.526867 10158 db_lmdb.cpp:38] Opened lmdb examples/A-mnist/mnist_train_lmdb
I0118 16:34:44.536901 10152 data_layer.cpp:41] output data size: 64,1,28,28
I0118 16:34:44.538056 10152 net.cpp:150] Setting up mnist
I0118 16:34:44.538087 10152 net.cpp:157] Top shape: 64 1 28 28 (50176)
I0118 16:34:44.538099 10152 net.cpp:157] Top shape: 64 (64)
I0118 16:34:44.538105 10152 net.cpp:165] Memory required for data: 200960
I0118 16:34:44.538115 10152 layer_factory.hpp:76] Creating layer conv1
I0118 16:34:44.538141 10152 net.cpp:106] Creating Layer conv1
I0118 16:34:44.538154 10152 net.cpp:454] conv1 <- data
I0118 16:34:44.538182 10152 net.cpp:411] conv1 -> conv1
I0118 16:34:44.701750 10152 cudnn_conv_layer.cpp:194] Reallocating workspace storage: 20664
I0118 16:34:44.701840 10152 net.cpp:150] Setting up conv1
I0118 16:34:44.701859 10152 net.cpp:157] Top shape: 64 20 24 24 (737280)
I0118 16:34:44.701866 10152 net.cpp:165] Memory required for data: 3150080
I0118 16:34:44.701897 10152 layer_factory.hpp:76] Creating layer pool1
I0118 16:34:44.701920 10152 net.cpp:106] Creating Layer pool1
I0118 16:34:44.701930 10152 net.cpp:454] pool1 <- conv1
I0118 16:34:44.701941 10152 net.cpp:411] pool1 -> pool1
I0118 16:34:44.702191 10152 net.cpp:150] Setting up pool1
I0118 16:34:44.702208 10152 net.cpp:157] Top shape: 64 20 12 12 (184320)
I0118 16:34:44.702214 10152 net.cpp:165] Memory required for data: 3887360
I0118 16:34:44.702220 10152 layer_factory.hpp:76] Creating layer conv2
I0118 16:34:44.702235 10152 net.cpp:106] Creating Layer conv2
I0118 16:34:44.702241 10152 net.cpp:454] conv2 <- pool1
I0118 16:34:44.702251 10152 net.cpp:411] conv2 -> conv2
I0118 16:34:44.703554 10152 cudnn_conv_layer.cpp:194] Reallocating workspace storage: 10272
I0118 16:34:44.703712 10152 net.cpp:150] Setting up conv2
I0118 16:34:44.703729 10152 net.cpp:157] Top shape: 64 50 8 8 (204800)
I0118 16:34:44.703735 10152 net.cpp:165] Memory required for data: 4706560
I0118 16:34:44.703749 10152 layer_factory.hpp:76] Creating layer pool2
I0118 16:34:44.703768 10152 net.cpp:106] Creating Layer pool2
I0118 16:34:44.703776 10152 net.cpp:454] pool2 <- conv2
I0118 16:34:44.703784 10152 net.cpp:411] pool2 -> pool2
I0118 16:34:44.704166 10152 net.cpp:150] Setting up pool2
I0118 16:34:44.704185 10152 net.cpp:157] Top shape: 64 50 4 4 (51200)
I0118 16:34:44.704192 10152 net.cpp:165] Memory required for data: 4911360
I0118 16:34:44.704198 10152 layer_factory.hpp:76] Creating layer ip1
I0118 16:34:44.704213 10152 net.cpp:106] Creating Layer ip1
I0118 16:34:44.704221 10152 net.cpp:454] ip1 <- pool2
I0118 16:34:44.704231 10152 net.cpp:411] ip1 -> ip1
I0118 16:34:44.708225 10152 net.cpp:150] Setting up ip1
I0118 16:34:44.708242 10152 net.cpp:157] Top shape: 64 500 (32000)
I0118 16:34:44.708248 10152 net.cpp:165] Memory required for data: 5039360
I0118 16:34:44.708261 10152 layer_factory.hpp:76] Creating layer relu1
I0118 16:34:44.708274 10152 net.cpp:106] Creating Layer relu1
I0118 16:34:44.708281 10152 net.cpp:454] relu1 <- ip1
I0118 16:34:44.708289 10152 net.cpp:397] relu1 -> ip1 (in-place)
I0118 16:34:44.708499 10152 net.cpp:150] Setting up relu1
I0118 16:34:44.708515 10152 net.cpp:157] Top shape: 64 500 (32000)
I0118 16:34:44.708521 10152 net.cpp:165] Memory required for data: 5167360
I0118 16:34:44.708528 10152 layer_factory.hpp:76] Creating layer ip2_sig
I0118 16:34:44.708539 10152 net.cpp:106] Creating Layer ip2_sig
I0118 16:34:44.708546 10152 net.cpp:454] ip2_sig <- ip1
I0118 16:34:44.708555 10152 net.cpp:411] ip2_sig -> ip2_sig
I0118 16:34:44.708691 10152 net.cpp:150] Setting up ip2_sig
I0118 16:34:44.708705 10152 net.cpp:157] Top shape: 64 2 (128)
I0118 16:34:44.708710 10152 net.cpp:165] Memory required for data: 5167872
I0118 16:34:44.708720 10152 layer_factory.hpp:76] Creating layer ip2_hash
I0118 16:34:44.708734 10152 net.cpp:106] Creating Layer ip2_hash
I0118 16:34:44.708741 10152 net.cpp:454] ip2_hash <- ip2_sig
I0118 16:34:44.708750 10152 net.cpp:411] ip2_hash -> ip2_hash
I0118 16:34:44.709105 10152 net.cpp:150] Setting up ip2_hash
I0118 16:34:44.709121 10152 net.cpp:157] Top shape: 64 2 (128)
I0118 16:34:44.709127 10152 net.cpp:165] Memory required for data: 5168384
I0118 16:34:44.709133 10152 layer_factory.hpp:76] Creating layer ip3
I0118 16:34:44.709147 10152 net.cpp:106] Creating Layer ip3
I0118 16:34:44.709154 10152 net.cpp:454] ip3 <- ip2_hash
I0118 16:34:44.709164 10152 net.cpp:411] ip3 -> ip3
I0118 16:34:44.709290 10152 net.cpp:150] Setting up ip3
I0118 16:34:44.709305 10152 net.cpp:157] Top shape: 64 10 (640)
I0118 16:34:44.709309 10152 net.cpp:165] Memory required for data: 5170944
I0118 16:34:44.709322 10152 layer_factory.hpp:76] Creating layer loss
I0118 16:34:44.709336 10152 net.cpp:106] Creating Layer loss
I0118 16:34:44.709343 10152 net.cpp:454] loss <- ip3
I0118 16:34:44.709349 10152 net.cpp:454] loss <- label
I0118 16:34:44.709374 10152 net.cpp:411] loss -> loss
I0118 16:34:44.709400 10152 layer_factory.hpp:76] Creating layer loss
…
I0118 16:34:44.710333 10152 solver.cpp:180] Creating test net (#0) specified by net file: examples/A-mnist/train_test.prototxt
I0118 16:34:44.710381 10152 net.cpp:322] The NetState phase (1) differed from the phase (0) specified by a rule in layer mnist
I0118 16:34:44.710520 10152 net.cpp:49] Initializing net from parameters: 
name: "LeNet"
state {
  phase: TEST
}
layer {
  name: "mnist"
  type: "Data"
  top: "data"
  top: "label"
  include {
    phase: TEST
  }
  transform_param {
    scale: 0.00390625
  }
  data_param {
    source: "examples/A-mnist/mnist_test_lmdb"
    batch_size: 100
    backend: LMDB
  }
}
layer {
  name: "conv1"
  type: "Convolution"
  bottom: "data"
  top: "conv1"
  param {
    lr_mult: 1
  }
  param {
    lr_mult: 2
  }
  convolution_param {
    num_output: 20
    kernel_size: 5
    stride: 1
    weight_filler {
      type: "xavier"
    }
    bias_filler {
      type: "constant"
    }
  }
}
layer {
  name: "pool1"
  type: "Pooling"
  bottom: "conv1"
  top: "pool1"
  pooling_param {
    pool: MAX
    kernel_size: 2
    stride: 2
  }
}
layer {
  name: "conv2"
  type: "Convolution"
  bottom: "pool1"
  top: "conv2"
  param {
    lr_mult: 1
  }
  param {
    lr_mult: 2
  }
  convolution_param {
    num_output: 50
    kernel_size: 5
    stride: 1
    weight_filler {
      type: "xavier"
    }
    bias_filler {
      type: "constant"
    }
  }
}
layer {
  name: "pool2"
  type: "Pooling"
  bottom: "conv2"
  top: "pool2"
  pooling_param {
    pool: MAX
    kernel_size: 2
    stride: 2
  }
}
layer {
  name: "ip1"
  type: "InnerProduct"
  bottom: "pool2"
  top: "ip1"
  param {
    lr_mult: 1
  }
  param {
    lr_mult: 2
  }
  inner_product_param {
    num_output: 500
    weight_filler {
      type: "xavier"
    }
    bias_filler {
      type: "constant"
    }
  }
}
layer {
  name: "relu1"
  type: "ReLU"
  bottom: "ip1"
  top: "ip1"
}
layer {
  name: "ip2_sig"
  type: "InnerProduct"
  bottom: "ip1"
  top: "ip2_sig"
  param {
    lr_mult: 1
  }
  param {
    lr_mult: 2
  }
  inner_product_param {
    num_output: 2
    weight_filler {
      type: "xavier"
    }
    bias_filler {
      type: "constant"
    }
  }
}
layer {
  name: "ip2_hash"
  type: "Sigmoid"
  bottom: "ip2_sig"
  top: "ip2_hash"
}
layer {
  name: "ip3"
  type: "InnerProduct"
  bottom: "ip2_hash"
  top: "ip3"
  param {
    lr_mult: 1
  }
  param {
    lr_mult: 2
  }
  inner_product_param {
    num_output: 10
    weight_filler {
      type: "xavier"
    }
    bias_filler {
      type: "constant"
    }
  }
}
layer {
  name: "accuracy"
  type: "Accuracy"
  bottom: "ip3"
  bottom: "label"
  top: "accuracy"
  include {
    phase: TEST
  }
}
layer {
  name: "loss"
  type: "SoftmaxWithLoss"
  bottom: "ip3"
  bottom: "label"
  top: "loss"
}
I0118 16:34:44.710644 10152 layer_factory.hpp:76] Creating layer mnist
I0118 16:34:44.710783 10152 net.cpp:106] Creating Layer mnist
I0118 16:34:44.710794 10152 net.cpp:411] mnist -> data
I0118 16:34:44.710808 10152 net.cpp:411] mnist -> label
I0118 16:34:44.711819 10160 db_lmdb.cpp:38] Opened lmdb examples/A-mnist/mnist_test_lmdb
I0118 16:34:44.711952 10152 data_layer.cpp:41] output data size: 100,1,28,28
I0118 16:34:44.713089 10152 net.cpp:150] Setting up mnist
I0118 16:34:44.713107 10152 net.cpp:157] Top shape: 100 1 28 28 (78400)
I0118 16:34:44.713115 10152 net.cpp:157] Top shape: 100 (100)
I0118 16:34:44.713121 10152 net.cpp:165] Memory required for data: 314000
I0118 16:34:44.713127 10152 layer_factory.hpp:76] Creating layer label_mnist_1_split
I0118 16:34:44.713151 10152 net.cpp:106] Creating Layer label_mnist_1_split
I0118 16:34:44.713160 10152 net.cpp:454] label_mnist_1_split <- label
I0118 16:34:44.713167 10152 net.cpp:411] label_mnist_1_split -> label_mnist_1_split_0
I0118 16:34:44.713179 10152 net.cpp:411] label_mnist_1_split -> label_mnist_1_split_1
I0118 16:34:44.713280 10152 net.cpp:150] Setting up label_mnist_1_split
I0118 16:34:44.713294 10152 net.cpp:157] Top shape: 100 (100)
I0118 16:34:44.713302 10152 net.cpp:157] Top shape: 100 (100)
I0118 16:34:44.713307 10152 net.cpp:165] Memory required for data: 314800
I0118 16:34:44.713313 10152 layer_factory.hpp:76] Creating layer conv1
I0118 16:34:44.713326 10152 net.cpp:106] Creating Layer conv1
I0118 16:34:44.713335 10152 net.cpp:454] conv1 <- data
I0118 16:34:44.713346 10152 net.cpp:411] conv1 -> conv1
I0118 16:34:44.714890 10152 cudnn_conv_layer.cpp:194] Reallocating workspace storage: 20664
I0118 16:34:44.714936 10152 net.cpp:150] Setting up conv1
I0118 16:34:44.714953 10152 net.cpp:157] Top shape: 100 20 24 24 (1152000)
I0118 16:34:44.714974 10152 net.cpp:165] Memory required for data: 4922800
I0118 16:34:44.714995 10152 layer_factory.hpp:76] Creating layer pool1
I0118 16:34:44.715009 10152 net.cpp:106] Creating Layer pool1
I0118 16:34:44.715018 10152 net.cpp:454] pool1 <- conv1
I0118 16:34:44.715031 10152 net.cpp:411] pool1 -> pool1
I0118 16:34:44.715484 10152 net.cpp:150] Setting up pool1
I0118 16:34:44.715507 10152 net.cpp:157] Top shape: 100 20 12 12 (288000)
I0118 16:34:44.715523 10152 net.cpp:165] Memory required for data: 6074800
I0118 16:34:44.715529 10152 layer_factory.hpp:76] Creating layer conv2
I0118 16:34:44.715546 10152 net.cpp:106] Creating Layer conv2
I0118 16:34:44.715554 10152 net.cpp:454] conv2 <- pool1
I0118 16:34:44.715567 10152 net.cpp:411] conv2 -> conv2
I0118 16:34:44.717070 10152 cudnn_conv_layer.cpp:194] Reallocating workspace storage: 10272
I0118 16:34:44.717113 10152 net.cpp:150] Setting up conv2
I0118 16:34:44.717128 10152 net.cpp:157] Top shape: 100 50 8 8 (320000)
I0118 16:34:44.717138 10152 net.cpp:165] Memory required for data: 7354800
I0118 16:34:44.717161 10152 layer_factory.hpp:76] Creating layer pool2
I0118 16:34:44.717175 10152 net.cpp:106] Creating Layer pool2
I0118 16:34:44.717183 10152 net.cpp:454] pool2 <- conv2
I0118 16:34:44.717200 10152 net.cpp:411] pool2 -> pool2
I0118 16:34:44.717607 10152 net.cpp:150] Setting up pool2
I0118 16:34:44.717628 10152 net.cpp:157] Top shape: 100 50 4 4 (80000)
I0118 16:34:44.717646 10152 net.cpp:165] Memory required for data: 7674800
I0118 16:34:44.717661 10152 layer_factory.hpp:76] Creating layer ip1
I0118 16:34:44.717689 10152 net.cpp:106] Creating Layer ip1
I0118 16:34:44.717697 10152 net.cpp:454] ip1 <- pool2
I0118 16:34:44.717708 10152 net.cpp:411] ip1 -> ip1
I0118 16:34:44.722048 10152 net.cpp:150] Setting up ip1
I0118 16:34:44.722067 10152 net.cpp:157] Top shape: 100 500 (50000)
I0118 16:34:44.722074 10152 net.cpp:165] Memory required for data: 7874800
I0118 16:34:44.722090 10152 layer_factory.hpp:76] Creating layer relu1
I0118 16:34:44.722103 10152 net.cpp:106] Creating Layer relu1
I0118 16:34:44.722112 10152 net.cpp:454] relu1 <- ip1
I0118 16:34:44.722121 10152 net.cpp:397] relu1 -> ip1 (in-place)
I0118 16:34:44.722494 10152 net.cpp:150] Setting up relu1
I0118 16:34:44.722530 10152 net.cpp:157] Top shape: 100 500 (50000)
I0118 16:34:44.722542 10152 net.cpp:165] Memory required for data: 8074800
I0118 16:34:44.722548 10152 layer_factory.hpp:76] Creating layer ip2_sig
I0118 16:34:44.722564 10152 net.cpp:106] Creating Layer ip2_sig
I0118 16:34:44.722573 10152 net.cpp:454] ip2_sig <- ip1
I0118 16:34:44.722584 10152 net.cpp:411] ip2_sig -> ip2_sig
I0118 16:34:44.722743 10152 net.cpp:150] Setting up ip2_sig
I0118 16:34:44.722757 10152 net.cpp:157] Top shape: 100 2 (200)
I0118 16:34:44.722764 10152 net.cpp:165] Memory required for data: 8075600
I0118 16:34:44.722774 10152 layer_factory.hpp:76] Creating layer ip2_hash
I0118 16:34:44.722789 10152 net.cpp:106] Creating Layer ip2_hash
I0118 16:34:44.722796 10152 net.cpp:454] ip2_hash <- ip2_sig
I0118 16:34:44.722805 10152 net.cpp:411] ip2_hash -> ip2_hash
I0118 16:34:44.723049 10152 net.cpp:150] Setting up ip2_hash
I0118 16:34:44.723067 10152 net.cpp:157] Top shape: 100 2 (200)
I0118 16:34:44.723073 10152 net.cpp:165] Memory required for data: 8076400
I0118 16:34:44.723079 10152 layer_factory.hpp:76] Creating layer ip3
I0118 16:34:44.723090 10152 net.cpp:106] Creating Layer ip3
I0118 16:34:44.723098 10152 net.cpp:454] ip3 <- ip2_hash
I0118 16:34:44.723109 10152 net.cpp:411] ip3 -> ip3
I0118 16:34:44.723250 10152 net.cpp:150] Setting up ip3
I0118 16:34:44.723264 10152 net.cpp:157] Top shape: 100 10 (1000)
I0118 16:34:44.723270 10152 net.cpp:165] Memory required for data: 8080400
I0118 16:34:44.723285 10152 layer_factory.hpp:76] Creating layer ip3_ip3_0_split
I0118 16:34:44.723296 10152 net.cpp:106] Creating Layer ip3_ip3_0_split
I0118 16:34:44.723304 10152 net.cpp:454] ip3_ip3_0_split <- ip3
I0118 16:34:44.723315 10152 net.cpp:411] ip3_ip3_0_split -> ip3_ip3_0_split_0
I0118 16:34:44.723328 10152 net.cpp:411] ip3_ip3_0_split -> ip3_ip3_0_split_1
I0118 16:34:44.723379 10152 net.cpp:150] Setting up ip3_ip3_0_split
I0118 16:34:44.723397 10152 net.cpp:157] Top shape: 100 10 (1000)
I0118 16:34:44.723407 10152 net.cpp:157] Top shape: 100 10 (1000)
I0118 16:34:44.723412 10152 net.cpp:165] Memory required for data: 8088400
I0118 16:34:44.723418 10152 layer_factory.hpp:76] Creating layer accuracy
I0118 16:34:44.723433 10152 net.cpp:106] Creating Layer accuracy
I0118 16:34:44.723440 10152 net.cpp:454] accuracy <- ip3_ip3_0_split_0
I0118 16:34:44.723448 10152 net.cpp:454] accuracy <- label_mnist_1_split_0
I0118 16:34:44.723459 10152 net.cpp:411] accuracy -> accuracy
…
