…
I1228 15:56:37.823369  4126 net.cpp:322] The NetState phase (0) differed from the phase (1) specified by a rule in layer accuracy
I1228 15:56:37.823575  4126 net.cpp:49] Initializing net from parameters: 
name: "Oxford102_VGG_CNN_S"
state {
  phase: TRAIN
}
layer {
  name: "data"
  type: "ImageData"
  top: "data"
  top: "label"
  include {
    phase: TRAIN
  }
  transform_param {
    mirror: true
    crop_size: 224
    mean_file: "/home/dl/caffe-master/models/bvlc_reference_caffenet/imagenet_mean.binaryproto"
  }
  image_data_param {
    source: "/home/dl/caffe-master/data/oxford102/test.txt"
    batch_size: 50
    new_height: 256
    new_width: 256
  }
}
layer {
  name: "conv1"
  type: "Convolution"
  bottom: "data"
  top: "conv1"
  param {
    lr_mult: 1
    decay_mult: 1
  }
  param {
    lr_mult: 2
    decay_mult: 0
  }
  convolution_param {
    num_output: 96
    kernel_size: 7
    stride: 2
    weight_filler {
      type: "gaussian"
      std: 0.01
    }
    bias_filler {
      type: "constant"
      value: 0
    }
  }
}
layer {
  name: "relu1"
  type: "ReLU"
  bottom: "conv1"
  top: "conv1"
}
layer {
  name: "norm1"
  type: "LRN"
  bottom: "conv1"
  top: "norm1"
  lrn_param {
    local_size: 5
    alpha: 0.0005
    beta: 0.75
    k: 2
  }
}
layer {
  name: "pool1"
  type: "Pooling"
  bottom: "norm1"
  top: "pool1"
  pooling_param {
    pool: MAX
    kernel_size: 3
    stride: 3
  }
}
layer {
  name: "conv2"
  type: "Convolution"
  bottom: "pool1"
  top: "conv2"
  param {
    lr_mult: 1
    decay_mult: 1
  }
  param {
    lr_mult: 2
    decay_mult: 0
  }
  convolution_param {
    num_output: 256
    kernel_size: 5
    weight_filler {
      type: "gaussian"
      std: 0.01
    }
    bias_filler {
      type: "constant"
      value: 1
    }
  }
}
layer {
  name: "relu2"
  type: "ReLU"
  bottom: "conv2"
  top: "conv2"
}
layer {
  name: "pool2"
  type: "Pooling"
  bottom: "conv2"
  top: "pool2"
  pooling_param {
    pool: MAX
    kernel_size: 2
    stride: 2
  }
}
layer {
  name: "conv3"
  type: "Convolution"
  bottom: "pool2"
  top: "conv3"
  param {
    lr_mult: 1
    decay_mult: 1
  }
  param {
    lr_mult: 2
    decay_mult: 0
  }
  convolution_param {
    num_output: 512
    pad: 1
    kernel_size: 3
    weight_filler {
      type: "gaussian"
      std: 0.01
    }
    bias_filler {
      type: "constant"
      value: 1
    }
  }
}
layer {
  name: "relu3"
  type: "ReLU"
  bottom: "conv3"
  top: "conv3"
}
layer {
  name: "conv4"
  type: "Convolution"
  bottom: "conv3"
  top: "conv4"
  param {
    lr_mult: 1
    decay_mult: 1
  }
  param {
    lr_mult: 2
    decay_mult: 0
  }
  convolution_param {
    num_output: 512
    pad: 1
    kernel_size: 3
    weight_filler {
      type: "gaussian"
      std: 0.01
    }
    bias_filler {
      type: "constant"
      value: 1
    }
  }
}
layer {
  name: "relu4"
  type: "ReLU"
  bottom: "conv4"
  top: "conv4"
}
layer {
  name: "conv5"
  type: "Convolution"
  bottom: "conv4"
  top: "conv5"
  param {
    lr_mult: 1
    decay_mult: 1
  }
  param {
    lr_mult: 2
    decay_mult: 0
  }
  convolution_param {
    num_output: 512
    pad: 1
    kernel_size: 3
    weight_filler {
      type: "gaussian"
      std: 0.005
    }
    bias_filler {
      type: "constant"
      value: 1
    }
  }
}
layer {
  name: "relu5"
  type: "ReLU"
  bottom: "conv5"
  top: "conv5"
}
layer {
  name: "pool5"
  type: "Pooling"
  bottom: "conv5"
  top: "pool5"
  pooling_param {
    pool: MAX
    kernel_size: 3
    stride: 3
  }
}
layer {
  name: "fc6"
  type: "InnerProduct"
  bottom: "pool5"
  top: "fc6"
  inner_product_param {
    num_output: 4096
  }
}
layer {
  name: "relu6"
  type: "ReLU"
  bottom: "fc6"
  top: "fc6"
}
layer {
  name: "drop6"
  type: "Dropout"
  bottom: "fc6"
  top: "fc6"
  dropout_param {
    dropout_ratio: 0.5
  }
}
layer {
  name: "fc7"
  type: "InnerProduct"
  bottom: "fc6"
  top: "fc7"
  inner_product_param {
    num_output: 4096
  }
}
layer {
  name: "relu7"
  type: "ReLU"
  bottom: "fc7"
  top: "fc7"
}
layer {
  name: "drop7"
  type: "Dropout"
  bottom: "fc7"
  top: "fc7"
  dropout_param {
    dropout_ratio: 0.5
  }
}
layer {
  name: "fc8_oxford102"
  type: "InnerProduct"
  bottom: "fc7"
  top: "fc8_oxford102"
  param {
    lr_mult: 10
    decay_mult: 1
  }
  param {
    lr_mult: 20
    decay_mult: 0
  }
  inner_product_param {
    num_output: 102
    weight_filler {
      type: "gaussian"
      std: 0.01
    }
    bias_filler {
      type: "constant"
      value: 0
    }
  }
}
layer {
  name: "loss"
  type: "SoftmaxWithLoss"
  bottom: "fc8_oxford102"
  bottom: "label"
}
I1228 15:56:37.823732  4126 layer_factory.hpp:76] Creating layer data
I1228 15:56:37.823776  4126 net.cpp:106] Creating Layer data
I1228 15:56:37.823789  4126 net.cpp:411] data -> data
I1228 15:56:37.823818  4126 net.cpp:411] data -> label
I1228 15:56:37.823842  4126 data_transformer.cpp:25] Loading mean file from: /home/dl/caffe-master/models/bvlc_reference_caffenet/imagenet_mean.binaryproto
I1228 15:56:37.835741  4126 image_data_layer.cpp:36] Opening file /home/dl/caffe-master/data/oxford102/test.txt
I1228 15:56:37.839035  4126 image_data_layer.cpp:51] A total of 6149 images.
I1228 15:56:37.847509  4126 image_data_layer.cpp:78] output data size: 50,3,224,224
I1228 15:56:37.901199  4126 net.cpp:150] Setting up data
I1228 15:56:37.901253  4126 net.cpp:157] Top shape: 50 3 224 224 (7526400)
I1228 15:56:37.901263  4126 net.cpp:157] Top shape: 50 (50)
I1228 15:56:37.901269  4126 net.cpp:165] Memory required for data: 30105800
I1228 15:56:37.901281  4126 layer_factory.hpp:76] Creating layer conv1
I1228 15:56:37.901309  4126 net.cpp:106] Creating Layer conv1
I1228 15:56:37.901319  4126 net.cpp:454] conv1 <- data
I1228 15:56:37.901335  4126 net.cpp:411] conv1 -> conv1
I1228 15:56:38.071208  4126 cudnn_conv_layer.cpp:194] Reallocating workspace storage: 213876
I1228 15:56:38.071385  4126 net.cpp:150] Setting up conv1
I1228 15:56:38.071408  4126 net.cpp:157] Top shape: 50 96 109 109 (57028800)
I1228 15:56:38.071414  4126 net.cpp:165] Memory required for data: 258221000
I1228 15:56:38.071447  4126 layer_factory.hpp:76] Creating layer relu1
I1228 15:56:38.071466  4126 net.cpp:106] Creating Layer relu1
I1228 15:56:38.071476  4126 net.cpp:454] relu1 <- conv1
I1228 15:56:38.071485  4126 net.cpp:397] relu1 -> conv1 (in-place)
I1228 15:56:38.071692  4126 net.cpp:150] Setting up relu1
I1228 15:56:38.071708  4126 net.cpp:157] Top shape: 50 96 109 109 (57028800)
I1228 15:56:38.071714  4126 net.cpp:165] Memory required for data: 486336200
I1228 15:56:38.071720  4126 layer_factory.hpp:76] Creating layer norm1
I1228 15:56:38.071735  4126 net.cpp:106] Creating Layer norm1
I1228 15:56:38.071744  4126 net.cpp:454] norm1 <- conv1
I1228 15:56:38.071753  4126 net.cpp:411] norm1 -> norm1
I1228 15:56:38.072120  4126 net.cpp:150] Setting up norm1
I1228 15:56:38.072137  4126 net.cpp:157] Top shape: 50 96 109 109 (57028800)
I1228 15:56:38.072144  4126 net.cpp:165] Memory required for data: 714451400
I1228 15:56:38.072149  4126 layer_factory.hpp:76] Creating layer pool1
I1228 15:56:38.072161  4126 net.cpp:106] Creating Layer pool1
I1228 15:56:38.072167  4126 net.cpp:454] pool1 <- norm1
I1228 15:56:38.072175  4126 net.cpp:411] pool1 -> pool1
I1228 15:56:38.072427  4126 net.cpp:150] Setting up pool1
I1228 15:56:38.072460  4126 net.cpp:157] Top shape: 50 96 37 37 (6571200)
I1228 15:56:38.072468  4126 net.cpp:165] Memory required for data: 740736200
I1228 15:56:38.072474  4126 layer_factory.hpp:76] Creating layer conv2
I1228 15:56:38.072489  4126 net.cpp:106] Creating Layer conv2
I1228 15:56:38.072494  4126 net.cpp:454] conv2 <- pool1
I1228 15:56:38.072504  4126 net.cpp:411] conv2 -> conv2
I1228 15:56:38.097488  4126 cudnn_conv_layer.cpp:194] Reallocating workspace storage: 21972
I1228 15:56:38.097535  4126 net.cpp:150] Setting up conv2
I1228 15:56:38.097549  4126 net.cpp:157] Top shape: 50 256 33 33 (13939200)
I1228 15:56:38.097555  4126 net.cpp:165] Memory required for data: 796493000
I1228 15:56:38.097575  4126 layer_factory.hpp:76] Creating layer relu2
I1228 15:56:38.097589  4126 net.cpp:106] Creating Layer relu2
I1228 15:56:38.097596  4126 net.cpp:454] relu2 <- conv2
I1228 15:56:38.097607  4126 net.cpp:397] relu2 -> conv2 (in-place)
I1228 15:56:38.097960  4126 net.cpp:150] Setting up relu2
I1228 15:56:38.097978  4126 net.cpp:157] Top shape: 50 256 33 33 (13939200)
I1228 15:56:38.097985  4126 net.cpp:165] Memory required for data: 852249800
I1228 15:56:38.097990  4126 layer_factory.hpp:76] Creating layer pool2
I1228 15:56:38.098002  4126 net.cpp:106] Creating Layer pool2
I1228 15:56:38.098008  4126 net.cpp:454] pool2 <- conv2
I1228 15:56:38.098016  4126 net.cpp:411] pool2 -> pool2
I1228 15:56:38.098255  4126 net.cpp:150] Setting up pool2
I1228 15:56:38.098270  4126 net.cpp:157] Top shape: 50 256 17 17 (3699200)
I1228 15:56:38.098276  4126 net.cpp:165] Memory required for data: 867046600
I1228 15:56:38.098283  4126 layer_factory.hpp:76] Creating layer conv3
I1228 15:56:38.098301  4126 net.cpp:106] Creating Layer conv3
I1228 15:56:38.098309  4126 net.cpp:454] conv3 <- pool2
I1228 15:56:38.098317  4126 net.cpp:411] conv3 -> conv3
I1228 15:56:38.144480  4126 cudnn_conv_layer.cpp:194] Reallocating workspace storage: 11748
I1228 15:56:38.144649  4126 net.cpp:150] Setting up conv3
I1228 15:56:38.144671  4126 net.cpp:157] Top shape: 50 512 17 17 (7398400)
I1228 15:56:38.144677  4126 net.cpp:165] Memory required for data: 896640200
I1228 15:56:38.144698  4126 layer_factory.hpp:76] Creating layer relu3
I1228 15:56:38.144713  4126 net.cpp:106] Creating Layer relu3
I1228 15:56:38.144721  4126 net.cpp:454] relu3 <- conv3
I1228 15:56:38.144729  4126 net.cpp:397] relu3 -> conv3 (in-place)
I1228 15:56:38.145087  4126 net.cpp:150] Setting up relu3
I1228 15:56:38.145103  4126 net.cpp:157] Top shape: 50 512 17 17 (7398400)
I1228 15:56:38.145109  4126 net.cpp:165] Memory required for data: 926233800
I1228 15:56:38.145115  4126 layer_factory.hpp:76] Creating layer conv4
I1228 15:56:38.145131  4126 net.cpp:106] Creating Layer conv4
I1228 15:56:38.145139  4126 net.cpp:454] conv4 <- conv3
I1228 15:56:38.145150  4126 net.cpp:411] conv4 -> conv4
I1228 15:56:38.235355  4126 cudnn_conv_layer.cpp:194] Reallocating workspace storage: 11748
I1228 15:56:38.235404  4126 net.cpp:150] Setting up conv4
I1228 15:56:38.235419  4126 net.cpp:157] Top shape: 50 512 17 17 (7398400)
I1228 15:56:38.235424  4126 net.cpp:165] Memory required for data: 955827400
I1228 15:56:38.235436  4126 layer_factory.hpp:76] Creating layer relu4
I1228 15:56:38.235453  4126 net.cpp:106] Creating Layer relu4
I1228 15:56:38.235461  4126 net.cpp:454] relu4 <- conv4
I1228 15:56:38.235471  4126 net.cpp:397] relu4 -> conv4 (in-place)
I1228 15:56:38.235831  4126 net.cpp:150] Setting up relu4
I1228 15:56:38.235847  4126 net.cpp:157] Top shape: 50 512 17 17 (7398400)
I1228 15:56:38.235853  4126 net.cpp:165] Memory required for data: 985421000
I1228 15:56:38.235859  4126 layer_factory.hpp:76] Creating layer conv5
I1228 15:56:38.235877  4126 net.cpp:106] Creating Layer conv5
I1228 15:56:38.235883  4126 net.cpp:454] conv5 <- conv4
I1228 15:56:38.235893  4126 net.cpp:411] conv5 -> conv5
I1228 15:56:38.326339  4126 cudnn_conv_layer.cpp:194] Reallocating workspace storage: 11748
I1228 15:56:38.326391  4126 net.cpp:150] Setting up conv5
I1228 15:56:38.326406  4126 net.cpp:157] Top shape: 50 512 17 17 (7398400)
I1228 15:56:38.326442  4126 net.cpp:165] Memory required for data: 1015014600
I1228 15:56:38.326463  4126 layer_factory.hpp:76] Creating layer relu5
I1228 15:56:38.326483  4126 net.cpp:106] Creating Layer relu5
I1228 15:56:38.326491  4126 net.cpp:454] relu5 <- conv5
I1228 15:56:38.326501  4126 net.cpp:397] relu5 -> conv5 (in-place)
I1228 15:56:38.326715  4126 net.cpp:150] Setting up relu5
I1228 15:56:38.326730  4126 net.cpp:157] Top shape: 50 512 17 17 (7398400)
I1228 15:56:38.326736  4126 net.cpp:165] Memory required for data: 1044608200
I1228 15:56:38.326742  4126 layer_factory.hpp:76] Creating layer pool5
I1228 15:56:38.326752  4126 net.cpp:106] Creating Layer pool5
I1228 15:56:38.326757  4126 net.cpp:454] pool5 <- conv5
I1228 15:56:38.326768  4126 net.cpp:411] pool5 -> pool5
I1228 15:56:38.327160  4126 net.cpp:150] Setting up pool5
I1228 15:56:38.327178  4126 net.cpp:157] Top shape: 50 512 6 6 (921600)
I1228 15:56:38.327183  4126 net.cpp:165] Memory required for data: 1048294600
I1228 15:56:38.327189  4126 layer_factory.hpp:76] Creating layer fc6
I1228 15:56:38.327205  4126 net.cpp:106] Creating Layer fc6
I1228 15:56:38.327211  4126 net.cpp:454] fc6 <- pool5
I1228 15:56:38.327221  4126 net.cpp:411] fc6 -> fc6
I1228 15:56:38.492689  4126 net.cpp:150] Setting up fc6
I1228 15:56:38.492732  4126 net.cpp:157] Top shape: 50 4096 (204800)
I1228 15:56:38.492738  4126 net.cpp:165] Memory required for data: 1049113800
I1228 15:56:38.492753  4126 layer_factory.hpp:76] Creating layer relu6
I1228 15:56:38.492774  4126 net.cpp:106] Creating Layer relu6
I1228 15:56:38.492782  4126 net.cpp:454] relu6 <- fc6
I1228 15:56:38.492792  4126 net.cpp:397] relu6 -> fc6 (in-place)
I1228 15:56:38.493075  4126 net.cpp:150] Setting up relu6
I1228 15:56:38.493091  4126 net.cpp:157] Top shape: 50 4096 (204800)
I1228 15:56:38.493098  4126 net.cpp:165] Memory required for data: 1049933000
I1228 15:56:38.493103  4126 layer_factory.hpp:76] Creating layer drop6
I1228 15:56:38.493119  4126 net.cpp:106] Creating Layer drop6
I1228 15:56:38.493126  4126 net.cpp:454] drop6 <- fc6
I1228 15:56:38.493136  4126 net.cpp:397] drop6 -> fc6 (in-place)
I1228 15:56:38.493181  4126 net.cpp:150] Setting up drop6
I1228 15:56:38.493194  4126 net.cpp:157] Top shape: 50 4096 (204800)
I1228 15:56:38.493199  4126 net.cpp:165] Memory required for data: 1050752200
I1228 15:56:38.493204  4126 layer_factory.hpp:76] Creating layer fc7
I1228 15:56:38.493221  4126 net.cpp:106] Creating Layer fc7
I1228 15:56:38.493229  4126 net.cpp:454] fc7 <- fc6
I1228 15:56:38.493237  4126 net.cpp:411] fc7 -> fc7
I1228 15:56:38.530527  4126 net.cpp:150] Setting up fc7
I1228 15:56:38.530578  4126 net.cpp:157] Top shape: 50 4096 (204800)
I1228 15:56:38.530586  4126 net.cpp:165] Memory required for data: 1051571400
I1228 15:56:38.530601  4126 layer_factory.hpp:76] Creating layer relu7
I1228 15:56:38.530616  4126 net.cpp:106] Creating Layer relu7
I1228 15:56:38.530622  4126 net.cpp:454] relu7 <- fc7
I1228 15:56:38.530632  4126 net.cpp:397] relu7 -> fc7 (in-place)
I1228 15:56:38.531150  4126 net.cpp:150] Setting up relu7
I1228 15:56:38.531170  4126 net.cpp:157] Top shape: 50 4096 (204800)
I1228 15:56:38.531177  4126 net.cpp:165] Memory required for data: 1052390600
I1228 15:56:38.531183  4126 layer_factory.hpp:76] Creating layer drop7
I1228 15:56:38.531194  4126 net.cpp:106] Creating Layer drop7
I1228 15:56:38.531200  4126 net.cpp:454] drop7 <- fc7
I1228 15:56:38.531208  4126 net.cpp:397] drop7 -> fc7 (in-place)
I1228 15:56:38.531251  4126 net.cpp:150] Setting up drop7
I1228 15:56:38.531263  4126 net.cpp:157] Top shape: 50 4096 (204800)
I1228 15:56:38.531270  4126 net.cpp:165] Memory required for data: 1053209800
I1228 15:56:38.531275  4126 layer_factory.hpp:76] Creating layer fc8_oxford102
I1228 15:56:38.531287  4126 net.cpp:106] Creating Layer fc8_oxford102
I1228 15:56:38.531294  4126 net.cpp:454] fc8_oxford102 <- fc7
I1228 15:56:38.531302  4126 net.cpp:411] fc8_oxford102 -> fc8_oxford102
I1228 15:56:38.549180  4126 net.cpp:150] Setting up fc8_oxford102
I1228 15:56:38.549224  4126 net.cpp:157] Top shape: 50 102 (5100)
I1228 15:56:38.549232  4126 net.cpp:165] Memory required for data: 1053230200
I1228 15:56:38.549244  4126 layer_factory.hpp:76] Creating layer loss
I1228 15:56:38.549262  4126 net.cpp:106] Creating Layer loss
I1228 15:56:38.549269  4126 net.cpp:454] loss <- fc8_oxford102
I1228 15:56:38.549276  4126 net.cpp:454] loss <- label
I1228 15:56:38.549291  4126 net.cpp:411] loss -> (automatic)
…
I1228 15:56:38.550847  4126 net.cpp:322] The NetState phase (1) differed from the phase (0) specified by a rule in layer data
I1228 15:56:38.551071  4126 net.cpp:49] Initializing net from parameters: 
name: "Oxford102_VGG_CNN_S"
state {
  phase: TEST
}
layer {
  name: "data"
  type: "ImageData"
  top: "data"
  top: "label"
  include {
    phase: TEST
  }
  transform_param {
    mirror: false
    crop_size: 224
    mean_file: "/home/dl/caffe-master/models/bvlc_reference_caffenet/imagenet_mean.binaryproto"
  }
  image_data_param {
    source: "/home/dl/caffe-master/data/oxford102/train.txt"
    batch_size: 50
    new_height: 256
    new_width: 256
  }
}
layer {
  name: "conv1"
  type: "Convolution"
  bottom: "data"
  top: "conv1"
  param {
    lr_mult: 1
    decay_mult: 1
  }
  param {
    lr_mult: 2
    decay_mult: 0
  }
  convolution_param {
    num_output: 96
    kernel_size: 7
    stride: 2
    weight_filler {
      type: "gaussian"
      std: 0.01
    }
    bias_filler {
      type: "constant"
      value: 0
    }
  }
}
layer {
  name: "relu1"
  type: "ReLU"
  bottom: "conv1"
  top: "conv1"
}
layer {
  name: "norm1"
  type: "LRN"
  bottom: "conv1"
  top: "norm1"
  lrn_param {
    local_size: 5
    alpha: 0.0005
    beta: 0.75
    k: 2
  }
}
layer {
  name: "pool1"
  type: "Pooling"
  bottom: "norm1"
  top: "pool1"
  pooling_param {
    pool: MAX
    kernel_size: 3
    stride: 3
  }
}
layer {
  name: "conv2"
  type: "Convolution"
  bottom: "pool1"
  top: "conv2"
  param {
    lr_mult: 1
    decay_mult: 1
  }
  param {
    lr_mult: 2
    decay_mult: 0
  }
  convolution_param {
    num_output: 256
    kernel_size: 5
    weight_filler {
      type: "gaussian"
      std: 0.01
    }
    bias_filler {
      type: "constant"
      value: 1
    }
  }
}
layer {
  name: "relu2"
  type: "ReLU"
  bottom: "conv2"
  top: "conv2"
}
layer {
  name: "pool2"
  type: "Pooling"
  bottom: "conv2"
  top: "pool2"
  pooling_param {
    pool: MAX
    kernel_size: 2
    stride: 2
  }
}
layer {
  name: "conv3"
  type: "Convolution"
  bottom: "pool2"
  top: "conv3"
  param {
    lr_mult: 1
    decay_mult: 1
  }
  param {
    lr_mult: 2
    decay_mult: 0
  }
  convolution_param {
    num_output: 512
    pad: 1
    kernel_size: 3
    weight_filler {
      type: "gaussian"
      std: 0.01
    }
    bias_filler {
      type: "constant"
      value: 1
    }
  }
}
layer {
  name: "relu3"
  type: "ReLU"
  bottom: "conv3"
  top: "conv3"
}
layer {
  name: "conv4"
  type: "Convolution"
  bottom: "conv3"
  top: "conv4"
  param {
    lr_mult: 1
    decay_mult: 1
  }
  param {
    lr_mult: 2
    decay_mult: 0
  }
  convolution_param {
    num_output: 512
    pad: 1
    kernel_size: 3
    weight_filler {
      type: "gaussian"
      std: 0.01
    }
    bias_filler {
      type: "constant"
      value: 1
    }
  }
}
layer {
  name: "relu4"
  type: "ReLU"
  bottom: "conv4"
  top: "conv4"
}
layer {
  name: "conv5"
  type: "Convolution"
  bottom: "conv4"
  top: "conv5"
  param {
    lr_mult: 1
    decay_mult: 1
  }
  param {
    lr_mult: 2
    decay_mult: 0
  }
  convolution_param {
    num_output: 512
    pad: 1
    kernel_size: 3
    weight_filler {
      type: "gaussian"
      std: 0.005
    }
    bias_filler {
      type: "constant"
      value: 1
    }
  }
}
layer {
  name: "relu5"
  type: "ReLU"
  bottom: "conv5"
  top: "conv5"
}
layer {
  name: "pool5"
  type: "Pooling"
  bottom: "conv5"
  top: "pool5"
  pooling_param {
    pool: MAX
    kernel_size: 3
    stride: 3
  }
}
layer {
  name: "fc6"
  type: "InnerProduct"
  bottom: "pool5"
  top: "fc6"
  inner_product_param {
    num_output: 4096
  }
}
layer {
  name: "relu6"
  type: "ReLU"
  bottom: "fc6"
  top: "fc6"
}
layer {
  name: "drop6"
  type: "Dropout"
  bottom: "fc6"
  top: "fc6"
  dropout_param {
    dropout_ratio: 0.5
  }
}
layer {
  name: "fc7"
  type: "InnerProduct"
  bottom: "fc6"
  top: "fc7"
  inner_product_param {
    num_output: 4096
  }
}
layer {
  name: "relu7"
  type: "ReLU"
  bottom: "fc7"
  top: "fc7"
}
layer {
  name: "drop7"
  type: "Dropout"
  bottom: "fc7"
  top: "fc7"
  dropout_param {
    dropout_ratio: 0.5
  }
}
layer {
  name: "fc8_oxford102"
  type: "InnerProduct"
  bottom: "fc7"
  top: "fc8_oxford102"
  param {
    lr_mult: 10
    decay_mult: 1
  }
  param {
    lr_mult: 20
    decay_mult: 0
  }
  inner_product_param {
    num_output: 102
    weight_filler {
      type: "gaussian"
      std: 0.01
    }
    bias_filler {
      type: "constant"
      value: 0
    }
  }
}
layer {
  name: "loss"
  type: "SoftmaxWithLoss"
  bottom: "fc8_oxford102"
  bottom: "label"
}
layer {
  name: "accuracy"
  type: "Accuracy"
  bottom: "fc8_oxford102"
  bottom: "label"
  top: "accuracy"
  include {
    phase: TEST
  }
}
I1228 15:56:38.551246  4126 layer_factory.hpp:76] Creating layer data
I1228 15:56:38.551270  4126 net.cpp:106] Creating Layer data
I1228 15:56:38.551277  4126 net.cpp:411] data -> data
I1228 15:56:38.551291  4126 net.cpp:411] data -> label
I1228 15:56:38.551303  4126 data_transformer.cpp:25] Loading mean file from: /home/dl/caffe-master/models/bvlc_reference_caffenet/imagenet_mean.binaryproto
I1228 15:56:38.553802  4126 image_data_layer.cpp:36] Opening file /home/dl/caffe-master/data/oxford102/train.txt
I1228 15:56:38.554443  4126 image_data_layer.cpp:51] A total of 1020 images.
I1228 15:56:38.560299  4126 image_data_layer.cpp:78] output data size: 50,3,224,224
I1228 15:56:38.614276  4126 net.cpp:150] Setting up data
I1228 15:56:38.614310  4126 net.cpp:157] Top shape: 50 3 224 224 (7526400)
I1228 15:56:38.614318  4126 net.cpp:157] Top shape: 50 (50)
I1228 15:56:38.614325  4126 net.cpp:165] Memory required for data: 30105800
I1228 15:56:38.614334  4126 layer_factory.hpp:76] Creating layer label_data_1_split
I1228 15:56:38.614356  4126 net.cpp:106] Creating Layer label_data_1_split
I1228 15:56:38.614364  4126 net.cpp:454] label_data_1_split <- label
I1228 15:56:38.614374  4126 net.cpp:411] label_data_1_split -> label_data_1_split_0
I1228 15:56:38.614421  4126 net.cpp:411] label_data_1_split -> label_data_1_split_1
I1228 15:56:38.614511  4126 net.cpp:150] Setting up label_data_1_split
I1228 15:56:38.614526  4126 net.cpp:157] Top shape: 50 (50)
I1228 15:56:38.614533  4126 net.cpp:157] Top shape: 50 (50)
I1228 15:56:38.614538  4126 net.cpp:165] Memory required for data: 30106200
I1228 15:56:38.614565  4126 layer_factory.hpp:76] Creating layer conv1
I1228 15:56:38.614585  4126 net.cpp:106] Creating Layer conv1
I1228 15:56:38.614609  4126 net.cpp:454] conv1 <- data
I1228 15:56:38.614624  4126 net.cpp:411] conv1 -> conv1
I1228 15:56:38.616554  4126 cudnn_conv_layer.cpp:194] Reallocating workspace storage: 213876
I1228 15:56:38.616600  4126 net.cpp:150] Setting up conv1
I1228 15:56:38.616611  4126 net.cpp:157] Top shape: 50 96 109 109 (57028800)
I1228 15:56:38.616617  4126 net.cpp:165] Memory required for data: 258221400
I1228 15:56:38.616662  4126 layer_factory.hpp:76] Creating layer relu1
I1228 15:56:38.616677  4126 net.cpp:106] Creating Layer relu1
I1228 15:56:38.616683  4126 net.cpp:454] relu1 <- conv1
I1228 15:56:38.616711  4126 net.cpp:397] relu1 -> conv1 (in-place)
I1228 15:56:38.617054  4126 net.cpp:150] Setting up relu1
I1228 15:56:38.617072  4126 net.cpp:157] Top shape: 50 96 109 109 (57028800)
I1228 15:56:38.617077  4126 net.cpp:165] Memory required for data: 486336600
I1228 15:56:38.617084  4126 layer_factory.hpp:76] Creating layer norm1
I1228 15:56:38.617096  4126 net.cpp:106] Creating Layer norm1
I1228 15:56:38.617102  4126 net.cpp:454] norm1 <- conv1
I1228 15:56:38.617110  4126 net.cpp:411] norm1 -> norm1
I1228 15:56:38.617338  4126 net.cpp:150] Setting up norm1
I1228 15:56:38.617354  4126 net.cpp:157] Top shape: 50 96 109 109 (57028800)
I1228 15:56:38.617360  4126 net.cpp:165] Memory required for data: 714451800
I1228 15:56:38.617391  4126 layer_factory.hpp:76] Creating layer pool1
I1228 15:56:38.617406  4126 net.cpp:106] Creating Layer pool1
I1228 15:56:38.617430  4126 net.cpp:454] pool1 <- norm1
I1228 15:56:38.617442  4126 net.cpp:411] pool1 -> pool1
I1228 15:56:38.617810  4126 net.cpp:150] Setting up pool1
I1228 15:56:38.617826  4126 net.cpp:157] Top shape: 50 96 37 37 (6571200)
I1228 15:56:38.617832  4126 net.cpp:165] Memory required for data: 740736600
I1228 15:56:38.617838  4126 layer_factory.hpp:76] Creating layer conv2
I1228 15:56:38.617849  4126 net.cpp:106] Creating Layer conv2
I1228 15:56:38.617856  4126 net.cpp:454] conv2 <- pool1
I1228 15:56:38.617863  4126 net.cpp:411] conv2 -> conv2
I1228 15:56:38.642016  4126 cudnn_conv_layer.cpp:194] Reallocating workspace storage: 21972
I1228 15:56:38.642056  4126 net.cpp:150] Setting up conv2
I1228 15:56:38.642071  4126 net.cpp:157] Top shape: 50 256 33 33 (13939200)
I1228 15:56:38.642076  4126 net.cpp:165] Memory required for data: 796493400
I1228 15:56:38.642094  4126 layer_factory.hpp:76] Creating layer relu2
I1228 15:56:38.642140  4126 net.cpp:106] Creating Layer relu2
I1228 15:56:38.642170  4126 net.cpp:454] relu2 <- conv2
I1228 15:56:38.642200  4126 net.cpp:397] relu2 -> conv2 (in-place)
I1228 15:56:38.642410  4126 net.cpp:150] Setting up relu2
I1228 15:56:38.642426  4126 net.cpp:157] Top shape: 50 256 33 33 (13939200)
I1228 15:56:38.642431  4126 net.cpp:165] Memory required for data: 852250200
I1228 15:56:38.642484  4126 layer_factory.hpp:76] Creating layer pool2
I1228 15:56:38.642503  4126 net.cpp:106] Creating Layer pool2
I1228 15:56:38.642526  4126 net.cpp:454] pool2 <- conv2
I1228 15:56:38.642539  4126 net.cpp:411] pool2 -> pool2
I1228 15:56:38.642949  4126 net.cpp:150] Setting up pool2
I1228 15:56:38.642968  4126 net.cpp:157] Top shape: 50 256 17 17 (3699200)
I1228 15:56:38.642998  4126 net.cpp:165] Memory required for data: 867047000
I1228 15:56:38.643008  4126 layer_factory.hpp:76] Creating layer conv3
I1228 15:56:38.643023  4126 net.cpp:106] Creating Layer conv3
I1228 15:56:38.643048  4126 net.cpp:454] conv3 <- pool2
I1228 15:56:38.643061  4126 net.cpp:411] conv3 -> conv3
I1228 15:56:38.688115  4126 cudnn_conv_layer.cpp:194] Reallocating workspace storage: 11748
I1228 15:56:38.688166  4126 net.cpp:150] Setting up conv3
I1228 15:56:38.688181  4126 net.cpp:157] Top shape: 50 512 17 17 (7398400)
I1228 15:56:38.688187  4126 net.cpp:165] Memory required for data: 896640600
I1228 15:56:38.688206  4126 layer_factory.hpp:76] Creating layer relu3
I1228 15:56:38.688220  4126 net.cpp:106] Creating Layer relu3
I1228 15:56:38.688259  4126 net.cpp:454] relu3 <- conv3
I1228 15:56:38.688290  4126 net.cpp:397] relu3 -> conv3 (in-place)
I1228 15:56:38.688508  4126 net.cpp:150] Setting up relu3
I1228 15:56:38.688524  4126 net.cpp:157] Top shape: 50 512 17 17 (7398400)
I1228 15:56:38.688530  4126 net.cpp:165] Memory required for data: 926234200
I1228 15:56:38.688536  4126 layer_factory.hpp:76] Creating layer conv4
I1228 15:56:38.688572  4126 net.cpp:106] Creating Layer conv4
I1228 15:56:38.688582  4126 net.cpp:454] conv4 <- conv3
I1228 15:56:38.688592  4126 net.cpp:411] conv4 -> conv4
I1228 15:56:38.777585  4126 cudnn_conv_layer.cpp:194] Reallocating workspace storage: 11748
I1228 15:56:38.777637  4126 net.cpp:150] Setting up conv4
I1228 15:56:38.777652  4126 net.cpp:157] Top shape: 50 512 17 17 (7398400)
I1228 15:56:38.777657  4126 net.cpp:165] Memory required for data: 955827800
I1228 15:56:38.777669  4126 layer_factory.hpp:76] Creating layer relu4
I1228 15:56:38.777684  4126 net.cpp:106] Creating Layer relu4
I1228 15:56:38.777700  4126 net.cpp:454] relu4 <- conv4
I1228 15:56:38.777710  4126 net.cpp:397] relu4 -> conv4 (in-place)
I1228 15:56:38.777909  4126 net.cpp:150] Setting up relu4
I1228 15:56:38.777925  4126 net.cpp:157] Top shape: 50 512 17 17 (7398400)
I1228 15:56:38.777930  4126 net.cpp:165] Memory required for data: 985421400
I1228 15:56:38.777936  4126 layer_factory.hpp:76] Creating layer conv5
I1228 15:56:38.777950  4126 net.cpp:106] Creating Layer conv5
I1228 15:56:38.777956  4126 net.cpp:454] conv5 <- conv4
I1228 15:56:38.777964  4126 net.cpp:411] conv5 -> conv5
I1228 15:56:38.870301  4126 cudnn_conv_layer.cpp:194] Reallocating workspace storage: 11748
I1228 15:56:38.870355  4126 net.cpp:150] Setting up conv5
I1228 15:56:38.870369  4126 net.cpp:157] Top shape: 50 512 17 17 (7398400)
I1228 15:56:38.870375  4126 net.cpp:165] Memory required for data: 1015015000
I1228 15:56:38.870394  4126 layer_factory.hpp:76] Creating layer relu5
I1228 15:56:38.870409  4126 net.cpp:106] Creating Layer relu5
I1228 15:56:38.870416  4126 net.cpp:454] relu5 <- conv5
I1228 15:56:38.870425  4126 net.cpp:397] relu5 -> conv5 (in-place)
I1228 15:56:38.870759  4126 net.cpp:150] Setting up relu5
I1228 15:56:38.870776  4126 net.cpp:157] Top shape: 50 512 17 17 (7398400)
I1228 15:56:38.870782  4126 net.cpp:165] Memory required for data: 1044608600
I1228 15:56:38.870789  4126 layer_factory.hpp:76] Creating layer pool5
I1228 15:56:38.870798  4126 net.cpp:106] Creating Layer pool5
I1228 15:56:38.870805  4126 net.cpp:454] pool5 <- conv5
I1228 15:56:38.870813  4126 net.cpp:411] pool5 -> pool5
I1228 15:56:38.871073  4126 net.cpp:150] Setting up pool5
I1228 15:56:38.871089  4126 net.cpp:157] Top shape: 50 512 6 6 (921600)
I1228 15:56:38.871094  4126 net.cpp:165] Memory required for data: 1048295000
I1228 15:56:38.871100  4126 layer_factory.hpp:76] Creating layer fc6
I1228 15:56:38.871114  4126 net.cpp:106] Creating Layer fc6
I1228 15:56:38.871119  4126 net.cpp:454] fc6 <- pool5
I1228 15:56:38.871152  4126 net.cpp:411] fc6 -> fc6
I1228 15:56:39.038791  4126 net.cpp:150] Setting up fc6
I1228 15:56:39.038869  4126 net.cpp:157] Top shape: 50 4096 (204800)
I1228 15:56:39.038877  4126 net.cpp:165] Memory required for data: 1049114200
I1228 15:56:39.038892  4126 layer_factory.hpp:76] Creating layer relu6
I1228 15:56:39.038913  4126 net.cpp:106] Creating Layer relu6
I1228 15:56:39.038919  4126 net.cpp:454] relu6 <- fc6
I1228 15:56:39.038929  4126 net.cpp:397] relu6 -> fc6 (in-place)
I1228 15:56:39.039427  4126 net.cpp:150] Setting up relu6
I1228 15:56:39.039445  4126 net.cpp:157] Top shape: 50 4096 (204800)
I1228 15:56:39.039451  4126 net.cpp:165] Memory required for data: 1049933400
I1228 15:56:39.039456  4126 layer_factory.hpp:76] Creating layer drop6
I1228 15:56:39.039468  4126 net.cpp:106] Creating Layer drop6
I1228 15:56:39.039474  4126 net.cpp:454] drop6 <- fc6
I1228 15:56:39.039481  4126 net.cpp:397] drop6 -> fc6 (in-place)
I1228 15:56:39.039525  4126 net.cpp:150] Setting up drop6
I1228 15:56:39.039536  4126 net.cpp:157] Top shape: 50 4096 (204800)
I1228 15:56:39.039541  4126 net.cpp:165] Memory required for data: 1050752600
I1228 15:56:39.039547  4126 layer_factory.hpp:76] Creating layer fc7
I1228 15:56:39.039557  4126 net.cpp:106] Creating Layer fc7
I1228 15:56:39.039562  4126 net.cpp:454] fc7 <- fc6
I1228 15:56:39.039571  4126 net.cpp:411] fc7 -> fc7
I1228 15:56:39.076426  4126 net.cpp:150] Setting up fc7
I1228 15:56:39.076468  4126 net.cpp:157] Top shape: 50 4096 (204800)
I1228 15:56:39.076475  4126 net.cpp:165] Memory required for data: 1051571800
I1228 15:56:39.076489  4126 layer_factory.hpp:76] Creating layer relu7
I1228 15:56:39.076504  4126 net.cpp:106] Creating Layer relu7
I1228 15:56:39.076511  4126 net.cpp:454] relu7 <- fc7
I1228 15:56:39.076521  4126 net.cpp:397] relu7 -> fc7 (in-place)
I1228 15:56:39.076795  4126 net.cpp:150] Setting up relu7
I1228 15:56:39.076812  4126 net.cpp:157] Top shape: 50 4096 (204800)
I1228 15:56:39.076817  4126 net.cpp:165] Memory required for data: 1052391000
I1228 15:56:39.076823  4126 layer_factory.hpp:76] Creating layer drop7
I1228 15:56:39.076833  4126 net.cpp:106] Creating Layer drop7
I1228 15:56:39.076839  4126 net.cpp:454] drop7 <- fc7
I1228 15:56:39.076846  4126 net.cpp:397] drop7 -> fc7 (in-place)
I1228 15:56:39.076889  4126 net.cpp:150] Setting up drop7
I1228 15:56:39.076901  4126 net.cpp:157] Top shape: 50 4096 (204800)
I1228 15:56:39.076906  4126 net.cpp:165] Memory required for data: 1053210200
I1228 15:56:39.076912  4126 layer_factory.hpp:76] Creating layer fc8_oxford102
I1228 15:56:39.076925  4126 net.cpp:106] Creating Layer fc8_oxford102
I1228 15:56:39.076930  4126 net.cpp:454] fc8_oxford102 <- fc7
I1228 15:56:39.076938  4126 net.cpp:411] fc8_oxford102 -> fc8_oxford102
I1228 15:56:39.092736  4126 net.cpp:150] Setting up fc8_oxford102
I1228 15:56:39.092758  4126 net.cpp:157] Top shape: 50 102 (5100)
I1228 15:56:39.092764  4126 net.cpp:165] Memory required for data: 1053230600
I1228 15:56:39.092775  4126 layer_factory.hpp:76] Creating layer fc8_oxford102_fc8_oxford102_0_split
I1228 15:56:39.092787  4126 net.cpp:106] Creating Layer fc8_oxford102_fc8_oxford102_0_split
I1228 15:56:39.092793  4126 net.cpp:454] fc8_oxford102_fc8_oxford102_0_split <- fc8_oxford102
I1228 15:56:39.092803  4126 net.cpp:411] fc8_oxford102_fc8_oxford102_0_split -> fc8_oxford102_fc8_oxford102_0_split_0
I1228 15:56:39.092818  4126 net.cpp:411] fc8_oxford102_fc8_oxford102_0_split -> fc8_oxford102_fc8_oxford102_0_split_1
I1228 15:56:39.092869  4126 net.cpp:150] Setting up fc8_oxford102_fc8_oxford102_0_split
I1228 15:56:39.092885  4126 net.cpp:157] Top shape: 50 102 (5100)
I1228 15:56:39.092892  4126 net.cpp:157] Top shape: 50 102 (5100)
I1228 15:56:39.092897  4126 net.cpp:165] Memory required for data: 1053271400
I1228 15:56:39.092903  4126 layer_factory.hpp:76] Creating layer loss
I1228 15:56:39.092912  4126 net.cpp:106] Creating Layer loss
I1228 15:56:39.092947  4126 net.cpp:454] loss <- fc8_oxford102_fc8_oxford102_0_split_0
I1228 15:56:39.092959  4126 net.cpp:454] loss <- label_data_1_split_0
I1228 15:56:39.092988  4126 net.cpp:411] loss -> (automatic)
…
