…
I0119 13:04:30.010251 11245 net.cpp:322] The NetState phase (0) differed from the phase (1) specified by a rule in layer accuracy
I0119 13:04:30.010469 11245 net.cpp:49] Initializing net from parameters: 
name: "Oxford102_VGG_CNN_S"
state {
  phase: TRAIN
}
layer {
  name: "data"
  type: "ImageData"
  top: "data"
  top: "label"
  include {
    phase: TRAIN
  }
  transform_param {
    mirror: true
    crop_size: 224
    mean_file: "/home/dl/caffe-master/models/bvlc_reference_caffenet/imagenet_mean.binaryproto"
  }
  image_data_param {
    source: "/home/dl/caffe-master/data/oxford102/test.txt"
    batch_size: 50
    new_height: 256
    new_width: 256
  }
}
layer {
  name: "conv1"
  type: "Convolution"
  bottom: "data"
  top: "conv1"
  param {
    lr_mult: 1
    decay_mult: 1
  }
  param {
    lr_mult: 2
    decay_mult: 0
  }
  convolution_param {
    num_output: 96
    kernel_size: 7
    stride: 2
    weight_filler {
      type: "gaussian"
      std: 0.01
    }
    bias_filler {
      type: "constant"
      value: 0
    }
  }
}
layer {
  name: "relu1"
  type: "ReLU"
  bottom: "conv1"
  top: "conv1"
}
layer {
  name: "norm1"
  type: "LRN"
  bottom: "conv1"
  top: "norm1"
  lrn_param {
    local_size: 5
    alpha: 0.0005
    beta: 0.75
    k: 2
  }
}
layer {
  name: "pool1"
  type: "Pooling"
  bottom: "norm1"
  top: "pool1"
  pooling_param {
    pool: MAX
    kernel_size: 3
    stride: 3
  }
}
layer {
  name: "conv2"
  type: "Convolution"
  bottom: "pool1"
  top: "conv2"
  param {
    lr_mult: 1
    decay_mult: 1
  }
  param {
    lr_mult: 2
    decay_mult: 0
  }
  convolution_param {
    num_output: 256
    kernel_size: 5
    weight_filler {
      type: "gaussian"
      std: 0.01
    }
    bias_filler {
      type: "constant"
      value: 1
    }
  }
}
layer {
  name: "relu2"
  type: "ReLU"
  bottom: "conv2"
  top: "conv2"
}
layer {
  name: "pool2"
  type: "Pooling"
  bottom: "conv2"
  top: "pool2"
  pooling_param {
    pool: MAX
    kernel_size: 2
    stride: 2
  }
}
layer {
  name: "conv3"
  type: "Convolution"
  bottom: "pool2"
  top: "conv3"
  param {
    lr_mult: 1
    decay_mult: 1
  }
  param {
    lr_mult: 2
    decay_mult: 0
  }
  convolution_param {
    num_output: 512
    pad: 1
    kernel_size: 3
    weight_filler {
      type: "gaussian"
      std: 0.01
    }
    bias_filler {
      type: "constant"
      value: 1
    }
  }
}
layer {
  name: "relu3"
  type: "ReLU"
  bottom: "conv3"
  top: "conv3"
}
layer {
  name: "conv4"
  type: "Convolution"
  bottom: "conv3"
  top: "conv4"
  param {
    lr_mult: 1
    decay_mult: 1
  }
  param {
    lr_mult: 2
    decay_mult: 0
  }
  convolution_param {
    num_output: 512
    pad: 1
    kernel_size: 3
    weight_filler {
      type: "gaussian"
      std: 0.01
    }
    bias_filler {
      type: "constant"
      value: 1
    }
  }
}
layer {
  name: "relu4"
  type: "ReLU"
  bottom: "conv4"
  top: "conv4"
}
layer {
  name: "conv5"
  type: "Convolution"
  bottom: "conv4"
  top: "conv5"
  param {
    lr_mult: 1
    decay_mult: 1
  }
  param {
    lr_mult: 2
    decay_mult: 0
  }
  convolution_param {
    num_output: 512
    pad: 1
    kernel_size: 3
    weight_filler {
      type: "gaussian"
      std: 0.005
    }
    bias_filler {
      type: "constant"
      value: 1
    }
  }
}
layer {
  name: "relu5"
  type: "ReLU"
  bottom: "conv5"
  top: "conv5"
}
layer {
  name: "pool5"
  type: "Pooling"
  bottom: "conv5"
  top: "pool5"
  pooling_param {
    pool: MAX
    kernel_size: 3
    stride: 3
  }
}
layer {
  name: "fc6"
  type: "InnerProduct"
  bottom: "pool5"
  top: "fc6"
  inner_product_param {
    num_output: 4096
  }
}
layer {
  name: "relu6"
  type: "ReLU"
  bottom: "fc6"
  top: "fc6"
}
layer {
  name: "drop6"
  type: "Dropout"
  bottom: "fc6"
  top: "fc6"
  dropout_param {
    dropout_ratio: 0.5
  }
}
layer {
  name: "fc7"
  type: "InnerProduct"
  bottom: "fc6"
  top: "fc7"
  inner_product_param {
    num_output: 4096
  }
}
layer {
  name: "relu7"
  type: "ReLU"
  bottom: "fc7"
  top: "fc7"
}
layer {
  name: "drop7"
  type: "Dropout"
  bottom: "fc7"
  top: "fc7"
  dropout_param {
    dropout_ratio: 0.5
  }
}
layer {
  name: "ip1"
  type: "InnerProduct"
  bottom: "fc7"
  top: "ip1"
  param {
    lr_mult: 1
    decay_mult: 1
  }
  param {
    lr_mult: 2
    decay_mult: 0
  }
  inner_product_param {
    num_output: 48
    weight_filler {
      type: "gaussian"
      std: 0.01
    }
    bias_filler {
      type: "constant"
      value: 0
    }
  }
}
layer {
  name: "ip2"
  type: "Sigmoid"
  bottom: "ip1"
  top: "ip2"
}
layer {
  name: "fc8_oxford102_hash"
  type: "InnerProduct"
  bottom: "ip2"
  top: "fc8_oxford102_hash"
  param {
    lr_mult: 10
    decay_mult: 1
  }
  param {
    lr_mult: 20
    decay_mult: 0
  }
  inner_product_param {
    num_output: 102
    weight_filler {
      type: "gaussian"
      std: 0.01
    }
    bias_filler {
      type: "constant"
      value: 0
    }
  }
}
layer {
  name: "loss"
  type: "SoftmaxWithLoss"
  bottom: "fc8_oxford102_hash"
  bottom: "label"
}
I0119 13:04:30.010635 11245 layer_factory.hpp:76] Creating layer data
I0119 13:04:30.010678 11245 net.cpp:106] Creating Layer data
I0119 13:04:30.010691 11245 net.cpp:411] data -> data
I0119 13:04:30.010720 11245 net.cpp:411] data -> label
I0119 13:04:30.010743 11245 data_transformer.cpp:25] Loading mean file from: /home/dl/caffe-master/models/bvlc_reference_caffenet/imagenet_mean.binaryproto
I0119 13:04:30.022835 11245 image_data_layer.cpp:36] Opening file /home/dl/caffe-master/data/oxford102/test.txt
I0119 13:04:30.026136 11245 image_data_layer.cpp:51] A total of 6149 images.
I0119 13:04:30.051820 11245 image_data_layer.cpp:78] output data size: 50,3,224,224
I0119 13:04:30.107302 11245 net.cpp:150] Setting up data
I0119 13:04:30.107358 11245 net.cpp:157] Top shape: 50 3 224 224 (7526400)
I0119 13:04:30.107369 11245 net.cpp:157] Top shape: 50 (50)
I0119 13:04:30.107374 11245 net.cpp:165] Memory required for data: 30105800
I0119 13:04:30.107388 11245 layer_factory.hpp:76] Creating layer conv1
I0119 13:04:30.107415 11245 net.cpp:106] Creating Layer conv1
I0119 13:04:30.107424 11245 net.cpp:454] conv1 <- data
I0119 13:04:30.107442 11245 net.cpp:411] conv1 -> conv1
I0119 13:04:30.276494 11245 cudnn_conv_layer.cpp:194] Reallocating workspace storage: 213876
I0119 13:04:30.276670 11245 net.cpp:150] Setting up conv1
I0119 13:04:30.276693 11245 net.cpp:157] Top shape: 50 96 109 109 (57028800)
I0119 13:04:30.276701 11245 net.cpp:165] Memory required for data: 258221000
I0119 13:04:30.276736 11245 layer_factory.hpp:76] Creating layer relu1
I0119 13:04:30.276757 11245 net.cpp:106] Creating Layer relu1
I0119 13:04:30.276765 11245 net.cpp:454] relu1 <- conv1
I0119 13:04:30.276777 11245 net.cpp:397] relu1 -> conv1 (in-place)
I0119 13:04:30.276988 11245 net.cpp:150] Setting up relu1
I0119 13:04:30.277005 11245 net.cpp:157] Top shape: 50 96 109 109 (57028800)
I0119 13:04:30.277011 11245 net.cpp:165] Memory required for data: 486336200
I0119 13:04:30.277017 11245 layer_factory.hpp:76] Creating layer norm1
I0119 13:04:30.277032 11245 net.cpp:106] Creating Layer norm1
I0119 13:04:30.277040 11245 net.cpp:454] norm1 <- conv1
I0119 13:04:30.277050 11245 net.cpp:411] norm1 -> norm1
I0119 13:04:30.277432 11245 net.cpp:150] Setting up norm1
I0119 13:04:30.277467 11245 net.cpp:157] Top shape: 50 96 109 109 (57028800)
I0119 13:04:30.277474 11245 net.cpp:165] Memory required for data: 714451400
I0119 13:04:30.277482 11245 layer_factory.hpp:76] Creating layer pool1
I0119 13:04:30.277493 11245 net.cpp:106] Creating Layer pool1
I0119 13:04:30.277498 11245 net.cpp:454] pool1 <- norm1
I0119 13:04:30.277509 11245 net.cpp:411] pool1 -> pool1
I0119 13:04:30.277793 11245 net.cpp:150] Setting up pool1
I0119 13:04:30.277809 11245 net.cpp:157] Top shape: 50 96 37 37 (6571200)
I0119 13:04:30.277815 11245 net.cpp:165] Memory required for data: 740736200
I0119 13:04:30.277823 11245 layer_factory.hpp:76] Creating layer conv2
I0119 13:04:30.277842 11245 net.cpp:106] Creating Layer conv2
I0119 13:04:30.277848 11245 net.cpp:454] conv2 <- pool1
I0119 13:04:30.277858 11245 net.cpp:411] conv2 -> conv2
I0119 13:04:30.302291 11245 cudnn_conv_layer.cpp:194] Reallocating workspace storage: 21972
I0119 13:04:30.302337 11245 net.cpp:150] Setting up conv2
I0119 13:04:30.302352 11245 net.cpp:157] Top shape: 50 256 33 33 (13939200)
I0119 13:04:30.302358 11245 net.cpp:165] Memory required for data: 796493000
I0119 13:04:30.302376 11245 layer_factory.hpp:76] Creating layer relu2
I0119 13:04:30.302389 11245 net.cpp:106] Creating Layer relu2
I0119 13:04:30.302397 11245 net.cpp:454] relu2 <- conv2
I0119 13:04:30.302407 11245 net.cpp:397] relu2 -> conv2 (in-place)
I0119 13:04:30.302757 11245 net.cpp:150] Setting up relu2
I0119 13:04:30.302772 11245 net.cpp:157] Top shape: 50 256 33 33 (13939200)
I0119 13:04:30.302778 11245 net.cpp:165] Memory required for data: 852249800
I0119 13:04:30.302783 11245 layer_factory.hpp:76] Creating layer pool2
I0119 13:04:30.302795 11245 net.cpp:106] Creating Layer pool2
I0119 13:04:30.302801 11245 net.cpp:454] pool2 <- conv2
I0119 13:04:30.302810 11245 net.cpp:411] pool2 -> pool2
I0119 13:04:30.303202 11245 net.cpp:150] Setting up pool2
I0119 13:04:30.303220 11245 net.cpp:157] Top shape: 50 256 17 17 (3699200)
I0119 13:04:30.303225 11245 net.cpp:165] Memory required for data: 867046600
I0119 13:04:30.303231 11245 layer_factory.hpp:76] Creating layer conv3
I0119 13:04:30.303251 11245 net.cpp:106] Creating Layer conv3
I0119 13:04:30.303256 11245 net.cpp:454] conv3 <- pool2
I0119 13:04:30.303266 11245 net.cpp:411] conv3 -> conv3
I0119 13:04:30.348564 11245 cudnn_conv_layer.cpp:194] Reallocating workspace storage: 11748
I0119 13:04:30.348738 11245 net.cpp:150] Setting up conv3
I0119 13:04:30.348758 11245 net.cpp:157] Top shape: 50 512 17 17 (7398400)
I0119 13:04:30.348764 11245 net.cpp:165] Memory required for data: 896640200
I0119 13:04:30.348784 11245 layer_factory.hpp:76] Creating layer relu3
I0119 13:04:30.348799 11245 net.cpp:106] Creating Layer relu3
I0119 13:04:30.348806 11245 net.cpp:454] relu3 <- conv3
I0119 13:04:30.348815 11245 net.cpp:397] relu3 -> conv3 (in-place)
I0119 13:04:30.349185 11245 net.cpp:150] Setting up relu3
I0119 13:04:30.349202 11245 net.cpp:157] Top shape: 50 512 17 17 (7398400)
I0119 13:04:30.349208 11245 net.cpp:165] Memory required for data: 926233800
I0119 13:04:30.349215 11245 layer_factory.hpp:76] Creating layer conv4
I0119 13:04:30.349231 11245 net.cpp:106] Creating Layer conv4
I0119 13:04:30.349238 11245 net.cpp:454] conv4 <- conv3
I0119 13:04:30.349249 11245 net.cpp:411] conv4 -> conv4
I0119 13:04:30.437505 11245 cudnn_conv_layer.cpp:194] Reallocating workspace storage: 11748
I0119 13:04:30.437553 11245 net.cpp:150] Setting up conv4
I0119 13:04:30.437569 11245 net.cpp:157] Top shape: 50 512 17 17 (7398400)
I0119 13:04:30.437575 11245 net.cpp:165] Memory required for data: 955827400
I0119 13:04:30.437588 11245 layer_factory.hpp:76] Creating layer relu4
I0119 13:04:30.437605 11245 net.cpp:106] Creating Layer relu4
I0119 13:04:30.437613 11245 net.cpp:454] relu4 <- conv4
I0119 13:04:30.437624 11245 net.cpp:397] relu4 -> conv4 (in-place)
I0119 13:04:30.437983 11245 net.cpp:150] Setting up relu4
I0119 13:04:30.438004 11245 net.cpp:157] Top shape: 50 512 17 17 (7398400)
I0119 13:04:30.438009 11245 net.cpp:165] Memory required for data: 985421000
I0119 13:04:30.438037 11245 layer_factory.hpp:76] Creating layer conv5
I0119 13:04:30.438055 11245 net.cpp:106] Creating Layer conv5
I0119 13:04:30.438062 11245 net.cpp:454] conv5 <- conv4
I0119 13:04:30.438071 11245 net.cpp:411] conv5 -> conv5
I0119 13:04:30.526495 11245 cudnn_conv_layer.cpp:194] Reallocating workspace storage: 11748
I0119 13:04:30.526546 11245 net.cpp:150] Setting up conv5
I0119 13:04:30.526561 11245 net.cpp:157] Top shape: 50 512 17 17 (7398400)
I0119 13:04:30.526566 11245 net.cpp:165] Memory required for data: 1015014600
I0119 13:04:30.526587 11245 layer_factory.hpp:76] Creating layer relu5
I0119 13:04:30.526604 11245 net.cpp:106] Creating Layer relu5
I0119 13:04:30.526612 11245 net.cpp:454] relu5 <- conv5
I0119 13:04:30.526623 11245 net.cpp:397] relu5 -> conv5 (in-place)
I0119 13:04:30.526831 11245 net.cpp:150] Setting up relu5
I0119 13:04:30.526847 11245 net.cpp:157] Top shape: 50 512 17 17 (7398400)
I0119 13:04:30.526854 11245 net.cpp:165] Memory required for data: 1044608200
I0119 13:04:30.526859 11245 layer_factory.hpp:76] Creating layer pool5
I0119 13:04:30.526870 11245 net.cpp:106] Creating Layer pool5
I0119 13:04:30.526875 11245 net.cpp:454] pool5 <- conv5
I0119 13:04:30.526886 11245 net.cpp:411] pool5 -> pool5
I0119 13:04:30.527266 11245 net.cpp:150] Setting up pool5
I0119 13:04:30.527283 11245 net.cpp:157] Top shape: 50 512 6 6 (921600)
I0119 13:04:30.527289 11245 net.cpp:165] Memory required for data: 1048294600
I0119 13:04:30.527295 11245 layer_factory.hpp:76] Creating layer fc6
I0119 13:04:30.527312 11245 net.cpp:106] Creating Layer fc6
I0119 13:04:30.527318 11245 net.cpp:454] fc6 <- pool5
I0119 13:04:30.527329 11245 net.cpp:411] fc6 -> fc6
I0119 13:04:30.695466 11245 net.cpp:150] Setting up fc6
I0119 13:04:30.695508 11245 net.cpp:157] Top shape: 50 4096 (204800)
I0119 13:04:30.695514 11245 net.cpp:165] Memory required for data: 1049113800
I0119 13:04:30.695529 11245 layer_factory.hpp:76] Creating layer relu6
I0119 13:04:30.695549 11245 net.cpp:106] Creating Layer relu6
I0119 13:04:30.695557 11245 net.cpp:454] relu6 <- fc6
I0119 13:04:30.695569 11245 net.cpp:397] relu6 -> fc6 (in-place)
I0119 13:04:30.695850 11245 net.cpp:150] Setting up relu6
I0119 13:04:30.695866 11245 net.cpp:157] Top shape: 50 4096 (204800)
I0119 13:04:30.695873 11245 net.cpp:165] Memory required for data: 1049933000
I0119 13:04:30.695878 11245 layer_factory.hpp:76] Creating layer drop6
I0119 13:04:30.695894 11245 net.cpp:106] Creating Layer drop6
I0119 13:04:30.695904 11245 net.cpp:454] drop6 <- fc6
I0119 13:04:30.695916 11245 net.cpp:397] drop6 -> fc6 (in-place)
I0119 13:04:30.695960 11245 net.cpp:150] Setting up drop6
I0119 13:04:30.695973 11245 net.cpp:157] Top shape: 50 4096 (204800)
I0119 13:04:30.695978 11245 net.cpp:165] Memory required for data: 1050752200
I0119 13:04:30.695984 11245 layer_factory.hpp:76] Creating layer fc7
I0119 13:04:30.695998 11245 net.cpp:106] Creating Layer fc7
I0119 13:04:30.696004 11245 net.cpp:454] fc7 <- fc6
I0119 13:04:30.696012 11245 net.cpp:411] fc7 -> fc7
I0119 13:04:30.733651 11245 net.cpp:150] Setting up fc7
I0119 13:04:30.733728 11245 net.cpp:157] Top shape: 50 4096 (204800)
I0119 13:04:30.733736 11245 net.cpp:165] Memory required for data: 1051571400
I0119 13:04:30.733750 11245 layer_factory.hpp:76] Creating layer relu7
I0119 13:04:30.733764 11245 net.cpp:106] Creating Layer relu7
I0119 13:04:30.733772 11245 net.cpp:454] relu7 <- fc7
I0119 13:04:30.733783 11245 net.cpp:397] relu7 -> fc7 (in-place)
I0119 13:04:30.734294 11245 net.cpp:150] Setting up relu7
I0119 13:04:30.734314 11245 net.cpp:157] Top shape: 50 4096 (204800)
I0119 13:04:30.734320 11245 net.cpp:165] Memory required for data: 1052390600
I0119 13:04:30.734326 11245 layer_factory.hpp:76] Creating layer drop7
I0119 13:04:30.734338 11245 net.cpp:106] Creating Layer drop7
I0119 13:04:30.734344 11245 net.cpp:454] drop7 <- fc7
I0119 13:04:30.734351 11245 net.cpp:397] drop7 -> fc7 (in-place)
I0119 13:04:30.734401 11245 net.cpp:150] Setting up drop7
I0119 13:04:30.734414 11245 net.cpp:157] Top shape: 50 4096 (204800)
I0119 13:04:30.734439 11245 net.cpp:165] Memory required for data: 1053209800
I0119 13:04:30.734447 11245 layer_factory.hpp:76] Creating layer ip1
I0119 13:04:30.734462 11245 net.cpp:106] Creating Layer ip1
I0119 13:04:30.734470 11245 net.cpp:454] ip1 <- fc7
I0119 13:04:30.734479 11245 net.cpp:411] ip1 -> ip1
I0119 13:04:30.742092 11245 net.cpp:150] Setting up ip1
I0119 13:04:30.742110 11245 net.cpp:157] Top shape: 50 48 (2400)
I0119 13:04:30.742115 11245 net.cpp:165] Memory required for data: 1053219400
I0119 13:04:30.742126 11245 layer_factory.hpp:76] Creating layer ip2
I0119 13:04:30.742139 11245 net.cpp:106] Creating Layer ip2
I0119 13:04:30.742146 11245 net.cpp:454] ip2 <- ip1
I0119 13:04:30.742153 11245 net.cpp:411] ip2 -> ip2
I0119 13:04:30.742401 11245 net.cpp:150] Setting up ip2
I0119 13:04:30.742418 11245 net.cpp:157] Top shape: 50 48 (2400)
I0119 13:04:30.742424 11245 net.cpp:165] Memory required for data: 1053229000
I0119 13:04:30.742429 11245 layer_factory.hpp:76] Creating layer fc8_oxford102_hash
I0119 13:04:30.742441 11245 net.cpp:106] Creating Layer fc8_oxford102_hash
I0119 13:04:30.742449 11245 net.cpp:454] fc8_oxford102_hash <- ip2
I0119 13:04:30.742457 11245 net.cpp:411] fc8_oxford102_hash -> fc8_oxford102_hash
I0119 13:04:30.742772 11245 net.cpp:150] Setting up fc8_oxford102_hash
I0119 13:04:30.742786 11245 net.cpp:157] Top shape: 50 102 (5100)
I0119 13:04:30.742792 11245 net.cpp:165] Memory required for data: 1053249400
I0119 13:04:30.742811 11245 layer_factory.hpp:76] Creating layer loss
I0119 13:04:30.742823 11245 net.cpp:106] Creating Layer loss
I0119 13:04:30.742830 11245 net.cpp:454] loss <- fc8_oxford102_hash
I0119 13:04:30.742836 11245 net.cpp:454] loss <- label
I0119 13:04:30.742851 11245 net.cpp:411] loss -> (automatic)
…
I0119 13:04:30.744596 11245 net.cpp:322] The NetState phase (1) differed from the phase (0) specified by a rule in layer data
I0119 13:04:30.744842 11245 net.cpp:49] Initializing net from parameters: 
name: "Oxford102_VGG_CNN_S"
state {
  phase: TEST
}
layer {
  name: "data"
  type: "ImageData"
  top: "data"
  top: "label"
  include {
    phase: TEST
  }
  transform_param {
    mirror: false
    crop_size: 224
    mean_file: "/home/dl/caffe-master/models/bvlc_reference_caffenet/imagenet_mean.binaryproto"
  }
  image_data_param {
    source: "/home/dl/caffe-master/data/oxford102/train.txt"
    batch_size: 50
    new_height: 256
    new_width: 256
  }
}
layer {
  name: "conv1"
  type: "Convolution"
  bottom: "data"
  top: "conv1"
  param {
    lr_mult: 1
    decay_mult: 1
  }
  param {
    lr_mult: 2
    decay_mult: 0
  }
  convolution_param {
    num_output: 96
    kernel_size: 7
    stride: 2
    weight_filler {
      type: "gaussian"
      std: 0.01
    }
    bias_filler {
      type: "constant"
      value: 0
    }
  }
}
layer {
  name: "relu1"
  type: "ReLU"
  bottom: "conv1"
  top: "conv1"
}
layer {
  name: "norm1"
  type: "LRN"
  bottom: "conv1"
  top: "norm1"
  lrn_param {
    local_size: 5
    alpha: 0.0005
    beta: 0.75
    k: 2
  }
}
layer {
  name: "pool1"
  type: "Pooling"
  bottom: "norm1"
  top: "pool1"
  pooling_param {
    pool: MAX
    kernel_size: 3
    stride: 3
  }
}
layer {
  name: "conv2"
  type: "Convolution"
  bottom: "pool1"
  top: "conv2"
  param {
    lr_mult: 1
    decay_mult: 1
  }
  param {
    lr_mult: 2
    decay_mult: 0
  }
  convolution_param {
    num_output: 256
    kernel_size: 5
    weight_filler {
      type: "gaussian"
      std: 0.01
    }
    bias_filler {
      type: "constant"
      value: 1
    }
  }
}
layer {
  name: "relu2"
  type: "ReLU"
  bottom: "conv2"
  top: "conv2"
}
layer {
  name: "pool2"
  type: "Pooling"
  bottom: "conv2"
  top: "pool2"
  pooling_param {
    pool: MAX
    kernel_size: 2
    stride: 2
  }
}
layer {
  name: "conv3"
  type: "Convolution"
  bottom: "pool2"
  top: "conv3"
  param {
    lr_mult: 1
    decay_mult: 1
  }
  param {
    lr_mult: 2
    decay_mult: 0
  }
  convolution_param {
    num_output: 512
    pad: 1
    kernel_size: 3
    weight_filler {
      type: "gaussian"
      std: 0.01
    }
    bias_filler {
      type: "constant"
      value: 1
    }
  }
}
layer {
  name: "relu3"
  type: "ReLU"
  bottom: "conv3"
  top: "conv3"
}
layer {
  name: "conv4"
  type: "Convolution"
  bottom: "conv3"
  top: "conv4"
  param {
    lr_mult: 1
    decay_mult: 1
  }
  param {
    lr_mult: 2
    decay_mult: 0
  }
  convolution_param {
    num_output: 512
    pad: 1
    kernel_size: 3
    weight_filler {
      type: "gaussian"
      std: 0.01
    }
    bias_filler {
      type: "constant"
      value: 1
    }
  }
}
layer {
  name: "relu4"
  type: "ReLU"
  bottom: "conv4"
  top: "conv4"
}
layer {
  name: "conv5"
  type: "Convolution"
  bottom: "conv4"
  top: "conv5"
  param {
    lr_mult: 1
    decay_mult: 1
  }
  param {
    lr_mult: 2
    decay_mult: 0
  }
  convolution_param {
    num_output: 512
    pad: 1
    kernel_size: 3
    weight_filler {
      type: "gaussian"
      std: 0.005
    }
    bias_filler {
      type: "constant"
      value: 1
    }
  }
}
layer {
  name: "relu5"
  type: "ReLU"
  bottom: "conv5"
  top: "conv5"
}
layer {
  name: "pool5"
  type: "Pooling"
  bottom: "conv5"
  top: "pool5"
  pooling_param {
    pool: MAX
    kernel_size: 3
    stride: 3
  }
}
layer {
  name: "fc6"
  type: "InnerProduct"
  bottom: "pool5"
  top: "fc6"
  inner_product_param {
    num_output: 4096
  }
}
layer {
  name: "relu6"
  type: "ReLU"
  bottom: "fc6"
  top: "fc6"
}
layer {
  name: "drop6"
  type: "Dropout"
  bottom: "fc6"
  top: "fc6"
  dropout_param {
    dropout_ratio: 0.5
  }
}
layer {
  name: "fc7"
  type: "InnerProduct"
  bottom: "fc6"
  top: "fc7"
  inner_product_param {
    num_output: 4096
  }
}
layer {
  name: "relu7"
  type: "ReLU"
  bottom: "fc7"
  top: "fc7"
}
layer {
  name: "drop7"
  type: "Dropout"
  bottom: "fc7"
  top: "fc7"
  dropout_param {
    dropout_ratio: 0.5
  }
}
layer {
  name: "ip1"
  type: "InnerProduct"
  bottom: "fc7"
  top: "ip1"
  param {
    lr_mult: 1
    decay_mult: 1
  }
  param {
    lr_mult: 2
    decay_mult: 0
  }
  inner_product_param {
    num_output: 48
    weight_filler {
      type: "gaussian"
      std: 0.01
    }
    bias_filler {
      type: "constant"
      value: 0
    }
  }
}
layer {
  name: "ip2"
  type: "Sigmoid"
  bottom: "ip1"
  top: "ip2"
}
layer {
  name: "fc8_oxford102_hash"
  type: "InnerProduct"
  bottom: "ip2"
  top: "fc8_oxford102_hash"
  param {
    lr_mult: 10
    decay_mult: 1
  }
  param {
    lr_mult: 20
    decay_mult: 0
  }
  inner_product_param {
    num_output: 102
    weight_filler {
      type: "gaussian"
      std: 0.01
    }
    bias_filler {
      type: "constant"
      value: 0
    }
  }
}
layer {
  name: "loss"
  type: "SoftmaxWithLoss"
  bottom: "fc8_oxford102_hash"
  bottom: "label"
}
layer {
  name: "accuracy"
  type: "Accuracy"
  bottom: "fc8_oxford102_hash"
  bottom: "label"
  top: "accuracy"
  include {
    phase: TEST
  }
}
I0119 13:04:30.745009 11245 layer_factory.hpp:76] Creating layer data
I0119 13:04:30.745033 11245 net.cpp:106] Creating Layer data
I0119 13:04:30.745043 11245 net.cpp:411] data -> data
I0119 13:04:30.745059 11245 net.cpp:411] data -> label
I0119 13:04:30.745071 11245 data_transformer.cpp:25] Loading mean file from: /home/dl/caffe-master/models/bvlc_reference_caffenet/imagenet_mean.binaryproto
I0119 13:04:30.747558 11245 image_data_layer.cpp:36] Opening file /home/dl/caffe-master/data/oxford102/train.txt
I0119 13:04:30.748111 11245 image_data_layer.cpp:51] A total of 1020 images.
I0119 13:04:30.752769 11245 image_data_layer.cpp:78] output data size: 50,3,224,224
I0119 13:04:30.807255 11245 net.cpp:150] Setting up data
I0119 13:04:30.807288 11245 net.cpp:157] Top shape: 50 3 224 224 (7526400)
I0119 13:04:30.807297 11245 net.cpp:157] Top shape: 50 (50)
I0119 13:04:30.807303 11245 net.cpp:165] Memory required for data: 30105800
I0119 13:04:30.807313 11245 layer_factory.hpp:76] Creating layer label_data_1_split
I0119 13:04:30.807334 11245 net.cpp:106] Creating Layer label_data_1_split
I0119 13:04:30.807344 11245 net.cpp:454] label_data_1_split <- label
I0119 13:04:30.807355 11245 net.cpp:411] label_data_1_split -> label_data_1_split_0
I0119 13:04:30.807373 11245 net.cpp:411] label_data_1_split -> label_data_1_split_1
I0119 13:04:30.807466 11245 net.cpp:150] Setting up label_data_1_split
I0119 13:04:30.807479 11245 net.cpp:157] Top shape: 50 (50)
I0119 13:04:30.807487 11245 net.cpp:157] Top shape: 50 (50)
I0119 13:04:30.807492 11245 net.cpp:165] Memory required for data: 30106200
I0119 13:04:30.807497 11245 layer_factory.hpp:76] Creating layer conv1
I0119 13:04:30.807513 11245 net.cpp:106] Creating Layer conv1
I0119 13:04:30.807519 11245 net.cpp:454] conv1 <- data
I0119 13:04:30.807528 11245 net.cpp:411] conv1 -> conv1
I0119 13:04:30.809460 11245 cudnn_conv_layer.cpp:194] Reallocating workspace storage: 213876
I0119 13:04:30.809501 11245 net.cpp:150] Setting up conv1
I0119 13:04:30.809514 11245 net.cpp:157] Top shape: 50 96 109 109 (57028800)
I0119 13:04:30.809520 11245 net.cpp:165] Memory required for data: 258221400
I0119 13:04:30.809535 11245 layer_factory.hpp:76] Creating layer relu1
I0119 13:04:30.809545 11245 net.cpp:106] Creating Layer relu1
I0119 13:04:30.809551 11245 net.cpp:454] relu1 <- conv1
I0119 13:04:30.809559 11245 net.cpp:397] relu1 -> conv1 (in-place)
I0119 13:04:30.809770 11245 net.cpp:150] Setting up relu1
I0119 13:04:30.809787 11245 net.cpp:157] Top shape: 50 96 109 109 (57028800)
I0119 13:04:30.809792 11245 net.cpp:165] Memory required for data: 486336600
I0119 13:04:30.809821 11245 layer_factory.hpp:76] Creating layer norm1
I0119 13:04:30.809835 11245 net.cpp:106] Creating Layer norm1
I0119 13:04:30.809842 11245 net.cpp:454] norm1 <- conv1
I0119 13:04:30.809850 11245 net.cpp:411] norm1 -> norm1
I0119 13:04:30.810217 11245 net.cpp:150] Setting up norm1
I0119 13:04:30.810233 11245 net.cpp:157] Top shape: 50 96 109 109 (57028800)
I0119 13:04:30.810240 11245 net.cpp:165] Memory required for data: 714451800
I0119 13:04:30.810257 11245 layer_factory.hpp:76] Creating layer pool1
I0119 13:04:30.810268 11245 net.cpp:106] Creating Layer pool1
I0119 13:04:30.810273 11245 net.cpp:454] pool1 <- norm1
I0119 13:04:30.810281 11245 net.cpp:411] pool1 -> pool1
I0119 13:04:30.810510 11245 net.cpp:150] Setting up pool1
I0119 13:04:30.810526 11245 net.cpp:157] Top shape: 50 96 37 37 (6571200)
I0119 13:04:30.810533 11245 net.cpp:165] Memory required for data: 740736600
I0119 13:04:30.810539 11245 layer_factory.hpp:76] Creating layer conv2
I0119 13:04:30.810549 11245 net.cpp:106] Creating Layer conv2
I0119 13:04:30.810555 11245 net.cpp:454] conv2 <- pool1
I0119 13:04:30.810564 11245 net.cpp:411] conv2 -> conv2
I0119 13:04:30.834760 11245 cudnn_conv_layer.cpp:194] Reallocating workspace storage: 21972
I0119 13:04:30.834801 11245 net.cpp:150] Setting up conv2
I0119 13:04:30.834815 11245 net.cpp:157] Top shape: 50 256 33 33 (13939200)
I0119 13:04:30.834821 11245 net.cpp:165] Memory required for data: 796493400
I0119 13:04:30.834841 11245 layer_factory.hpp:76] Creating layer relu2
I0119 13:04:30.834854 11245 net.cpp:106] Creating Layer relu2
I0119 13:04:30.834861 11245 net.cpp:454] relu2 <- conv2
I0119 13:04:30.834872 11245 net.cpp:397] relu2 -> conv2 (in-place)
I0119 13:04:30.835211 11245 net.cpp:150] Setting up relu2
I0119 13:04:30.835227 11245 net.cpp:157] Top shape: 50 256 33 33 (13939200)
I0119 13:04:30.835232 11245 net.cpp:165] Memory required for data: 852250200
I0119 13:04:30.835238 11245 layer_factory.hpp:76] Creating layer pool2
I0119 13:04:30.835252 11245 net.cpp:106] Creating Layer pool2
I0119 13:04:30.835258 11245 net.cpp:454] pool2 <- conv2
I0119 13:04:30.835265 11245 net.cpp:411] pool2 -> pool2
I0119 13:04:30.835499 11245 net.cpp:150] Setting up pool2
I0119 13:04:30.835512 11245 net.cpp:157] Top shape: 50 256 17 17 (3699200)
I0119 13:04:30.835518 11245 net.cpp:165] Memory required for data: 867047000
I0119 13:04:30.835525 11245 layer_factory.hpp:76] Creating layer conv3
I0119 13:04:30.835537 11245 net.cpp:106] Creating Layer conv3
I0119 13:04:30.835543 11245 net.cpp:454] conv3 <- pool2
I0119 13:04:30.835552 11245 net.cpp:411] conv3 -> conv3
I0119 13:04:30.880713 11245 cudnn_conv_layer.cpp:194] Reallocating workspace storage: 11748
I0119 13:04:30.880765 11245 net.cpp:150] Setting up conv3
I0119 13:04:30.880779 11245 net.cpp:157] Top shape: 50 512 17 17 (7398400)
I0119 13:04:30.880786 11245 net.cpp:165] Memory required for data: 896640600
I0119 13:04:30.880805 11245 layer_factory.hpp:76] Creating layer relu3
I0119 13:04:30.880820 11245 net.cpp:106] Creating Layer relu3
I0119 13:04:30.880827 11245 net.cpp:454] relu3 <- conv3
I0119 13:04:30.880837 11245 net.cpp:397] relu3 -> conv3 (in-place)
I0119 13:04:30.881173 11245 net.cpp:150] Setting up relu3
I0119 13:04:30.881191 11245 net.cpp:157] Top shape: 50 512 17 17 (7398400)
I0119 13:04:30.881196 11245 net.cpp:165] Memory required for data: 926234200
I0119 13:04:30.881202 11245 layer_factory.hpp:76] Creating layer conv4
I0119 13:04:30.881217 11245 net.cpp:106] Creating Layer conv4
I0119 13:04:30.881222 11245 net.cpp:454] conv4 <- conv3
I0119 13:04:30.881232 11245 net.cpp:411] conv4 -> conv4
I0119 13:04:30.970041 11245 cudnn_conv_layer.cpp:194] Reallocating workspace storage: 11748
I0119 13:04:30.970091 11245 net.cpp:150] Setting up conv4
I0119 13:04:30.970105 11245 net.cpp:157] Top shape: 50 512 17 17 (7398400)
I0119 13:04:30.970111 11245 net.cpp:165] Memory required for data: 955827800
I0119 13:04:30.970124 11245 layer_factory.hpp:76] Creating layer relu4
I0119 13:04:30.970139 11245 net.cpp:106] Creating Layer relu4
I0119 13:04:30.970149 11245 net.cpp:454] relu4 <- conv4
I0119 13:04:30.970180 11245 net.cpp:397] relu4 -> conv4 (in-place)
I0119 13:04:30.970520 11245 net.cpp:150] Setting up relu4
I0119 13:04:30.970537 11245 net.cpp:157] Top shape: 50 512 17 17 (7398400)
I0119 13:04:30.970543 11245 net.cpp:165] Memory required for data: 985421400
I0119 13:04:30.970549 11245 layer_factory.hpp:76] Creating layer conv5
I0119 13:04:30.970566 11245 net.cpp:106] Creating Layer conv5
I0119 13:04:30.970571 11245 net.cpp:454] conv5 <- conv4
I0119 13:04:30.970583 11245 net.cpp:411] conv5 -> conv5
I0119 13:04:31.063364 11245 cudnn_conv_layer.cpp:194] Reallocating workspace storage: 11748
I0119 13:04:31.063416 11245 net.cpp:150] Setting up conv5
I0119 13:04:31.063431 11245 net.cpp:157] Top shape: 50 512 17 17 (7398400)
I0119 13:04:31.063436 11245 net.cpp:165] Memory required for data: 1015015000
I0119 13:04:31.063457 11245 layer_factory.hpp:76] Creating layer relu5
I0119 13:04:31.063470 11245 net.cpp:106] Creating Layer relu5
I0119 13:04:31.063478 11245 net.cpp:454] relu5 <- conv5
I0119 13:04:31.063488 11245 net.cpp:397] relu5 -> conv5 (in-place)
I0119 13:04:31.063684 11245 net.cpp:150] Setting up relu5
I0119 13:04:31.063700 11245 net.cpp:157] Top shape: 50 512 17 17 (7398400)
I0119 13:04:31.063705 11245 net.cpp:165] Memory required for data: 1044608600
I0119 13:04:31.063712 11245 layer_factory.hpp:76] Creating layer pool5
I0119 13:04:31.063721 11245 net.cpp:106] Creating Layer pool5
I0119 13:04:31.063727 11245 net.cpp:454] pool5 <- conv5
I0119 13:04:31.063735 11245 net.cpp:411] pool5 -> pool5
I0119 13:04:31.064107 11245 net.cpp:150] Setting up pool5
I0119 13:04:31.064124 11245 net.cpp:157] Top shape: 50 512 6 6 (921600)
I0119 13:04:31.064131 11245 net.cpp:165] Memory required for data: 1048295000
I0119 13:04:31.064137 11245 layer_factory.hpp:76] Creating layer fc6
I0119 13:04:31.064151 11245 net.cpp:106] Creating Layer fc6
I0119 13:04:31.064157 11245 net.cpp:454] fc6 <- pool5
I0119 13:04:31.064164 11245 net.cpp:411] fc6 -> fc6
I0119 13:04:31.235023 11245 net.cpp:150] Setting up fc6
I0119 13:04:31.235064 11245 net.cpp:157] Top shape: 50 4096 (204800)
I0119 13:04:31.235070 11245 net.cpp:165] Memory required for data: 1049114200
I0119 13:04:31.235085 11245 layer_factory.hpp:76] Creating layer relu6
I0119 13:04:31.235100 11245 net.cpp:106] Creating Layer relu6
I0119 13:04:31.235107 11245 net.cpp:454] relu6 <- fc6
I0119 13:04:31.235117 11245 net.cpp:397] relu6 -> fc6 (in-place)
I0119 13:04:31.235394 11245 net.cpp:150] Setting up relu6
I0119 13:04:31.235410 11245 net.cpp:157] Top shape: 50 4096 (204800)
I0119 13:04:31.235416 11245 net.cpp:165] Memory required for data: 1049933400
I0119 13:04:31.235422 11245 layer_factory.hpp:76] Creating layer drop6
I0119 13:04:31.235433 11245 net.cpp:106] Creating Layer drop6
I0119 13:04:31.235440 11245 net.cpp:454] drop6 <- fc6
I0119 13:04:31.235446 11245 net.cpp:397] drop6 -> fc6 (in-place)
I0119 13:04:31.235488 11245 net.cpp:150] Setting up drop6
I0119 13:04:31.235501 11245 net.cpp:157] Top shape: 50 4096 (204800)
I0119 13:04:31.235505 11245 net.cpp:165] Memory required for data: 1050752600
I0119 13:04:31.235512 11245 layer_factory.hpp:76] Creating layer fc7
I0119 13:04:31.235520 11245 net.cpp:106] Creating Layer fc7
I0119 13:04:31.235527 11245 net.cpp:454] fc7 <- fc6
I0119 13:04:31.235534 11245 net.cpp:411] fc7 -> fc7
I0119 13:04:31.273152 11245 net.cpp:150] Setting up fc7
I0119 13:04:31.273191 11245 net.cpp:157] Top shape: 50 4096 (204800)
I0119 13:04:31.273198 11245 net.cpp:165] Memory required for data: 1051571800
I0119 13:04:31.273213 11245 layer_factory.hpp:76] Creating layer relu7
I0119 13:04:31.273228 11245 net.cpp:106] Creating Layer relu7
I0119 13:04:31.273236 11245 net.cpp:454] relu7 <- fc7
I0119 13:04:31.273247 11245 net.cpp:397] relu7 -> fc7 (in-place)
I0119 13:04:31.273782 11245 net.cpp:150] Setting up relu7
I0119 13:04:31.273799 11245 net.cpp:157] Top shape: 50 4096 (204800)
I0119 13:04:31.273805 11245 net.cpp:165] Memory required for data: 1052391000
I0119 13:04:31.273811 11245 layer_factory.hpp:76] Creating layer drop7
I0119 13:04:31.273846 11245 net.cpp:106] Creating Layer drop7
I0119 13:04:31.273854 11245 net.cpp:454] drop7 <- fc7
I0119 13:04:31.273861 11245 net.cpp:397] drop7 -> fc7 (in-place)
I0119 13:04:31.273905 11245 net.cpp:150] Setting up drop7
I0119 13:04:31.273917 11245 net.cpp:157] Top shape: 50 4096 (204800)
I0119 13:04:31.273923 11245 net.cpp:165] Memory required for data: 1053210200
I0119 13:04:31.273929 11245 layer_factory.hpp:76] Creating layer ip1
I0119 13:04:31.273941 11245 net.cpp:106] Creating Layer ip1
I0119 13:04:31.273947 11245 net.cpp:454] ip1 <- fc7
I0119 13:04:31.273954 11245 net.cpp:411] ip1 -> ip1
I0119 13:04:31.281581 11245 net.cpp:150] Setting up ip1
I0119 13:04:31.281599 11245 net.cpp:157] Top shape: 50 48 (2400)
I0119 13:04:31.281605 11245 net.cpp:165] Memory required for data: 1053219800
I0119 13:04:31.281616 11245 layer_factory.hpp:76] Creating layer ip2
I0119 13:04:31.281626 11245 net.cpp:106] Creating Layer ip2
I0119 13:04:31.281632 11245 net.cpp:454] ip2 <- ip1
I0119 13:04:31.281641 11245 net.cpp:411] ip2 -> ip2
I0119 13:04:31.281889 11245 net.cpp:150] Setting up ip2
I0119 13:04:31.281906 11245 net.cpp:157] Top shape: 50 48 (2400)
I0119 13:04:31.281913 11245 net.cpp:165] Memory required for data: 1053229400
I0119 13:04:31.281919 11245 layer_factory.hpp:76] Creating layer fc8_oxford102_hash
I0119 13:04:31.281929 11245 net.cpp:106] Creating Layer fc8_oxford102_hash
I0119 13:04:31.281939 11245 net.cpp:454] fc8_oxford102_hash <- ip2
I0119 13:04:31.281949 11245 net.cpp:411] fc8_oxford102_hash -> fc8_oxford102_hash
I0119 13:04:31.282274 11245 net.cpp:150] Setting up fc8_oxford102_hash
I0119 13:04:31.282287 11245 net.cpp:157] Top shape: 50 102 (5100)
I0119 13:04:31.282294 11245 net.cpp:165] Memory required for data: 1053249800
I0119 13:04:31.282308 11245 layer_factory.hpp:76] Creating layer fc8_oxford102_hash_fc8_oxford102_hash_0_split
I0119 13:04:31.282318 11245 net.cpp:106] Creating Layer fc8_oxford102_hash_fc8_oxford102_hash_0_split
I0119 13:04:31.282325 11245 net.cpp:454] fc8_oxford102_hash_fc8_oxford102_hash_0_split <- fc8_oxford102_hash
I0119 13:04:31.282332 11245 net.cpp:411] fc8_oxford102_hash_fc8_oxford102_hash_0_split -> fc8_oxford102_hash_fc8_oxford102_hash_0_split_0
I0119 13:04:31.282342 11245 net.cpp:411] fc8_oxford102_hash_fc8_oxford102_hash_0_split -> fc8_oxford102_hash_fc8_oxford102_hash_0_split_1
I0119 13:04:31.282392 11245 net.cpp:150] Setting up fc8_oxford102_hash_fc8_oxford102_hash_0_split
I0119 13:04:31.282402 11245 net.cpp:157] Top shape: 50 102 (5100)
I0119 13:04:31.282408 11245 net.cpp:157] Top shape: 50 102 (5100)
I0119 13:04:31.282413 11245 net.cpp:165] Memory required for data: 1053290600
I0119 13:04:31.282418 11245 layer_factory.hpp:76] Creating layer loss
I0119 13:04:31.282426 11245 net.cpp:106] Creating Layer loss
I0119 13:04:31.282433 11245 net.cpp:454] loss <- fc8_oxford102_hash_fc8_oxford102_hash_0_split_0
I0119 13:04:31.282439 11245 net.cpp:454] loss <- label_data_1_split_0
I0119 13:04:31.282448 11245 net.cpp:411] loss -> (automatic)
…
