…
I0118 16:24:49.941385  9978 net.cpp:322] The NetState phase (0) differed from the phase (1) specified by a rule in layer mnist
I0118 16:24:49.941412  9978 net.cpp:322] The NetState phase (0) differed from the phase (1) specified by a rule in layer accuracy
I0118 16:24:49.941529  9978 net.cpp:49] Initializing net from parameters: 
name: "LeNet"
state {
  phase: TRAIN
}
layer {
  name: "mnist"
  type: "Data"
  top: "data"
  top: "label"
  include {
    phase: TRAIN
  }
  transform_param {
    scale: 0.00390625
  }
  data_param {
    source: "examples/A-mnist/mnist_train_lmdb"
    batch_size: 64
    backend: LMDB
  }
}
layer {
  name: "conv1"
  type: "Convolution"
  bottom: "data"
  top: "conv1"
  param {
    lr_mult: 1
  }
  param {
    lr_mult: 2
  }
  convolution_param {
    num_output: 20
    kernel_size: 5
    stride: 1
    weight_filler {
      type: "xavier"
    }
    bias_filler {
      type: "constant"
    }
  }
}
layer {
  name: "pool1"
  type: "Pooling"
  bottom: "conv1"
  top: "pool1"
  pooling_param {
    pool: MAX
    kernel_size: 2
    stride: 2
  }
}
layer {
  name: "conv2"
  type: "Convolution"
  bottom: "pool1"
  top: "conv2"
  param {
    lr_mult: 1
  }
  param {
    lr_mult: 2
  }
  convolution_param {
    num_output: 50
    kernel_size: 5
    stride: 1
    weight_filler {
      type: "xavier"
    }
    bias_filler {
      type: "constant"
    }
  }
}
layer {
  name: "pool2"
  type: "Pooling"
  bottom: "conv2"
  top: "pool2"
  pooling_param {
    pool: MAX
    kernel_size: 2
    stride: 2
  }
}
layer {
  name: "ip1"
  type: "InnerProduct"
  bottom: "pool2"
  top: "ip1"
  param {
    lr_mult: 1
  }
  param {
    lr_mult: 2
  }
  inner_product_param {
    num_output: 500
    weight_filler {
      type: "xavier"
    }
    bias_filler {
      type: "constant"
    }
  }
}
layer {
  name: "relu1"
  type: "ReLU"
  bottom: "ip1"
  top: "ip1"
}
layer {
  name: "ip2_sig"
  type: "InnerProduct"
  bottom: "ip1"
  top: "ip2_sig"
  param {
    lr_mult: 1
  }
  param {
    lr_mult: 2
  }
  inner_product_param {
    num_output: 8
    weight_filler {
      type: "xavier"
    }
    bias_filler {
      type: "constant"
    }
  }
}
layer {
  name: "ip2_hash"
  type: "Sigmoid"
  bottom: "ip2_sig"
  top: "ip2_hash"
}
layer {
  name: "ip3"
  type: "InnerProduct"
  bottom: "ip2_hash"
  top: "ip3"
  param {
    lr_mult: 1
  }
  param {
    lr_mult: 2
  }
  inner_product_param {
    num_output: 10
    weight_filler {
      type: "xavier"
    }
    bias_filler {
      type: "constant"
    }
  }
}
layer {
  name: "loss"
  type: "SoftmaxWithLoss"
  bottom: "ip3"
  bottom: "label"
  top: "loss"
}
I0118 16:24:49.941632  9978 layer_factory.hpp:76] Creating layer mnist
I0118 16:24:49.942273  9978 net.cpp:106] Creating Layer mnist
I0118 16:24:49.942311  9978 net.cpp:411] mnist -> data
I0118 16:24:49.942350  9978 net.cpp:411] mnist -> label
I0118 16:24:49.943336  9984 db_lmdb.cpp:38] Opened lmdb examples/A-mnist/mnist_train_lmdb
I0118 16:24:49.953601  9978 data_layer.cpp:41] output data size: 64,1,28,28
I0118 16:24:49.954748  9978 net.cpp:150] Setting up mnist
I0118 16:24:49.954780  9978 net.cpp:157] Top shape: 64 1 28 28 (50176)
I0118 16:24:49.954792  9978 net.cpp:157] Top shape: 64 (64)
I0118 16:24:49.954797  9978 net.cpp:165] Memory required for data: 200960
I0118 16:24:49.954809  9978 layer_factory.hpp:76] Creating layer conv1
I0118 16:24:49.954835  9978 net.cpp:106] Creating Layer conv1
I0118 16:24:49.954849  9978 net.cpp:454] conv1 <- data
I0118 16:24:49.954870  9978 net.cpp:411] conv1 -> conv1
I0118 16:24:50.116739  9978 cudnn_conv_layer.cpp:194] Reallocating workspace storage: 20664
I0118 16:24:50.116828  9978 net.cpp:150] Setting up conv1
I0118 16:24:50.116848  9978 net.cpp:157] Top shape: 64 20 24 24 (737280)
I0118 16:24:50.116855  9978 net.cpp:165] Memory required for data: 3150080
I0118 16:24:50.116885  9978 layer_factory.hpp:76] Creating layer pool1
I0118 16:24:50.116906  9978 net.cpp:106] Creating Layer pool1
I0118 16:24:50.116922  9978 net.cpp:454] pool1 <- conv1
I0118 16:24:50.116933  9978 net.cpp:411] pool1 -> pool1
I0118 16:24:50.117179  9978 net.cpp:150] Setting up pool1
I0118 16:24:50.117195  9978 net.cpp:157] Top shape: 64 20 12 12 (184320)
I0118 16:24:50.117202  9978 net.cpp:165] Memory required for data: 3887360
I0118 16:24:50.117208  9978 layer_factory.hpp:76] Creating layer conv2
I0118 16:24:50.117223  9978 net.cpp:106] Creating Layer conv2
I0118 16:24:50.117228  9978 net.cpp:454] conv2 <- pool1
I0118 16:24:50.117238  9978 net.cpp:411] conv2 -> conv2
I0118 16:24:50.118496  9978 cudnn_conv_layer.cpp:194] Reallocating workspace storage: 10272
I0118 16:24:50.118650  9978 net.cpp:150] Setting up conv2
I0118 16:24:50.118667  9978 net.cpp:157] Top shape: 64 50 8 8 (204800)
I0118 16:24:50.118674  9978 net.cpp:165] Memory required for data: 4706560
I0118 16:24:50.118687  9978 layer_factory.hpp:76] Creating layer pool2
I0118 16:24:50.118700  9978 net.cpp:106] Creating Layer pool2
I0118 16:24:50.118707  9978 net.cpp:454] pool2 <- conv2
I0118 16:24:50.118716  9978 net.cpp:411] pool2 -> pool2
I0118 16:24:50.119076  9978 net.cpp:150] Setting up pool2
I0118 16:24:50.119092  9978 net.cpp:157] Top shape: 64 50 4 4 (51200)
I0118 16:24:50.119098  9978 net.cpp:165] Memory required for data: 4911360
I0118 16:24:50.119104  9978 layer_factory.hpp:76] Creating layer ip1
I0118 16:24:50.119120  9978 net.cpp:106] Creating Layer ip1
I0118 16:24:50.119127  9978 net.cpp:454] ip1 <- pool2
I0118 16:24:50.119137  9978 net.cpp:411] ip1 -> ip1
I0118 16:24:50.123119  9978 net.cpp:150] Setting up ip1
I0118 16:24:50.123137  9978 net.cpp:157] Top shape: 64 500 (32000)
I0118 16:24:50.123144  9978 net.cpp:165] Memory required for data: 5039360
I0118 16:24:50.123158  9978 layer_factory.hpp:76] Creating layer relu1
I0118 16:24:50.123168  9978 net.cpp:106] Creating Layer relu1
I0118 16:24:50.123174  9978 net.cpp:454] relu1 <- ip1
I0118 16:24:50.123183  9978 net.cpp:397] relu1 -> ip1 (in-place)
I0118 16:24:50.123378  9978 net.cpp:150] Setting up relu1
I0118 16:24:50.123394  9978 net.cpp:157] Top shape: 64 500 (32000)
I0118 16:24:50.123400  9978 net.cpp:165] Memory required for data: 5167360
I0118 16:24:50.123406  9978 layer_factory.hpp:76] Creating layer ip2_sig
I0118 16:24:50.123417  9978 net.cpp:106] Creating Layer ip2_sig
I0118 16:24:50.123424  9978 net.cpp:454] ip2_sig <- ip1
I0118 16:24:50.123433  9978 net.cpp:411] ip2_sig -> ip2_sig
I0118 16:24:50.124042  9978 net.cpp:150] Setting up ip2_sig
I0118 16:24:50.124058  9978 net.cpp:157] Top shape: 64 8 (512)
I0118 16:24:50.124064  9978 net.cpp:165] Memory required for data: 5169408
I0118 16:24:50.124074  9978 layer_factory.hpp:76] Creating layer ip2_hash
I0118 16:24:50.124086  9978 net.cpp:106] Creating Layer ip2_hash
I0118 16:24:50.124094  9978 net.cpp:454] ip2_hash <- ip2_sig
I0118 16:24:50.124101  9978 net.cpp:411] ip2_hash -> ip2_hash
I0118 16:24:50.124445  9978 net.cpp:150] Setting up ip2_hash
I0118 16:24:50.124462  9978 net.cpp:157] Top shape: 64 8 (512)
I0118 16:24:50.124469  9978 net.cpp:165] Memory required for data: 5171456
I0118 16:24:50.124475  9978 layer_factory.hpp:76] Creating layer ip3
I0118 16:24:50.124485  9978 net.cpp:106] Creating Layer ip3
I0118 16:24:50.124492  9978 net.cpp:454] ip3 <- ip2_hash
I0118 16:24:50.124500  9978 net.cpp:411] ip3 -> ip3
I0118 16:24:50.124619  9978 net.cpp:150] Setting up ip3
I0118 16:24:50.124632  9978 net.cpp:157] Top shape: 64 10 (640)
I0118 16:24:50.124637  9978 net.cpp:165] Memory required for data: 5174016
I0118 16:24:50.124651  9978 layer_factory.hpp:76] Creating layer loss
I0118 16:24:50.124663  9978 net.cpp:106] Creating Layer loss
I0118 16:24:50.124671  9978 net.cpp:454] loss <- ip3
I0118 16:24:50.124678  9978 net.cpp:454] loss <- label
I0118 16:24:50.124707  9978 net.cpp:411] loss -> loss
I0118 16:24:50.124730  9978 layer_factory.hpp:76] Creating layer loss
…
I0118 16:24:50.125632  9978 solver.cpp:180] Creating test net (#0) specified by net file: examples/A-mnist/train_test.prototxt
I0118 16:24:50.125696  9978 net.cpp:322] The NetState phase (1) differed from the phase (0) specified by a rule in layer mnist
I0118 16:24:50.125831  9978 net.cpp:49] Initializing net from parameters: 
name: "LeNet"
state {
  phase: TEST
}
layer {
  name: "mnist"
  type: "Data"
  top: "data"
  top: "label"
  include {
    phase: TEST
  }
  transform_param {
    scale: 0.00390625
  }
  data_param {
    source: "examples/A-mnist/mnist_test_lmdb"
    batch_size: 100
    backend: LMDB
  }
}
layer {
  name: "conv1"
  type: "Convolution"
  bottom: "data"
  top: "conv1"
  param {
    lr_mult: 1
  }
  param {
    lr_mult: 2
  }
  convolution_param {
    num_output: 20
    kernel_size: 5
    stride: 1
    weight_filler {
      type: "xavier"
    }
    bias_filler {
      type: "constant"
    }
  }
}
layer {
  name: "pool1"
  type: "Pooling"
  bottom: "conv1"
  top: "pool1"
  pooling_param {
    pool: MAX
    kernel_size: 2
    stride: 2
  }
}
layer {
  name: "conv2"
  type: "Convolution"
  bottom: "pool1"
  top: "conv2"
  param {
    lr_mult: 1
  }
  param {
    lr_mult: 2
  }
  convolution_param {
    num_output: 50
    kernel_size: 5
    stride: 1
    weight_filler {
      type: "xavier"
    }
    bias_filler {
      type: "constant"
    }
  }
}
layer {
  name: "pool2"
  type: "Pooling"
  bottom: "conv2"
  top: "pool2"
  pooling_param {
    pool: MAX
    kernel_size: 2
    stride: 2
  }
}
layer {
  name: "ip1"
  type: "InnerProduct"
  bottom: "pool2"
  top: "ip1"
  param {
    lr_mult: 1
  }
  param {
    lr_mult: 2
  }
  inner_product_param {
    num_output: 500
    weight_filler {
      type: "xavier"
    }
    bias_filler {
      type: "constant"
    }
  }
}
layer {
  name: "relu1"
  type: "ReLU"
  bottom: "ip1"
  top: "ip1"
}
layer {
  name: "ip2_sig"
  type: "InnerProduct"
  bottom: "ip1"
  top: "ip2_sig"
  param {
    lr_mult: 1
  }
  param {
    lr_mult: 2
  }
  inner_product_param {
    num_output: 8
    weight_filler {
      type: "xavier"
    }
    bias_filler {
      type: "constant"
    }
  }
}
layer {
  name: "ip2_hash"
  type: "Sigmoid"
  bottom: "ip2_sig"
  top: "ip2_hash"
}
layer {
  name: "ip3"
  type: "InnerProduct"
  bottom: "ip2_hash"
  top: "ip3"
  param {
    lr_mult: 1
  }
  param {
    lr_mult: 2
  }
  inner_product_param {
    num_output: 10
    weight_filler {
      type: "xavier"
    }
    bias_filler {
      type: "constant"
    }
  }
}
layer {
  name: "accuracy"
  type: "Accuracy"
  bottom: "ip3"
  bottom: "label"
  top: "accuracy"
  include {
    phase: TEST
  }
}
layer {
  name: "loss"
  type: "SoftmaxWithLoss"
  bottom: "ip3"
  bottom: "label"
  top: "loss"
}
I0118 16:24:50.125948  9978 layer_factory.hpp:76] Creating layer mnist
I0118 16:24:50.126083  9978 net.cpp:106] Creating Layer mnist
I0118 16:24:50.126096  9978 net.cpp:411] mnist -> data
I0118 16:24:50.126109  9978 net.cpp:411] mnist -> label
I0118 16:24:50.127120  9986 db_lmdb.cpp:38] Opened lmdb examples/A-mnist/mnist_test_lmdb
I0118 16:24:50.127249  9978 data_layer.cpp:41] output data size: 100,1,28,28
I0118 16:24:50.128357  9978 net.cpp:150] Setting up mnist
I0118 16:24:50.128375  9978 net.cpp:157] Top shape: 100 1 28 28 (78400)
I0118 16:24:50.128383  9978 net.cpp:157] Top shape: 100 (100)
I0118 16:24:50.128388  9978 net.cpp:165] Memory required for data: 314000
I0118 16:24:50.128394  9978 layer_factory.hpp:76] Creating layer label_mnist_1_split
I0118 16:24:50.128427  9978 net.cpp:106] Creating Layer label_mnist_1_split
I0118 16:24:50.128437  9978 net.cpp:454] label_mnist_1_split <- label
I0118 16:24:50.128444  9978 net.cpp:411] label_mnist_1_split -> label_mnist_1_split_0
I0118 16:24:50.128455  9978 net.cpp:411] label_mnist_1_split -> label_mnist_1_split_1
I0118 16:24:50.128579  9978 net.cpp:150] Setting up label_mnist_1_split
I0118 16:24:50.128593  9978 net.cpp:157] Top shape: 100 (100)
I0118 16:24:50.128600  9978 net.cpp:157] Top shape: 100 (100)
I0118 16:24:50.128605  9978 net.cpp:165] Memory required for data: 314800
I0118 16:24:50.128612  9978 layer_factory.hpp:76] Creating layer conv1
I0118 16:24:50.128623  9978 net.cpp:106] Creating Layer conv1
I0118 16:24:50.128633  9978 net.cpp:454] conv1 <- data
I0118 16:24:50.128641  9978 net.cpp:411] conv1 -> conv1
I0118 16:24:50.130075  9978 cudnn_conv_layer.cpp:194] Reallocating workspace storage: 20664
I0118 16:24:50.130111  9978 net.cpp:150] Setting up conv1
I0118 16:24:50.130127  9978 net.cpp:157] Top shape: 100 20 24 24 (1152000)
I0118 16:24:50.130138  9978 net.cpp:165] Memory required for data: 4922800
I0118 16:24:50.130153  9978 layer_factory.hpp:76] Creating layer pool1
I0118 16:24:50.130167  9978 net.cpp:106] Creating Layer pool1
I0118 16:24:50.130180  9978 net.cpp:454] pool1 <- conv1
I0118 16:24:50.130192  9978 net.cpp:411] pool1 -> pool1
I0118 16:24:50.130590  9978 net.cpp:150] Setting up pool1
I0118 16:24:50.130620  9978 net.cpp:157] Top shape: 100 20 12 12 (288000)
I0118 16:24:50.130627  9978 net.cpp:165] Memory required for data: 6074800
I0118 16:24:50.130633  9978 layer_factory.hpp:76] Creating layer conv2
I0118 16:24:50.130645  9978 net.cpp:106] Creating Layer conv2
I0118 16:24:50.130652  9978 net.cpp:454] conv2 <- pool1
I0118 16:24:50.130663  9978 net.cpp:411] conv2 -> conv2
I0118 16:24:50.132024  9978 cudnn_conv_layer.cpp:194] Reallocating workspace storage: 10272
I0118 16:24:50.132122  9978 net.cpp:150] Setting up conv2
I0118 16:24:50.132138  9978 net.cpp:157] Top shape: 100 50 8 8 (320000)
I0118 16:24:50.132146  9978 net.cpp:165] Memory required for data: 7354800
I0118 16:24:50.132160  9978 layer_factory.hpp:76] Creating layer pool2
I0118 16:24:50.132175  9978 net.cpp:106] Creating Layer pool2
I0118 16:24:50.132185  9978 net.cpp:454] pool2 <- conv2
I0118 16:24:50.132271  9978 net.cpp:411] pool2 -> pool2
I0118 16:24:50.132681  9978 net.cpp:150] Setting up pool2
I0118 16:24:50.132700  9978 net.cpp:157] Top shape: 100 50 4 4 (80000)
I0118 16:24:50.132714  9978 net.cpp:165] Memory required for data: 7674800
I0118 16:24:50.132721  9978 layer_factory.hpp:76] Creating layer ip1
I0118 16:24:50.132741  9978 net.cpp:106] Creating Layer ip1
I0118 16:24:50.132750  9978 net.cpp:454] ip1 <- pool2
I0118 16:24:50.132761  9978 net.cpp:411] ip1 -> ip1
I0118 16:24:50.136751  9978 net.cpp:150] Setting up ip1
I0118 16:24:50.136768  9978 net.cpp:157] Top shape: 100 500 (50000)
I0118 16:24:50.136775  9978 net.cpp:165] Memory required for data: 7874800
I0118 16:24:50.136788  9978 layer_factory.hpp:76] Creating layer relu1
I0118 16:24:50.136801  9978 net.cpp:106] Creating Layer relu1
I0118 16:24:50.136807  9978 net.cpp:454] relu1 <- ip1
I0118 16:24:50.136816  9978 net.cpp:397] relu1 -> ip1 (in-place)
I0118 16:24:50.137151  9978 net.cpp:150] Setting up relu1
I0118 16:24:50.137181  9978 net.cpp:157] Top shape: 100 500 (50000)
I0118 16:24:50.137189  9978 net.cpp:165] Memory required for data: 8074800
I0118 16:24:50.137195  9978 layer_factory.hpp:76] Creating layer ip2_sig
I0118 16:24:50.137210  9978 net.cpp:106] Creating Layer ip2_sig
I0118 16:24:50.137217  9978 net.cpp:454] ip2_sig <- ip1
I0118 16:24:50.137228  9978 net.cpp:411] ip2_sig -> ip2_sig
I0118 16:24:50.137397  9978 net.cpp:150] Setting up ip2_sig
I0118 16:24:50.137410  9978 net.cpp:157] Top shape: 100 8 (800)
I0118 16:24:50.137416  9978 net.cpp:165] Memory required for data: 8078000
I0118 16:24:50.137426  9978 layer_factory.hpp:76] Creating layer ip2_hash
I0118 16:24:50.137435  9978 net.cpp:106] Creating Layer ip2_hash
I0118 16:24:50.137440  9978 net.cpp:454] ip2_hash <- ip2_sig
I0118 16:24:50.137450  9978 net.cpp:411] ip2_hash -> ip2_hash
I0118 16:24:50.137697  9978 net.cpp:150] Setting up ip2_hash
I0118 16:24:50.137727  9978 net.cpp:157] Top shape: 100 8 (800)
I0118 16:24:50.137733  9978 net.cpp:165] Memory required for data: 8081200
I0118 16:24:50.137740  9978 layer_factory.hpp:76] Creating layer ip3
I0118 16:24:50.137755  9978 net.cpp:106] Creating Layer ip3
I0118 16:24:50.137763  9978 net.cpp:454] ip3 <- ip2_hash
I0118 16:24:50.137774  9978 net.cpp:411] ip3 -> ip3
I0118 16:24:50.137918  9978 net.cpp:150] Setting up ip3
I0118 16:24:50.137936  9978 net.cpp:157] Top shape: 100 10 (1000)
I0118 16:24:50.137945  9978 net.cpp:165] Memory required for data: 8085200
I0118 16:24:50.137960  9978 layer_factory.hpp:76] Creating layer ip3_ip3_0_split
I0118 16:24:50.137971  9978 net.cpp:106] Creating Layer ip3_ip3_0_split
I0118 16:24:50.137977  9978 net.cpp:454] ip3_ip3_0_split <- ip3
I0118 16:24:50.137985  9978 net.cpp:411] ip3_ip3_0_split -> ip3_ip3_0_split_0
I0118 16:24:50.137996  9978 net.cpp:411] ip3_ip3_0_split -> ip3_ip3_0_split_1
I0118 16:24:50.138046  9978 net.cpp:150] Setting up ip3_ip3_0_split
I0118 16:24:50.138059  9978 net.cpp:157] Top shape: 100 10 (1000)
I0118 16:24:50.138067  9978 net.cpp:157] Top shape: 100 10 (1000)
I0118 16:24:50.138072  9978 net.cpp:165] Memory required for data: 8093200
I0118 16:24:50.138078  9978 layer_factory.hpp:76] Creating layer accuracy
I0118 16:24:50.138093  9978 net.cpp:106] Creating Layer accuracy
I0118 16:24:50.138103  9978 net.cpp:454] accuracy <- ip3_ip3_0_split_0
I0118 16:24:50.138110  9978 net.cpp:454] accuracy <- label_mnist_1_split_0
I0118 16:24:50.138118  9978 net.cpp:411] accuracy -> accuracy
…
