…
I0118 16:38:07.460350 10254 net.cpp:322] The NetState phase (0) differed from the phase (1) specified by a rule in layer mnist
I0118 16:38:07.460377 10254 net.cpp:322] The NetState phase (0) differed from the phase (1) specified by a rule in layer accuracy
I0118 16:38:07.460494 10254 net.cpp:49] Initializing net from parameters: 
name: "LeNet"
state {
  phase: TRAIN
}
layer {
  name: "mnist"
  type: "Data"
  top: "data"
  top: "label"
  include {
    phase: TRAIN
  }
  transform_param {
    scale: 0.00390625
  }
  data_param {
    source: "examples/A-mnist/mnist_train_lmdb"
    batch_size: 64
    backend: LMDB
  }
}
layer {
  name: "conv1"
  type: "Convolution"
  bottom: "data"
  top: "conv1"
  param {
    lr_mult: 1
  }
  param {
    lr_mult: 2
  }
  convolution_param {
    num_output: 20
    kernel_size: 5
    stride: 1
    weight_filler {
      type: "xavier"
    }
    bias_filler {
      type: "constant"
    }
  }
}
layer {
  name: "pool1"
  type: "Pooling"
  bottom: "conv1"
  top: "pool1"
  pooling_param {
    pool: MAX
    kernel_size: 2
    stride: 2
  }
}
layer {
  name: "conv2"
  type: "Convolution"
  bottom: "pool1"
  top: "conv2"
  param {
    lr_mult: 1
  }
  param {
    lr_mult: 2
  }
  convolution_param {
    num_output: 50
    kernel_size: 5
    stride: 1
    weight_filler {
      type: "xavier"
    }
    bias_filler {
      type: "constant"
    }
  }
}
layer {
  name: "pool2"
  type: "Pooling"
  bottom: "conv2"
  top: "pool2"
  pooling_param {
    pool: MAX
    kernel_size: 2
    stride: 2
  }
}
layer {
  name: "ip1"
  type: "InnerProduct"
  bottom: "pool2"
  top: "ip1"
  param {
    lr_mult: 1
  }
  param {
    lr_mult: 2
  }
  inner_product_param {
    num_output: 500
    weight_filler {
      type: "xavier"
    }
    bias_filler {
      type: "constant"
    }
  }
}
layer {
  name: "relu1"
  type: "ReLU"
  bottom: "ip1"
  top: "ip1"
}
layer {
  name: "ip2_sig"
  type: "InnerProduct"
  bottom: "ip1"
  top: "ip2_sig"
  param {
    lr_mult: 1
  }
  param {
    lr_mult: 2
  }
  inner_product_param {
    num_output: 128
    weight_filler {
      type: "xavier"
    }
    bias_filler {
      type: "constant"
    }
  }
}
layer {
  name: "ip2_hash"
  type: "Sigmoid"
  bottom: "ip2_sig"
  top: "ip2_hash"
}
layer {
  name: "ip3"
  type: "InnerProduct"
  bottom: "ip2_hash"
  top: "ip3"
  param {
    lr_mult: 1
  }
  param {
    lr_mult: 2
  }
  inner_product_param {
    num_output: 10
    weight_filler {
      type: "xavier"
    }
    bias_filler {
      type: "constant"
    }
  }
}
layer {
  name: "loss"
  type: "SoftmaxWithLoss"
  bottom: "ip3"
  bottom: "label"
  top: "loss"
}
I0118 16:38:07.460598 10254 layer_factory.hpp:76] Creating layer mnist
I0118 16:38:07.461248 10254 net.cpp:106] Creating Layer mnist
I0118 16:38:07.461277 10254 net.cpp:411] mnist -> data
I0118 16:38:07.461316 10254 net.cpp:411] mnist -> label
I0118 16:38:07.462537 10260 db_lmdb.cpp:38] Opened lmdb examples/A-mnist/mnist_train_lmdb
I0118 16:38:07.472946 10254 data_layer.cpp:41] output data size: 64,1,28,28
I0118 16:38:07.474064 10254 net.cpp:150] Setting up mnist
I0118 16:38:07.474098 10254 net.cpp:157] Top shape: 64 1 28 28 (50176)
I0118 16:38:07.474112 10254 net.cpp:157] Top shape: 64 (64)
I0118 16:38:07.474118 10254 net.cpp:165] Memory required for data: 200960
I0118 16:38:07.474131 10254 layer_factory.hpp:76] Creating layer conv1
I0118 16:38:07.474159 10254 net.cpp:106] Creating Layer conv1
I0118 16:38:07.474169 10254 net.cpp:454] conv1 <- data
I0118 16:38:07.474192 10254 net.cpp:411] conv1 -> conv1
I0118 16:38:07.634384 10254 cudnn_conv_layer.cpp:194] Reallocating workspace storage: 20664
I0118 16:38:07.634470 10254 net.cpp:150] Setting up conv1
I0118 16:38:07.634490 10254 net.cpp:157] Top shape: 64 20 24 24 (737280)
I0118 16:38:07.634496 10254 net.cpp:165] Memory required for data: 3150080
I0118 16:38:07.634527 10254 layer_factory.hpp:76] Creating layer pool1
I0118 16:38:07.634547 10254 net.cpp:106] Creating Layer pool1
I0118 16:38:07.634562 10254 net.cpp:454] pool1 <- conv1
I0118 16:38:07.634572 10254 net.cpp:411] pool1 -> pool1
I0118 16:38:07.634824 10254 net.cpp:150] Setting up pool1
I0118 16:38:07.634840 10254 net.cpp:157] Top shape: 64 20 12 12 (184320)
I0118 16:38:07.634845 10254 net.cpp:165] Memory required for data: 3887360
I0118 16:38:07.634852 10254 layer_factory.hpp:76] Creating layer conv2
I0118 16:38:07.634866 10254 net.cpp:106] Creating Layer conv2
I0118 16:38:07.634872 10254 net.cpp:454] conv2 <- pool1
I0118 16:38:07.634882 10254 net.cpp:411] conv2 -> conv2
I0118 16:38:07.636126 10254 cudnn_conv_layer.cpp:194] Reallocating workspace storage: 10272
I0118 16:38:07.636279 10254 net.cpp:150] Setting up conv2
I0118 16:38:07.636297 10254 net.cpp:157] Top shape: 64 50 8 8 (204800)
I0118 16:38:07.636303 10254 net.cpp:165] Memory required for data: 4706560
I0118 16:38:07.636317 10254 layer_factory.hpp:76] Creating layer pool2
I0118 16:38:07.636332 10254 net.cpp:106] Creating Layer pool2
I0118 16:38:07.636338 10254 net.cpp:454] pool2 <- conv2
I0118 16:38:07.636346 10254 net.cpp:411] pool2 -> pool2
I0118 16:38:07.636700 10254 net.cpp:150] Setting up pool2
I0118 16:38:07.636718 10254 net.cpp:157] Top shape: 64 50 4 4 (51200)
I0118 16:38:07.636723 10254 net.cpp:165] Memory required for data: 4911360
I0118 16:38:07.636730 10254 layer_factory.hpp:76] Creating layer ip1
I0118 16:38:07.636745 10254 net.cpp:106] Creating Layer ip1
I0118 16:38:07.636752 10254 net.cpp:454] ip1 <- pool2
I0118 16:38:07.636761 10254 net.cpp:411] ip1 -> ip1
I0118 16:38:07.640738 10254 net.cpp:150] Setting up ip1
I0118 16:38:07.640755 10254 net.cpp:157] Top shape: 64 500 (32000)
I0118 16:38:07.640761 10254 net.cpp:165] Memory required for data: 5039360
I0118 16:38:07.640775 10254 layer_factory.hpp:76] Creating layer relu1
I0118 16:38:07.640785 10254 net.cpp:106] Creating Layer relu1
I0118 16:38:07.640791 10254 net.cpp:454] relu1 <- ip1
I0118 16:38:07.640799 10254 net.cpp:397] relu1 -> ip1 (in-place)
I0118 16:38:07.640998 10254 net.cpp:150] Setting up relu1
I0118 16:38:07.641013 10254 net.cpp:157] Top shape: 64 500 (32000)
I0118 16:38:07.641019 10254 net.cpp:165] Memory required for data: 5167360
I0118 16:38:07.641026 10254 layer_factory.hpp:76] Creating layer ip2_sig
I0118 16:38:07.641037 10254 net.cpp:106] Creating Layer ip2_sig
I0118 16:38:07.641043 10254 net.cpp:454] ip2_sig <- ip1
I0118 16:38:07.641052 10254 net.cpp:411] ip2_sig -> ip2_sig
I0118 16:38:07.641716 10254 net.cpp:150] Setting up ip2_sig
I0118 16:38:07.641731 10254 net.cpp:157] Top shape: 64 128 (8192)
I0118 16:38:07.641736 10254 net.cpp:165] Memory required for data: 5200128
I0118 16:38:07.641746 10254 layer_factory.hpp:76] Creating layer ip2_hash
I0118 16:38:07.641757 10254 net.cpp:106] Creating Layer ip2_hash
I0118 16:38:07.641763 10254 net.cpp:454] ip2_hash <- ip2_sig
I0118 16:38:07.641772 10254 net.cpp:411] ip2_hash -> ip2_hash
I0118 16:38:07.642129 10254 net.cpp:150] Setting up ip2_hash
I0118 16:38:07.642146 10254 net.cpp:157] Top shape: 64 128 (8192)
I0118 16:38:07.642153 10254 net.cpp:165] Memory required for data: 5232896
I0118 16:38:07.642158 10254 layer_factory.hpp:76] Creating layer ip3
I0118 16:38:07.642173 10254 net.cpp:106] Creating Layer ip3
I0118 16:38:07.642179 10254 net.cpp:454] ip3 <- ip2_hash
I0118 16:38:07.642189 10254 net.cpp:411] ip3 -> ip3
I0118 16:38:07.642782 10254 net.cpp:150] Setting up ip3
I0118 16:38:07.642799 10254 net.cpp:157] Top shape: 64 10 (640)
I0118 16:38:07.642806 10254 net.cpp:165] Memory required for data: 5235456
I0118 16:38:07.642818 10254 layer_factory.hpp:76] Creating layer loss
I0118 16:38:07.642834 10254 net.cpp:106] Creating Layer loss
I0118 16:38:07.642840 10254 net.cpp:454] loss <- ip3
I0118 16:38:07.642863 10254 net.cpp:454] loss <- label
I0118 16:38:07.642874 10254 net.cpp:411] loss -> loss
I0118 16:38:07.642894 10254 layer_factory.hpp:76] Creating layer loss
…
I0118 16:38:07.643823 10254 solver.cpp:180] Creating test net (#0) specified by net file: examples/A-mnist/train_test.prototxt
I0118 16:38:07.643872 10254 net.cpp:322] The NetState phase (1) differed from the phase (0) specified by a rule in layer mnist
I0118 16:38:07.644011 10254 net.cpp:49] Initializing net from parameters: 
name: "LeNet"
state {
  phase: TEST
}
layer {
  name: "mnist"
  type: "Data"
  top: "data"
  top: "label"
  include {
    phase: TEST
  }
  transform_param {
    scale: 0.00390625
  }
  data_param {
    source: "examples/A-mnist/mnist_test_lmdb"
    batch_size: 100
    backend: LMDB
  }
}
layer {
  name: "conv1"
  type: "Convolution"
  bottom: "data"
  top: "conv1"
  param {
    lr_mult: 1
  }
  param {
    lr_mult: 2
  }
  convolution_param {
    num_output: 20
    kernel_size: 5
    stride: 1
    weight_filler {
      type: "xavier"
    }
    bias_filler {
      type: "constant"
    }
  }
}
layer {
  name: "pool1"
  type: "Pooling"
  bottom: "conv1"
  top: "pool1"
  pooling_param {
    pool: MAX
    kernel_size: 2
    stride: 2
  }
}
layer {
  name: "conv2"
  type: "Convolution"
  bottom: "pool1"
  top: "conv2"
  param {
    lr_mult: 1
  }
  param {
    lr_mult: 2
  }
  convolution_param {
    num_output: 50
    kernel_size: 5
    stride: 1
    weight_filler {
      type: "xavier"
    }
    bias_filler {
      type: "constant"
    }
  }
}
layer {
  name: "pool2"
  type: "Pooling"
  bottom: "conv2"
  top: "pool2"
  pooling_param {
    pool: MAX
    kernel_size: 2
    stride: 2
  }
}
layer {
  name: "ip1"
  type: "InnerProduct"
  bottom: "pool2"
  top: "ip1"
  param {
    lr_mult: 1
  }
  param {
    lr_mult: 2
  }
  inner_product_param {
    num_output: 500
    weight_filler {
      type: "xavier"
    }
    bias_filler {
      type: "constant"
    }
  }
}
layer {
  name: "relu1"
  type: "ReLU"
  bottom: "ip1"
  top: "ip1"
}
layer {
  name: "ip2_sig"
  type: "InnerProduct"
  bottom: "ip1"
  top: "ip2_sig"
  param {
    lr_mult: 1
  }
  param {
    lr_mult: 2
  }
  inner_product_param {
    num_output: 128
    weight_filler {
      type: "xavier"
    }
    bias_filler {
      type: "constant"
    }
  }
}
layer {
  name: "ip2_hash"
  type: "Sigmoid"
  bottom: "ip2_sig"
  top: "ip2_hash"
}
layer {
  name: "ip3"
  type: "InnerProduct"
  bottom: "ip2_hash"
  top: "ip3"
  param {
    lr_mult: 1
  }
  param {
    lr_mult: 2
  }
  inner_product_param {
    num_output: 10
    weight_filler {
      type: "xavier"
    }
    bias_filler {
      type: "constant"
    }
  }
}
layer {
  name: "accuracy"
  type: "Accuracy"
  bottom: "ip3"
  bottom: "label"
  top: "accuracy"
  include {
    phase: TEST
  }
}
layer {
  name: "loss"
  type: "SoftmaxWithLoss"
  bottom: "ip3"
  bottom: "label"
  top: "loss"
}
I0118 16:38:07.644131 10254 layer_factory.hpp:76] Creating layer mnist
I0118 16:38:07.644271 10254 net.cpp:106] Creating Layer mnist
I0118 16:38:07.644286 10254 net.cpp:411] mnist -> data
I0118 16:38:07.644299 10254 net.cpp:411] mnist -> label
I0118 16:38:07.645311 10262 db_lmdb.cpp:38] Opened lmdb examples/A-mnist/mnist_test_lmdb
I0118 16:38:07.645447 10254 data_layer.cpp:41] output data size: 100,1,28,28
I0118 16:38:07.646667 10254 net.cpp:150] Setting up mnist
I0118 16:38:07.646688 10254 net.cpp:157] Top shape: 100 1 28 28 (78400)
I0118 16:38:07.646697 10254 net.cpp:157] Top shape: 100 (100)
I0118 16:38:07.646703 10254 net.cpp:165] Memory required for data: 314000
I0118 16:38:07.646710 10254 layer_factory.hpp:76] Creating layer label_mnist_1_split
I0118 16:38:07.646725 10254 net.cpp:106] Creating Layer label_mnist_1_split
I0118 16:38:07.646733 10254 net.cpp:454] label_mnist_1_split <- label
I0118 16:38:07.646741 10254 net.cpp:411] label_mnist_1_split -> label_mnist_1_split_0
I0118 16:38:07.646754 10254 net.cpp:411] label_mnist_1_split -> label_mnist_1_split_1
I0118 16:38:07.646811 10254 net.cpp:150] Setting up label_mnist_1_split
I0118 16:38:07.646824 10254 net.cpp:157] Top shape: 100 (100)
I0118 16:38:07.646831 10254 net.cpp:157] Top shape: 100 (100)
I0118 16:38:07.646836 10254 net.cpp:165] Memory required for data: 314800
I0118 16:38:07.646842 10254 layer_factory.hpp:76] Creating layer conv1
I0118 16:38:07.646862 10254 net.cpp:106] Creating Layer conv1
I0118 16:38:07.646868 10254 net.cpp:454] conv1 <- data
I0118 16:38:07.646880 10254 net.cpp:411] conv1 -> conv1
I0118 16:38:07.648486 10254 cudnn_conv_layer.cpp:194] Reallocating workspace storage: 20664
I0118 16:38:07.648527 10254 net.cpp:150] Setting up conv1
I0118 16:38:07.648541 10254 net.cpp:157] Top shape: 100 20 24 24 (1152000)
I0118 16:38:07.648560 10254 net.cpp:165] Memory required for data: 4922800
I0118 16:38:07.648576 10254 layer_factory.hpp:76] Creating layer pool1
I0118 16:38:07.648593 10254 net.cpp:106] Creating Layer pool1
I0118 16:38:07.648600 10254 net.cpp:454] pool1 <- conv1
I0118 16:38:07.648612 10254 net.cpp:411] pool1 -> pool1
I0118 16:38:07.649027 10254 net.cpp:150] Setting up pool1
I0118 16:38:07.649049 10254 net.cpp:157] Top shape: 100 20 12 12 (288000)
I0118 16:38:07.649057 10254 net.cpp:165] Memory required for data: 6074800
I0118 16:38:07.649065 10254 layer_factory.hpp:76] Creating layer conv2
I0118 16:38:07.649081 10254 net.cpp:106] Creating Layer conv2
I0118 16:38:07.649090 10254 net.cpp:454] conv2 <- pool1
I0118 16:38:07.649099 10254 net.cpp:411] conv2 -> conv2
I0118 16:38:07.651012 10254 cudnn_conv_layer.cpp:194] Reallocating workspace storage: 10272
I0118 16:38:07.651087 10254 net.cpp:150] Setting up conv2
I0118 16:38:07.651103 10254 net.cpp:157] Top shape: 100 50 8 8 (320000)
I0118 16:38:07.651108 10254 net.cpp:165] Memory required for data: 7354800
I0118 16:38:07.651130 10254 layer_factory.hpp:76] Creating layer pool2
I0118 16:38:07.651144 10254 net.cpp:106] Creating Layer pool2
I0118 16:38:07.651154 10254 net.cpp:454] pool2 <- conv2
I0118 16:38:07.651165 10254 net.cpp:411] pool2 -> pool2
I0118 16:38:07.651576 10254 net.cpp:150] Setting up pool2
I0118 16:38:07.651595 10254 net.cpp:157] Top shape: 100 50 4 4 (80000)
I0118 16:38:07.651604 10254 net.cpp:165] Memory required for data: 7674800
I0118 16:38:07.651614 10254 layer_factory.hpp:76] Creating layer ip1
I0118 16:38:07.651626 10254 net.cpp:106] Creating Layer ip1
I0118 16:38:07.651638 10254 net.cpp:454] ip1 <- pool2
I0118 16:38:07.651650 10254 net.cpp:411] ip1 -> ip1
I0118 16:38:07.656041 10254 net.cpp:150] Setting up ip1
I0118 16:38:07.656061 10254 net.cpp:157] Top shape: 100 500 (50000)
I0118 16:38:07.656069 10254 net.cpp:165] Memory required for data: 7874800
I0118 16:38:07.656082 10254 layer_factory.hpp:76] Creating layer relu1
I0118 16:38:07.656093 10254 net.cpp:106] Creating Layer relu1
I0118 16:38:07.656100 10254 net.cpp:454] relu1 <- ip1
I0118 16:38:07.656111 10254 net.cpp:397] relu1 -> ip1 (in-place)
I0118 16:38:07.656504 10254 net.cpp:150] Setting up relu1
I0118 16:38:07.656523 10254 net.cpp:157] Top shape: 100 500 (50000)
I0118 16:38:07.656529 10254 net.cpp:165] Memory required for data: 8074800
I0118 16:38:07.656536 10254 layer_factory.hpp:76] Creating layer ip2_sig
I0118 16:38:07.656553 10254 net.cpp:106] Creating Layer ip2_sig
I0118 16:38:07.656559 10254 net.cpp:454] ip2_sig <- ip1
I0118 16:38:07.656569 10254 net.cpp:411] ip2_sig -> ip2_sig
I0118 16:38:07.657274 10254 net.cpp:150] Setting up ip2_sig
I0118 16:38:07.657290 10254 net.cpp:157] Top shape: 100 128 (12800)
I0118 16:38:07.657296 10254 net.cpp:165] Memory required for data: 8126000
I0118 16:38:07.657307 10254 layer_factory.hpp:76] Creating layer ip2_hash
I0118 16:38:07.657318 10254 net.cpp:106] Creating Layer ip2_hash
I0118 16:38:07.657325 10254 net.cpp:454] ip2_hash <- ip2_sig
I0118 16:38:07.657333 10254 net.cpp:411] ip2_hash -> ip2_hash
I0118 16:38:07.657579 10254 net.cpp:150] Setting up ip2_hash
I0118 16:38:07.657596 10254 net.cpp:157] Top shape: 100 128 (12800)
I0118 16:38:07.657603 10254 net.cpp:165] Memory required for data: 8177200
I0118 16:38:07.657609 10254 layer_factory.hpp:76] Creating layer ip3
I0118 16:38:07.657624 10254 net.cpp:106] Creating Layer ip3
I0118 16:38:07.657630 10254 net.cpp:454] ip3 <- ip2_hash
I0118 16:38:07.657642 10254 net.cpp:411] ip3 -> ip3
I0118 16:38:07.657820 10254 net.cpp:150] Setting up ip3
I0118 16:38:07.657835 10254 net.cpp:157] Top shape: 100 10 (1000)
I0118 16:38:07.657841 10254 net.cpp:165] Memory required for data: 8181200
I0118 16:38:07.657857 10254 layer_factory.hpp:76] Creating layer ip3_ip3_0_split
I0118 16:38:07.657869 10254 net.cpp:106] Creating Layer ip3_ip3_0_split
I0118 16:38:07.657876 10254 net.cpp:454] ip3_ip3_0_split <- ip3
I0118 16:38:07.657882 10254 net.cpp:411] ip3_ip3_0_split -> ip3_ip3_0_split_0
I0118 16:38:07.657892 10254 net.cpp:411] ip3_ip3_0_split -> ip3_ip3_0_split_1
I0118 16:38:07.657941 10254 net.cpp:150] Setting up ip3_ip3_0_split
I0118 16:38:07.657953 10254 net.cpp:157] Top shape: 100 10 (1000)
I0118 16:38:07.657960 10254 net.cpp:157] Top shape: 100 10 (1000)
I0118 16:38:07.657965 10254 net.cpp:165] Memory required for data: 8189200
I0118 16:38:07.657971 10254 layer_factory.hpp:76] Creating layer accuracy
I0118 16:38:07.657984 10254 net.cpp:106] Creating Layer accuracy
I0118 16:38:07.657990 10254 net.cpp:454] accuracy <- ip3_ip3_0_split_0
I0118 16:38:07.657997 10254 net.cpp:454] accuracy <- label_mnist_1_split_0
I0118 16:38:07.658007 10254 net.cpp:411] accuracy -> accuracy
…
