…
I0125 10:03:08.883090 15912 net.cpp:322] The NetState phase (0) differed from the phase (1) specified by a rule in layer accuracy
I0125 10:03:08.883314 15912 net.cpp:49] Initializing net from parameters: 
name: "Oxford102_VGG_CNN_S"
state {
  phase: TRAIN
}
layer {
  name: "data"
  type: "ImageData"
  top: "data"
  top: "label"
  include {
    phase: TRAIN
  }
  transform_param {
    mirror: true
    crop_size: 224
    mean_file: "/home/dl/caffe-master/models/bvlc_reference_caffenet/imagenet_mean.binaryproto"
  }
  image_data_param {
    source: "/home/dl/caffe-master/data/oxford102/test.txt"
    batch_size: 50
    new_height: 256
    new_width: 256
  }
}
layer {
  name: "conv1"
  type: "Convolution"
  bottom: "data"
  top: "conv1"
  param {
    lr_mult: 1
    decay_mult: 1
  }
  param {
    lr_mult: 2
    decay_mult: 0
  }
  convolution_param {
    num_output: 96
    kernel_size: 7
    stride: 2
    weight_filler {
      type: "gaussian"
      std: 0.01
    }
    bias_filler {
      type: "constant"
      value: 0
    }
  }
}
layer {
  name: "relu1"
  type: "ReLU"
  bottom: "conv1"
  top: "conv1"
}
layer {
  name: "norm1"
  type: "LRN"
  bottom: "conv1"
  top: "norm1"
  lrn_param {
    local_size: 5
    alpha: 0.0005
    beta: 0.75
    k: 2
  }
}
layer {
  name: "pool1"
  type: "Pooling"
  bottom: "norm1"
  top: "pool1"
  pooling_param {
    pool: MAX
    kernel_size: 3
    stride: 3
  }
}
layer {
  name: "conv2"
  type: "Convolution"
  bottom: "pool1"
  top: "conv2"
  param {
    lr_mult: 1
    decay_mult: 1
  }
  param {
    lr_mult: 2
    decay_mult: 0
  }
  convolution_param {
    num_output: 256
    kernel_size: 5
    weight_filler {
      type: "gaussian"
      std: 0.01
    }
    bias_filler {
      type: "constant"
      value: 1
    }
  }
}
layer {
  name: "relu2"
  type: "ReLU"
  bottom: "conv2"
  top: "conv2"
}
layer {
  name: "pool2"
  type: "Pooling"
  bottom: "conv2"
  top: "pool2"
  pooling_param {
    pool: MAX
    kernel_size: 2
    stride: 2
  }
}
layer {
  name: "conv3"
  type: "Convolution"
  bottom: "pool2"
  top: "conv3"
  param {
    lr_mult: 1
    decay_mult: 1
  }
  param {
    lr_mult: 2
    decay_mult: 0
  }
  convolution_param {
    num_output: 512
    pad: 1
    kernel_size: 3
    weight_filler {
      type: "gaussian"
      std: 0.01
    }
    bias_filler {
      type: "constant"
      value: 1
    }
  }
}
layer {
  name: "relu3"
  type: "ReLU"
  bottom: "conv3"
  top: "conv3"
}
layer {
  name: "conv4"
  type: "Convolution"
  bottom: "conv3"
  top: "conv4"
  param {
    lr_mult: 1
    decay_mult: 1
  }
  param {
    lr_mult: 2
    decay_mult: 0
  }
  convolution_param {
    num_output: 512
    pad: 1
    kernel_size: 3
    weight_filler {
      type: "gaussian"
      std: 0.01
    }
    bias_filler {
      type: "constant"
      value: 1
    }
  }
}
layer {
  name: "relu4"
  type: "ReLU"
  bottom: "conv4"
  top: "conv4"
}
layer {
  name: "conv5"
  type: "Convolution"
  bottom: "conv4"
  top: "conv5"
  param {
    lr_mult: 1
    decay_mult: 1
  }
  param {
    lr_mult: 2
    decay_mult: 0
  }
  convolution_param {
    num_output: 512
    pad: 1
    kernel_size: 3
    weight_filler {
      type: "gaussian"
      std: 0.005
    }
    bias_filler {
      type: "constant"
      value: 1
    }
  }
}
layer {
  name: "relu5"
  type: "ReLU"
  bottom: "conv5"
  top: "conv5"
}
layer {
  name: "pool5"
  type: "Pooling"
  bottom: "conv5"
  top: "pool5"
  pooling_param {
    pool: MAX
    kernel_size: 3
    stride: 3
  }
}
layer {
  name: "fc6"
  type: "InnerProduct"
  bottom: "pool5"
  top: "fc6"
  inner_product_param {
    num_output: 4096
  }
}
layer {
  name: "relu6"
  type: "ReLU"
  bottom: "fc6"
  top: "fc6"
}
layer {
  name: "drop6"
  type: "Dropout"
  bottom: "fc6"
  top: "fc6"
  dropout_param {
    dropout_ratio: 0.5
  }
}
layer {
  name: "fc7"
  type: "InnerProduct"
  bottom: "fc6"
  top: "fc7"
  inner_product_param {
    num_output: 4096
  }
}
layer {
  name: "relu7"
  type: "ReLU"
  bottom: "fc7"
  top: "fc7"
}
layer {
  name: "drop7"
  type: "Dropout"
  bottom: "fc7"
  top: "fc7"
  dropout_param {
    dropout_ratio: 0.5
  }
}
layer {
  name: "ip1"
  type: "InnerProduct"
  bottom: "fc7"
  top: "ip1"
  param {
    lr_mult: 1
    decay_mult: 1
  }
  param {
    lr_mult: 2
    decay_mult: 0
  }
  inner_product_param {
    num_output: 24
    weight_filler {
      type: "gaussian"
      std: 0.01
    }
    bias_filler {
      type: "constant"
      value: 0
    }
  }
}
layer {
  name: "ip2"
  type: "Sigmoid"
  bottom: "ip1"
  top: "ip2"
}
layer {
  name: "fc8_oxford102_hash"
  type: "InnerProduct"
  bottom: "ip2"
  top: "fc8_oxford102_hash"
  param {
    lr_mult: 10
    decay_mult: 1
  }
  param {
    lr_mult: 20
    decay_mult: 0
  }
  inner_product_param {
    num_output: 102
    weight_filler {
      type: "gaussian"
      std: 0.01
    }
    bias_filler {
      type: "constant"
      value: 0
    }
  }
}
layer {
  name: "loss"
  type: "SoftmaxWithLoss"
  bottom: "fc8_oxford102_hash"
  bottom: "label"
}
I0125 10:03:08.883479 15912 layer_factory.hpp:76] Creating layer data
I0125 10:03:08.883522 15912 net.cpp:106] Creating Layer data
I0125 10:03:08.883538 15912 net.cpp:411] data -> data
I0125 10:03:08.883569 15912 net.cpp:411] data -> label
I0125 10:03:08.883594 15912 data_transformer.cpp:25] Loading mean file from: /home/dl/caffe-master/models/bvlc_reference_caffenet/imagenet_mean.binaryproto
I0125 10:03:08.895553 15912 image_data_layer.cpp:36] Opening file /home/dl/caffe-master/data/oxford102/test.txt
I0125 10:03:08.898859 15912 image_data_layer.cpp:51] A total of 6149 images.
I0125 10:03:08.907291 15912 image_data_layer.cpp:78] output data size: 50,3,224,224
I0125 10:03:08.961248 15912 net.cpp:150] Setting up data
I0125 10:03:08.961304 15912 net.cpp:157] Top shape: 50 3 224 224 (7526400)
I0125 10:03:08.961315 15912 net.cpp:157] Top shape: 50 (50)
I0125 10:03:08.961321 15912 net.cpp:165] Memory required for data: 30105800
I0125 10:03:08.961334 15912 layer_factory.hpp:76] Creating layer conv1
I0125 10:03:08.961361 15912 net.cpp:106] Creating Layer conv1
I0125 10:03:08.961374 15912 net.cpp:454] conv1 <- data
I0125 10:03:08.961391 15912 net.cpp:411] conv1 -> conv1
I0125 10:03:09.129304 15912 cudnn_conv_layer.cpp:194] Reallocating workspace storage: 213876
I0125 10:03:09.129480 15912 net.cpp:150] Setting up conv1
I0125 10:03:09.129503 15912 net.cpp:157] Top shape: 50 96 109 109 (57028800)
I0125 10:03:09.129513 15912 net.cpp:165] Memory required for data: 258221000
I0125 10:03:09.129546 15912 layer_factory.hpp:76] Creating layer relu1
I0125 10:03:09.129568 15912 net.cpp:106] Creating Layer relu1
I0125 10:03:09.129577 15912 net.cpp:454] relu1 <- conv1
I0125 10:03:09.129588 15912 net.cpp:397] relu1 -> conv1 (in-place)
I0125 10:03:09.129796 15912 net.cpp:150] Setting up relu1
I0125 10:03:09.129812 15912 net.cpp:157] Top shape: 50 96 109 109 (57028800)
I0125 10:03:09.129818 15912 net.cpp:165] Memory required for data: 486336200
I0125 10:03:09.129828 15912 layer_factory.hpp:76] Creating layer norm1
I0125 10:03:09.129843 15912 net.cpp:106] Creating Layer norm1
I0125 10:03:09.129850 15912 net.cpp:454] norm1 <- conv1
I0125 10:03:09.129859 15912 net.cpp:411] norm1 -> norm1
I0125 10:03:09.130219 15912 net.cpp:150] Setting up norm1
I0125 10:03:09.130256 15912 net.cpp:157] Top shape: 50 96 109 109 (57028800)
I0125 10:03:09.130264 15912 net.cpp:165] Memory required for data: 714451400
I0125 10:03:09.130270 15912 layer_factory.hpp:76] Creating layer pool1
I0125 10:03:09.130282 15912 net.cpp:106] Creating Layer pool1
I0125 10:03:09.130288 15912 net.cpp:454] pool1 <- norm1
I0125 10:03:09.130297 15912 net.cpp:411] pool1 -> pool1
I0125 10:03:09.130532 15912 net.cpp:150] Setting up pool1
I0125 10:03:09.130548 15912 net.cpp:157] Top shape: 50 96 37 37 (6571200)
I0125 10:03:09.130555 15912 net.cpp:165] Memory required for data: 740736200
I0125 10:03:09.130561 15912 layer_factory.hpp:76] Creating layer conv2
I0125 10:03:09.130575 15912 net.cpp:106] Creating Layer conv2
I0125 10:03:09.130585 15912 net.cpp:454] conv2 <- pool1
I0125 10:03:09.130594 15912 net.cpp:411] conv2 -> conv2
I0125 10:03:09.154980 15912 cudnn_conv_layer.cpp:194] Reallocating workspace storage: 21972
I0125 10:03:09.155024 15912 net.cpp:150] Setting up conv2
I0125 10:03:09.155037 15912 net.cpp:157] Top shape: 50 256 33 33 (13939200)
I0125 10:03:09.155043 15912 net.cpp:165] Memory required for data: 796493000
I0125 10:03:09.155062 15912 layer_factory.hpp:76] Creating layer relu2
I0125 10:03:09.155076 15912 net.cpp:106] Creating Layer relu2
I0125 10:03:09.155083 15912 net.cpp:454] relu2 <- conv2
I0125 10:03:09.155093 15912 net.cpp:397] relu2 -> conv2 (in-place)
I0125 10:03:09.155416 15912 net.cpp:150] Setting up relu2
I0125 10:03:09.155434 15912 net.cpp:157] Top shape: 50 256 33 33 (13939200)
I0125 10:03:09.155441 15912 net.cpp:165] Memory required for data: 852249800
I0125 10:03:09.155447 15912 layer_factory.hpp:76] Creating layer pool2
I0125 10:03:09.155457 15912 net.cpp:106] Creating Layer pool2
I0125 10:03:09.155465 15912 net.cpp:454] pool2 <- conv2
I0125 10:03:09.155474 15912 net.cpp:411] pool2 -> pool2
I0125 10:03:09.155689 15912 net.cpp:150] Setting up pool2
I0125 10:03:09.155704 15912 net.cpp:157] Top shape: 50 256 17 17 (3699200)
I0125 10:03:09.155709 15912 net.cpp:165] Memory required for data: 867046600
I0125 10:03:09.155716 15912 layer_factory.hpp:76] Creating layer conv3
I0125 10:03:09.155732 15912 net.cpp:106] Creating Layer conv3
I0125 10:03:09.155740 15912 net.cpp:454] conv3 <- pool2
I0125 10:03:09.155750 15912 net.cpp:411] conv3 -> conv3
I0125 10:03:09.200935 15912 cudnn_conv_layer.cpp:194] Reallocating workspace storage: 11748
I0125 10:03:09.201103 15912 net.cpp:150] Setting up conv3
I0125 10:03:09.201123 15912 net.cpp:157] Top shape: 50 512 17 17 (7398400)
I0125 10:03:09.201133 15912 net.cpp:165] Memory required for data: 896640200
I0125 10:03:09.201153 15912 layer_factory.hpp:76] Creating layer relu3
I0125 10:03:09.201166 15912 net.cpp:106] Creating Layer relu3
I0125 10:03:09.201174 15912 net.cpp:454] relu3 <- conv3
I0125 10:03:09.201185 15912 net.cpp:397] relu3 -> conv3 (in-place)
I0125 10:03:09.201519 15912 net.cpp:150] Setting up relu3
I0125 10:03:09.201535 15912 net.cpp:157] Top shape: 50 512 17 17 (7398400)
I0125 10:03:09.201541 15912 net.cpp:165] Memory required for data: 926233800
I0125 10:03:09.201547 15912 layer_factory.hpp:76] Creating layer conv4
I0125 10:03:09.201561 15912 net.cpp:106] Creating Layer conv4
I0125 10:03:09.201568 15912 net.cpp:454] conv4 <- conv3
I0125 10:03:09.201577 15912 net.cpp:411] conv4 -> conv4
I0125 10:03:09.289932 15912 cudnn_conv_layer.cpp:194] Reallocating workspace storage: 11748
I0125 10:03:09.289978 15912 net.cpp:150] Setting up conv4
I0125 10:03:09.289994 15912 net.cpp:157] Top shape: 50 512 17 17 (7398400)
I0125 10:03:09.290000 15912 net.cpp:165] Memory required for data: 955827400
I0125 10:03:09.290014 15912 layer_factory.hpp:76] Creating layer relu4
I0125 10:03:09.290029 15912 net.cpp:106] Creating Layer relu4
I0125 10:03:09.290036 15912 net.cpp:454] relu4 <- conv4
I0125 10:03:09.290047 15912 net.cpp:397] relu4 -> conv4 (in-place)
I0125 10:03:09.290365 15912 net.cpp:150] Setting up relu4
I0125 10:03:09.290382 15912 net.cpp:157] Top shape: 50 512 17 17 (7398400)
I0125 10:03:09.290388 15912 net.cpp:165] Memory required for data: 985421000
I0125 10:03:09.290417 15912 layer_factory.hpp:76] Creating layer conv5
I0125 10:03:09.290433 15912 net.cpp:106] Creating Layer conv5
I0125 10:03:09.290441 15912 net.cpp:454] conv5 <- conv4
I0125 10:03:09.290451 15912 net.cpp:411] conv5 -> conv5
I0125 10:03:09.379047 15912 cudnn_conv_layer.cpp:194] Reallocating workspace storage: 11748
I0125 10:03:09.379096 15912 net.cpp:150] Setting up conv5
I0125 10:03:09.379109 15912 net.cpp:157] Top shape: 50 512 17 17 (7398400)
I0125 10:03:09.379115 15912 net.cpp:165] Memory required for data: 1015014600
I0125 10:03:09.379137 15912 layer_factory.hpp:76] Creating layer relu5
I0125 10:03:09.379151 15912 net.cpp:106] Creating Layer relu5
I0125 10:03:09.379159 15912 net.cpp:454] relu5 <- conv5
I0125 10:03:09.379168 15912 net.cpp:397] relu5 -> conv5 (in-place)
I0125 10:03:09.379359 15912 net.cpp:150] Setting up relu5
I0125 10:03:09.379374 15912 net.cpp:157] Top shape: 50 512 17 17 (7398400)
I0125 10:03:09.379380 15912 net.cpp:165] Memory required for data: 1044608200
I0125 10:03:09.379386 15912 layer_factory.hpp:76] Creating layer pool5
I0125 10:03:09.379397 15912 net.cpp:106] Creating Layer pool5
I0125 10:03:09.379403 15912 net.cpp:454] pool5 <- conv5
I0125 10:03:09.379412 15912 net.cpp:411] pool5 -> pool5
I0125 10:03:09.379766 15912 net.cpp:150] Setting up pool5
I0125 10:03:09.379783 15912 net.cpp:157] Top shape: 50 512 6 6 (921600)
I0125 10:03:09.379789 15912 net.cpp:165] Memory required for data: 1048294600
I0125 10:03:09.379796 15912 layer_factory.hpp:76] Creating layer fc6
I0125 10:03:09.379812 15912 net.cpp:106] Creating Layer fc6
I0125 10:03:09.379819 15912 net.cpp:454] fc6 <- pool5
I0125 10:03:09.379828 15912 net.cpp:411] fc6 -> fc6
I0125 10:03:09.547722 15912 net.cpp:150] Setting up fc6
I0125 10:03:09.547761 15912 net.cpp:157] Top shape: 50 4096 (204800)
I0125 10:03:09.547768 15912 net.cpp:165] Memory required for data: 1049113800
I0125 10:03:09.547783 15912 layer_factory.hpp:76] Creating layer relu6
I0125 10:03:09.547802 15912 net.cpp:106] Creating Layer relu6
I0125 10:03:09.547809 15912 net.cpp:454] relu6 <- fc6
I0125 10:03:09.547821 15912 net.cpp:397] relu6 -> fc6 (in-place)
I0125 10:03:09.548084 15912 net.cpp:150] Setting up relu6
I0125 10:03:09.548099 15912 net.cpp:157] Top shape: 50 4096 (204800)
I0125 10:03:09.548105 15912 net.cpp:165] Memory required for data: 1049933000
I0125 10:03:09.548111 15912 layer_factory.hpp:76] Creating layer drop6
I0125 10:03:09.548130 15912 net.cpp:106] Creating Layer drop6
I0125 10:03:09.548136 15912 net.cpp:454] drop6 <- fc6
I0125 10:03:09.548146 15912 net.cpp:397] drop6 -> fc6 (in-place)
I0125 10:03:09.548189 15912 net.cpp:150] Setting up drop6
I0125 10:03:09.548202 15912 net.cpp:157] Top shape: 50 4096 (204800)
I0125 10:03:09.548207 15912 net.cpp:165] Memory required for data: 1050752200
I0125 10:03:09.548213 15912 layer_factory.hpp:76] Creating layer fc7
I0125 10:03:09.548223 15912 net.cpp:106] Creating Layer fc7
I0125 10:03:09.548229 15912 net.cpp:454] fc7 <- fc6
I0125 10:03:09.548238 15912 net.cpp:411] fc7 -> fc7
I0125 10:03:09.585808 15912 net.cpp:150] Setting up fc7
I0125 10:03:09.585845 15912 net.cpp:157] Top shape: 50 4096 (204800)
I0125 10:03:09.585852 15912 net.cpp:165] Memory required for data: 1051571400
I0125 10:03:09.585866 15912 layer_factory.hpp:76] Creating layer relu7
I0125 10:03:09.585880 15912 net.cpp:106] Creating Layer relu7
I0125 10:03:09.585888 15912 net.cpp:454] relu7 <- fc7
I0125 10:03:09.585899 15912 net.cpp:397] relu7 -> fc7 (in-place)
I0125 10:03:09.586374 15912 net.cpp:150] Setting up relu7
I0125 10:03:09.586390 15912 net.cpp:157] Top shape: 50 4096 (204800)
I0125 10:03:09.586396 15912 net.cpp:165] Memory required for data: 1052390600
I0125 10:03:09.586402 15912 layer_factory.hpp:76] Creating layer drop7
I0125 10:03:09.586413 15912 net.cpp:106] Creating Layer drop7
I0125 10:03:09.586419 15912 net.cpp:454] drop7 <- fc7
I0125 10:03:09.586427 15912 net.cpp:397] drop7 -> fc7 (in-place)
I0125 10:03:09.586464 15912 net.cpp:150] Setting up drop7
I0125 10:03:09.586477 15912 net.cpp:157] Top shape: 50 4096 (204800)
I0125 10:03:09.586504 15912 net.cpp:165] Memory required for data: 1053209800
I0125 10:03:09.586511 15912 layer_factory.hpp:76] Creating layer ip1
I0125 10:03:09.586524 15912 net.cpp:106] Creating Layer ip1
I0125 10:03:09.586535 15912 net.cpp:454] ip1 <- fc7
I0125 10:03:09.586544 15912 net.cpp:411] ip1 -> ip1
I0125 10:03:09.590659 15912 net.cpp:150] Setting up ip1
I0125 10:03:09.590678 15912 net.cpp:157] Top shape: 50 24 (1200)
I0125 10:03:09.590685 15912 net.cpp:165] Memory required for data: 1053214600
I0125 10:03:09.590695 15912 layer_factory.hpp:76] Creating layer ip2
I0125 10:03:09.590705 15912 net.cpp:106] Creating Layer ip2
I0125 10:03:09.590713 15912 net.cpp:454] ip2 <- ip1
I0125 10:03:09.590720 15912 net.cpp:411] ip2 -> ip2
I0125 10:03:09.590944 15912 net.cpp:150] Setting up ip2
I0125 10:03:09.590960 15912 net.cpp:157] Top shape: 50 24 (1200)
I0125 10:03:09.590965 15912 net.cpp:165] Memory required for data: 1053219400
I0125 10:03:09.590972 15912 layer_factory.hpp:76] Creating layer fc8_oxford102_hash
I0125 10:03:09.590983 15912 net.cpp:106] Creating Layer fc8_oxford102_hash
I0125 10:03:09.590989 15912 net.cpp:454] fc8_oxford102_hash <- ip2
I0125 10:03:09.590998 15912 net.cpp:411] fc8_oxford102_hash -> fc8_oxford102_hash
I0125 10:03:09.591202 15912 net.cpp:150] Setting up fc8_oxford102_hash
I0125 10:03:09.591217 15912 net.cpp:157] Top shape: 50 102 (5100)
I0125 10:03:09.591223 15912 net.cpp:165] Memory required for data: 1053239800
I0125 10:03:09.591238 15912 layer_factory.hpp:76] Creating layer loss
I0125 10:03:09.591253 15912 net.cpp:106] Creating Layer loss
I0125 10:03:09.591262 15912 net.cpp:454] loss <- fc8_oxford102_hash
I0125 10:03:09.591270 15912 net.cpp:454] loss <- label
I0125 10:03:09.591285 15912 net.cpp:411] loss -> (automatic)
…
I0125 10:03:09.593000 15912 net.cpp:322] The NetState phase (1) differed from the phase (0) specified by a rule in layer data
I0125 10:03:09.593242 15912 net.cpp:49] Initializing net from parameters: 
name: "Oxford102_VGG_CNN_S"
state {
  phase: TEST
}
layer {
  name: "data"
  type: "ImageData"
  top: "data"
  top: "label"
  include {
    phase: TEST
  }
  transform_param {
    mirror: false
    crop_size: 224
    mean_file: "/home/dl/caffe-master/models/bvlc_reference_caffenet/imagenet_mean.binaryproto"
  }
  image_data_param {
    source: "/home/dl/caffe-master/data/oxford102/train.txt"
    batch_size: 50
    new_height: 256
    new_width: 256
  }
}
layer {
  name: "conv1"
  type: "Convolution"
  bottom: "data"
  top: "conv1"
  param {
    lr_mult: 1
    decay_mult: 1
  }
  param {
    lr_mult: 2
    decay_mult: 0
  }
  convolution_param {
    num_output: 96
    kernel_size: 7
    stride: 2
    weight_filler {
      type: "gaussian"
      std: 0.01
    }
    bias_filler {
      type: "constant"
      value: 0
    }
  }
}
layer {
  name: "relu1"
  type: "ReLU"
  bottom: "conv1"
  top: "conv1"
}
layer {
  name: "norm1"
  type: "LRN"
  bottom: "conv1"
  top: "norm1"
  lrn_param {
    local_size: 5
    alpha: 0.0005
    beta: 0.75
    k: 2
  }
}
layer {
  name: "pool1"
  type: "Pooling"
  bottom: "norm1"
  top: "pool1"
  pooling_param {
    pool: MAX
    kernel_size: 3
    stride: 3
  }
}
layer {
  name: "conv2"
  type: "Convolution"
  bottom: "pool1"
  top: "conv2"
  param {
    lr_mult: 1
    decay_mult: 1
  }
  param {
    lr_mult: 2
    decay_mult: 0
  }
  convolution_param {
    num_output: 256
    kernel_size: 5
    weight_filler {
      type: "gaussian"
      std: 0.01
    }
    bias_filler {
      type: "constant"
      value: 1
    }
  }
}
layer {
  name: "relu2"
  type: "ReLU"
  bottom: "conv2"
  top: "conv2"
}
layer {
  name: "pool2"
  type: "Pooling"
  bottom: "conv2"
  top: "pool2"
  pooling_param {
    pool: MAX
    kernel_size: 2
    stride: 2
  }
}
layer {
  name: "conv3"
  type: "Convolution"
  bottom: "pool2"
  top: "conv3"
  param {
    lr_mult: 1
    decay_mult: 1
  }
  param {
    lr_mult: 2
    decay_mult: 0
  }
  convolution_param {
    num_output: 512
    pad: 1
    kernel_size: 3
    weight_filler {
      type: "gaussian"
      std: 0.01
    }
    bias_filler {
      type: "constant"
      value: 1
    }
  }
}
layer {
  name: "relu3"
  type: "ReLU"
  bottom: "conv3"
  top: "conv3"
}
layer {
  name: "conv4"
  type: "Convolution"
  bottom: "conv3"
  top: "conv4"
  param {
    lr_mult: 1
    decay_mult: 1
  }
  param {
    lr_mult: 2
    decay_mult: 0
  }
  convolution_param {
    num_output: 512
    pad: 1
    kernel_size: 3
    weight_filler {
      type: "gaussian"
      std: 0.01
    }
    bias_filler {
      type: "constant"
      value: 1
    }
  }
}
layer {
  name: "relu4"
  type: "ReLU"
  bottom: "conv4"
  top: "conv4"
}
layer {
  name: "conv5"
  type: "Convolution"
  bottom: "conv4"
  top: "conv5"
  param {
    lr_mult: 1
    decay_mult: 1
  }
  param {
    lr_mult: 2
    decay_mult: 0
  }
  convolution_param {
    num_output: 512
    pad: 1
    kernel_size: 3
    weight_filler {
      type: "gaussian"
      std: 0.005
    }
    bias_filler {
      type: "constant"
      value: 1
    }
  }
}
layer {
  name: "relu5"
  type: "ReLU"
  bottom: "conv5"
  top: "conv5"
}
layer {
  name: "pool5"
  type: "Pooling"
  bottom: "conv5"
  top: "pool5"
  pooling_param {
    pool: MAX
    kernel_size: 3
    stride: 3
  }
}
layer {
  name: "fc6"
  type: "InnerProduct"
  bottom: "pool5"
  top: "fc6"
  inner_product_param {
    num_output: 4096
  }
}
layer {
  name: "relu6"
  type: "ReLU"
  bottom: "fc6"
  top: "fc6"
}
layer {
  name: "drop6"
  type: "Dropout"
  bottom: "fc6"
  top: "fc6"
  dropout_param {
    dropout_ratio: 0.5
  }
}
layer {
  name: "fc7"
  type: "InnerProduct"
  bottom: "fc6"
  top: "fc7"
  inner_product_param {
    num_output: 4096
  }
}
layer {
  name: "relu7"
  type: "ReLU"
  bottom: "fc7"
  top: "fc7"
}
layer {
  name: "drop7"
  type: "Dropout"
  bottom: "fc7"
  top: "fc7"
  dropout_param {
    dropout_ratio: 0.5
  }
}
layer {
  name: "ip1"
  type: "InnerProduct"
  bottom: "fc7"
  top: "ip1"
  param {
    lr_mult: 1
    decay_mult: 1
  }
  param {
    lr_mult: 2
    decay_mult: 0
  }
  inner_product_param {
    num_output: 24
    weight_filler {
      type: "gaussian"
      std: 0.01
    }
    bias_filler {
      type: "constant"
      value: 0
    }
  }
}
layer {
  name: "ip2"
  type: "Sigmoid"
  bottom: "ip1"
  top: "ip2"
}
layer {
  name: "fc8_oxford102_hash"
  type: "InnerProduct"
  bottom: "ip2"
  top: "fc8_oxford102_hash"
  param {
    lr_mult: 10
    decay_mult: 1
  }
  param {
    lr_mult: 20
    decay_mult: 0
  }
  inner_product_param {
    num_output: 102
    weight_filler {
      type: "gaussian"
      std: 0.01
    }
    bias_filler {
      type: "constant"
      value: 0
    }
  }
}
layer {
  name: "loss"
  type: "SoftmaxWithLoss"
  bottom: "fc8_oxford102_hash"
  bottom: "label"
}
layer {
  name: "accuracy"
  type: "Accuracy"
  bottom: "fc8_oxford102_hash"
  bottom: "label"
  top: "accuracy"
  include {
    phase: TEST
  }
}
I0125 10:03:09.593400 15912 layer_factory.hpp:76] Creating layer data
I0125 10:03:09.593420 15912 net.cpp:106] Creating Layer data
I0125 10:03:09.593428 15912 net.cpp:411] data -> data
I0125 10:03:09.593441 15912 net.cpp:411] data -> label
I0125 10:03:09.593453 15912 data_transformer.cpp:25] Loading mean file from: /home/dl/caffe-master/models/bvlc_reference_caffenet/imagenet_mean.binaryproto
I0125 10:03:09.595800 15912 image_data_layer.cpp:36] Opening file /home/dl/caffe-master/data/oxford102/train.txt
I0125 10:03:09.596369 15912 image_data_layer.cpp:51] A total of 1020 images.
I0125 10:03:09.600970 15912 image_data_layer.cpp:78] output data size: 50,3,224,224
I0125 10:03:09.655516 15912 net.cpp:150] Setting up data
I0125 10:03:09.655555 15912 net.cpp:157] Top shape: 50 3 224 224 (7526400)
I0125 10:03:09.655565 15912 net.cpp:157] Top shape: 50 (50)
I0125 10:03:09.655571 15912 net.cpp:165] Memory required for data: 30105800
I0125 10:03:09.655581 15912 layer_factory.hpp:76] Creating layer label_data_1_split
I0125 10:03:09.655604 15912 net.cpp:106] Creating Layer label_data_1_split
I0125 10:03:09.655612 15912 net.cpp:454] label_data_1_split <- label
I0125 10:03:09.655623 15912 net.cpp:411] label_data_1_split -> label_data_1_split_0
I0125 10:03:09.655642 15912 net.cpp:411] label_data_1_split -> label_data_1_split_1
I0125 10:03:09.655750 15912 net.cpp:150] Setting up label_data_1_split
I0125 10:03:09.655766 15912 net.cpp:157] Top shape: 50 (50)
I0125 10:03:09.655773 15912 net.cpp:157] Top shape: 50 (50)
I0125 10:03:09.655778 15912 net.cpp:165] Memory required for data: 30106200
I0125 10:03:09.655784 15912 layer_factory.hpp:76] Creating layer conv1
I0125 10:03:09.655800 15912 net.cpp:106] Creating Layer conv1
I0125 10:03:09.655809 15912 net.cpp:454] conv1 <- data
I0125 10:03:09.655819 15912 net.cpp:411] conv1 -> conv1
I0125 10:03:09.657752 15912 cudnn_conv_layer.cpp:194] Reallocating workspace storage: 213876
I0125 10:03:09.657796 15912 net.cpp:150] Setting up conv1
I0125 10:03:09.657809 15912 net.cpp:157] Top shape: 50 96 109 109 (57028800)
I0125 10:03:09.657814 15912 net.cpp:165] Memory required for data: 258221400
I0125 10:03:09.657835 15912 layer_factory.hpp:76] Creating layer relu1
I0125 10:03:09.657846 15912 net.cpp:106] Creating Layer relu1
I0125 10:03:09.657853 15912 net.cpp:454] relu1 <- conv1
I0125 10:03:09.657861 15912 net.cpp:397] relu1 -> conv1 (in-place)
I0125 10:03:09.658053 15912 net.cpp:150] Setting up relu1
I0125 10:03:09.658069 15912 net.cpp:157] Top shape: 50 96 109 109 (57028800)
I0125 10:03:09.658076 15912 net.cpp:165] Memory required for data: 486336600
I0125 10:03:09.658107 15912 layer_factory.hpp:76] Creating layer norm1
I0125 10:03:09.658123 15912 net.cpp:106] Creating Layer norm1
I0125 10:03:09.658131 15912 net.cpp:454] norm1 <- conv1
I0125 10:03:09.658140 15912 net.cpp:411] norm1 -> norm1
I0125 10:03:09.658501 15912 net.cpp:150] Setting up norm1
I0125 10:03:09.658519 15912 net.cpp:157] Top shape: 50 96 109 109 (57028800)
I0125 10:03:09.658524 15912 net.cpp:165] Memory required for data: 714451800
I0125 10:03:09.658530 15912 layer_factory.hpp:76] Creating layer pool1
I0125 10:03:09.658541 15912 net.cpp:106] Creating Layer pool1
I0125 10:03:09.658547 15912 net.cpp:454] pool1 <- norm1
I0125 10:03:09.658555 15912 net.cpp:411] pool1 -> pool1
I0125 10:03:09.658777 15912 net.cpp:150] Setting up pool1
I0125 10:03:09.658792 15912 net.cpp:157] Top shape: 50 96 37 37 (6571200)
I0125 10:03:09.658798 15912 net.cpp:165] Memory required for data: 740736600
I0125 10:03:09.658809 15912 layer_factory.hpp:76] Creating layer conv2
I0125 10:03:09.658821 15912 net.cpp:106] Creating Layer conv2
I0125 10:03:09.658828 15912 net.cpp:454] conv2 <- pool1
I0125 10:03:09.658838 15912 net.cpp:411] conv2 -> conv2
I0125 10:03:09.683013 15912 cudnn_conv_layer.cpp:194] Reallocating workspace storage: 21972
I0125 10:03:09.683054 15912 net.cpp:150] Setting up conv2
I0125 10:03:09.683068 15912 net.cpp:157] Top shape: 50 256 33 33 (13939200)
I0125 10:03:09.683074 15912 net.cpp:165] Memory required for data: 796493400
I0125 10:03:09.683095 15912 layer_factory.hpp:76] Creating layer relu2
I0125 10:03:09.683109 15912 net.cpp:106] Creating Layer relu2
I0125 10:03:09.683151 15912 net.cpp:454] relu2 <- conv2
I0125 10:03:09.683182 15912 net.cpp:397] relu2 -> conv2 (in-place)
I0125 10:03:09.683543 15912 net.cpp:150] Setting up relu2
I0125 10:03:09.683562 15912 net.cpp:157] Top shape: 50 256 33 33 (13939200)
I0125 10:03:09.683568 15912 net.cpp:165] Memory required for data: 852250200
I0125 10:03:09.683574 15912 layer_factory.hpp:76] Creating layer pool2
I0125 10:03:09.683588 15912 net.cpp:106] Creating Layer pool2
I0125 10:03:09.683594 15912 net.cpp:454] pool2 <- conv2
I0125 10:03:09.683604 15912 net.cpp:411] pool2 -> pool2
I0125 10:03:09.683861 15912 net.cpp:150] Setting up pool2
I0125 10:03:09.683877 15912 net.cpp:157] Top shape: 50 256 17 17 (3699200)
I0125 10:03:09.683884 15912 net.cpp:165] Memory required for data: 867047000
I0125 10:03:09.683890 15912 layer_factory.hpp:76] Creating layer conv3
I0125 10:03:09.683904 15912 net.cpp:106] Creating Layer conv3
I0125 10:03:09.683912 15912 net.cpp:454] conv3 <- pool2
I0125 10:03:09.683920 15912 net.cpp:411] conv3 -> conv3
I0125 10:03:09.729171 15912 cudnn_conv_layer.cpp:194] Reallocating workspace storage: 11748
I0125 10:03:09.729223 15912 net.cpp:150] Setting up conv3
I0125 10:03:09.729236 15912 net.cpp:157] Top shape: 50 512 17 17 (7398400)
I0125 10:03:09.729243 15912 net.cpp:165] Memory required for data: 896640600
I0125 10:03:09.729262 15912 layer_factory.hpp:76] Creating layer relu3
I0125 10:03:09.729308 15912 net.cpp:106] Creating Layer relu3
I0125 10:03:09.729341 15912 net.cpp:454] relu3 <- conv3
I0125 10:03:09.729372 15912 net.cpp:397] relu3 -> conv3 (in-place)
I0125 10:03:09.729735 15912 net.cpp:150] Setting up relu3
I0125 10:03:09.729754 15912 net.cpp:157] Top shape: 50 512 17 17 (7398400)
I0125 10:03:09.729760 15912 net.cpp:165] Memory required for data: 926234200
I0125 10:03:09.729766 15912 layer_factory.hpp:76] Creating layer conv4
I0125 10:03:09.729780 15912 net.cpp:106] Creating Layer conv4
I0125 10:03:09.729811 15912 net.cpp:454] conv4 <- conv3
I0125 10:03:09.729842 15912 net.cpp:411] conv4 -> conv4
I0125 10:03:09.818979 15912 cudnn_conv_layer.cpp:194] Reallocating workspace storage: 11748
I0125 10:03:09.819031 15912 net.cpp:150] Setting up conv4
I0125 10:03:09.819044 15912 net.cpp:157] Top shape: 50 512 17 17 (7398400)
I0125 10:03:09.819051 15912 net.cpp:165] Memory required for data: 955827800
I0125 10:03:09.819063 15912 layer_factory.hpp:76] Creating layer relu4
I0125 10:03:09.819078 15912 net.cpp:106] Creating Layer relu4
I0125 10:03:09.819130 15912 net.cpp:454] relu4 <- conv4
I0125 10:03:09.819159 15912 net.cpp:397] relu4 -> conv4 (in-place)
I0125 10:03:09.819495 15912 net.cpp:150] Setting up relu4
I0125 10:03:09.819512 15912 net.cpp:157] Top shape: 50 512 17 17 (7398400)
I0125 10:03:09.819519 15912 net.cpp:165] Memory required for data: 985421400
I0125 10:03:09.819525 15912 layer_factory.hpp:76] Creating layer conv5
I0125 10:03:09.819538 15912 net.cpp:106] Creating Layer conv5
I0125 10:03:09.819545 15912 net.cpp:454] conv5 <- conv4
I0125 10:03:09.819555 15912 net.cpp:411] conv5 -> conv5
I0125 10:03:09.912211 15912 cudnn_conv_layer.cpp:194] Reallocating workspace storage: 11748
I0125 10:03:09.912267 15912 net.cpp:150] Setting up conv5
I0125 10:03:09.912281 15912 net.cpp:157] Top shape: 50 512 17 17 (7398400)
I0125 10:03:09.912287 15912 net.cpp:165] Memory required for data: 1015015000
I0125 10:03:09.912308 15912 layer_factory.hpp:76] Creating layer relu5
I0125 10:03:09.912322 15912 net.cpp:106] Creating Layer relu5
I0125 10:03:09.912330 15912 net.cpp:454] relu5 <- conv5
I0125 10:03:09.912340 15912 net.cpp:397] relu5 -> conv5 (in-place)
I0125 10:03:09.912534 15912 net.cpp:150] Setting up relu5
I0125 10:03:09.912550 15912 net.cpp:157] Top shape: 50 512 17 17 (7398400)
I0125 10:03:09.912556 15912 net.cpp:165] Memory required for data: 1044608600
I0125 10:03:09.912562 15912 layer_factory.hpp:76] Creating layer pool5
I0125 10:03:09.912574 15912 net.cpp:106] Creating Layer pool5
I0125 10:03:09.912580 15912 net.cpp:454] pool5 <- conv5
I0125 10:03:09.912587 15912 net.cpp:411] pool5 -> pool5
I0125 10:03:09.912956 15912 net.cpp:150] Setting up pool5
I0125 10:03:09.912974 15912 net.cpp:157] Top shape: 50 512 6 6 (921600)
I0125 10:03:09.912979 15912 net.cpp:165] Memory required for data: 1048295000
I0125 10:03:09.912986 15912 layer_factory.hpp:76] Creating layer fc6
I0125 10:03:09.912999 15912 net.cpp:106] Creating Layer fc6
I0125 10:03:09.913007 15912 net.cpp:454] fc6 <- pool5
I0125 10:03:09.913014 15912 net.cpp:411] fc6 -> fc6
I0125 10:03:10.082363 15912 net.cpp:150] Setting up fc6
I0125 10:03:10.082409 15912 net.cpp:157] Top shape: 50 4096 (204800)
I0125 10:03:10.082417 15912 net.cpp:165] Memory required for data: 1049114200
I0125 10:03:10.082432 15912 layer_factory.hpp:76] Creating layer relu6
I0125 10:03:10.082448 15912 net.cpp:106] Creating Layer relu6
I0125 10:03:10.082454 15912 net.cpp:454] relu6 <- fc6
I0125 10:03:10.082465 15912 net.cpp:397] relu6 -> fc6 (in-place)
I0125 10:03:10.082738 15912 net.cpp:150] Setting up relu6
I0125 10:03:10.082754 15912 net.cpp:157] Top shape: 50 4096 (204800)
I0125 10:03:10.082761 15912 net.cpp:165] Memory required for data: 1049933400
I0125 10:03:10.082767 15912 layer_factory.hpp:76] Creating layer drop6
I0125 10:03:10.082777 15912 net.cpp:106] Creating Layer drop6
I0125 10:03:10.082783 15912 net.cpp:454] drop6 <- fc6
I0125 10:03:10.082792 15912 net.cpp:397] drop6 -> fc6 (in-place)
I0125 10:03:10.082833 15912 net.cpp:150] Setting up drop6
I0125 10:03:10.082844 15912 net.cpp:157] Top shape: 50 4096 (204800)
I0125 10:03:10.082849 15912 net.cpp:165] Memory required for data: 1050752600
I0125 10:03:10.082855 15912 layer_factory.hpp:76] Creating layer fc7
I0125 10:03:10.082864 15912 net.cpp:106] Creating Layer fc7
I0125 10:03:10.082870 15912 net.cpp:454] fc7 <- fc6
I0125 10:03:10.082878 15912 net.cpp:411] fc7 -> fc7
I0125 10:03:10.120105 15912 net.cpp:150] Setting up fc7
I0125 10:03:10.120146 15912 net.cpp:157] Top shape: 50 4096 (204800)
I0125 10:03:10.120153 15912 net.cpp:165] Memory required for data: 1051571800
I0125 10:03:10.120168 15912 layer_factory.hpp:76] Creating layer relu7
I0125 10:03:10.120182 15912 net.cpp:106] Creating Layer relu7
I0125 10:03:10.120190 15912 net.cpp:454] relu7 <- fc7
I0125 10:03:10.120200 15912 net.cpp:397] relu7 -> fc7 (in-place)
I0125 10:03:10.120698 15912 net.cpp:150] Setting up relu7
I0125 10:03:10.120717 15912 net.cpp:157] Top shape: 50 4096 (204800)
I0125 10:03:10.120723 15912 net.cpp:165] Memory required for data: 1052391000
I0125 10:03:10.120728 15912 layer_factory.hpp:76] Creating layer drop7
I0125 10:03:10.120764 15912 net.cpp:106] Creating Layer drop7
I0125 10:03:10.120771 15912 net.cpp:454] drop7 <- fc7
I0125 10:03:10.120779 15912 net.cpp:397] drop7 -> fc7 (in-place)
I0125 10:03:10.120822 15912 net.cpp:150] Setting up drop7
I0125 10:03:10.120836 15912 net.cpp:157] Top shape: 50 4096 (204800)
I0125 10:03:10.120841 15912 net.cpp:165] Memory required for data: 1053210200
I0125 10:03:10.120846 15912 layer_factory.hpp:76] Creating layer ip1
I0125 10:03:10.120858 15912 net.cpp:106] Creating Layer ip1
I0125 10:03:10.120864 15912 net.cpp:454] ip1 <- fc7
I0125 10:03:10.120873 15912 net.cpp:411] ip1 -> ip1
I0125 10:03:10.124568 15912 net.cpp:150] Setting up ip1
I0125 10:03:10.124585 15912 net.cpp:157] Top shape: 50 24 (1200)
I0125 10:03:10.124591 15912 net.cpp:165] Memory required for data: 1053215000
I0125 10:03:10.124601 15912 layer_factory.hpp:76] Creating layer ip2
I0125 10:03:10.124611 15912 net.cpp:106] Creating Layer ip2
I0125 10:03:10.124617 15912 net.cpp:454] ip2 <- ip1
I0125 10:03:10.124625 15912 net.cpp:411] ip2 -> ip2
I0125 10:03:10.124852 15912 net.cpp:150] Setting up ip2
I0125 10:03:10.124869 15912 net.cpp:157] Top shape: 50 24 (1200)
I0125 10:03:10.124876 15912 net.cpp:165] Memory required for data: 1053219800
I0125 10:03:10.124881 15912 layer_factory.hpp:76] Creating layer fc8_oxford102_hash
I0125 10:03:10.124891 15912 net.cpp:106] Creating Layer fc8_oxford102_hash
I0125 10:03:10.124898 15912 net.cpp:454] fc8_oxford102_hash <- ip2
I0125 10:03:10.124907 15912 net.cpp:411] fc8_oxford102_hash -> fc8_oxford102_hash
I0125 10:03:10.125128 15912 net.cpp:150] Setting up fc8_oxford102_hash
I0125 10:03:10.125141 15912 net.cpp:157] Top shape: 50 102 (5100)
I0125 10:03:10.125146 15912 net.cpp:165] Memory required for data: 1053240200
I0125 10:03:10.125161 15912 layer_factory.hpp:76] Creating layer fc8_oxford102_hash_fc8_oxford102_hash_0_split
I0125 10:03:10.125172 15912 net.cpp:106] Creating Layer fc8_oxford102_hash_fc8_oxford102_hash_0_split
I0125 10:03:10.125181 15912 net.cpp:454] fc8_oxford102_hash_fc8_oxford102_hash_0_split <- fc8_oxford102_hash
I0125 10:03:10.125190 15912 net.cpp:411] fc8_oxford102_hash_fc8_oxford102_hash_0_split -> fc8_oxford102_hash_fc8_oxford102_hash_0_split_0
I0125 10:03:10.125200 15912 net.cpp:411] fc8_oxford102_hash_fc8_oxford102_hash_0_split -> fc8_oxford102_hash_fc8_oxford102_hash_0_split_1
I0125 10:03:10.125248 15912 net.cpp:150] Setting up fc8_oxford102_hash_fc8_oxford102_hash_0_split
I0125 10:03:10.125260 15912 net.cpp:157] Top shape: 50 102 (5100)
I0125 10:03:10.125267 15912 net.cpp:157] Top shape: 50 102 (5100)
I0125 10:03:10.125272 15912 net.cpp:165] Memory required for data: 1053281000
I0125 10:03:10.125278 15912 layer_factory.hpp:76] Creating layer loss
I0125 10:03:10.125286 15912 net.cpp:106] Creating Layer loss
I0125 10:03:10.125293 15912 net.cpp:454] loss <- fc8_oxford102_hash_fc8_oxford102_hash_0_split_0
I0125 10:03:10.125299 15912 net.cpp:454] loss <- label_data_1_split_0
I0125 10:03:10.125308 15912 net.cpp:411] loss -> (automatic)
…
