…
I0125 19:11:21.821069 18372 net.cpp:322] The NetState phase (0) differed from the phase (1) specified by a rule in layer mnist
I0125 19:11:21.821099 18372 net.cpp:322] The NetState phase (0) differed from the phase (1) specified by a rule in layer accuracy
I0125 19:11:21.821221 18372 net.cpp:49] Initializing net from parameters: 
name: "LeNet"
state {
  phase: TRAIN
}
layer {
  name: "mnist"
  type: "Data"
  top: "data"
  top: "label"
  include {
    phase: TRAIN
  }
  transform_param {
    scale: 0.00390625
  }
  data_param {
    source: "examples/A-mnist/mnist_train_lmdb"
    batch_size: 64
    backend: LMDB
  }
}
layer {
  name: "conv1"
  type: "Convolution"
  bottom: "data"
  top: "conv1"
  param {
    lr_mult: 1
  }
  param {
    lr_mult: 2
  }
  convolution_param {
    num_output: 20
    kernel_size: 5
    stride: 1
    weight_filler {
      type: "xavier"
    }
    bias_filler {
      type: "constant"
    }
  }
}
layer {
  name: "pool1"
  type: "Pooling"
  bottom: "conv1"
  top: "pool1"
  pooling_param {
    pool: MAX
    kernel_size: 2
    stride: 2
  }
}
layer {
  name: "conv2"
  type: "Convolution"
  bottom: "pool1"
  top: "conv2"
  param {
    lr_mult: 1
  }
  param {
    lr_mult: 2
  }
  convolution_param {
    num_output: 50
    kernel_size: 5
    stride: 1
    weight_filler {
      type: "xavier"
    }
    bias_filler {
      type: "constant"
    }
  }
}
layer {
  name: "pool2"
  type: "Pooling"
  bottom: "conv2"
  top: "pool2"
  pooling_param {
    pool: MAX
    kernel_size: 2
    stride: 2
  }
}
layer {
  name: "ip1"
  type: "InnerProduct"
  bottom: "pool2"
  top: "ip1"
  param {
    lr_mult: 1
  }
  param {
    lr_mult: 2
  }
  inner_product_param {
    num_output: 500
    weight_filler {
      type: "xavier"
    }
    bias_filler {
      type: "constant"
    }
  }
}
layer {
  name: "relu1"
  type: "ReLU"
  bottom: "ip1"
  top: "ip1"
}
layer {
  name: "ip2_sig"
  type: "InnerProduct"
  bottom: "ip1"
  top: "ip2_sig"
  param {
    lr_mult: 1
  }
  param {
    lr_mult: 2
  }
  inner_product_param {
    num_output: 48
    weight_filler {
      type: "xavier"
    }
    bias_filler {
      type: "constant"
    }
  }
}
layer {
  name: "ip2_hash"
  type: "Sigmoid"
  bottom: "ip2_sig"
  top: "ip2_hash"
}
layer {
  name: "ip3"
  type: "InnerProduct"
  bottom: "ip2_hash"
  top: "ip3"
  param {
    lr_mult: 1
  }
  param {
    lr_mult: 2
  }
  inner_product_param {
    num_output: 10
    weight_filler {
      type: "xavier"
    }
    bias_filler {
      type: "constant"
    }
  }
}
layer {
  name: "loss"
  type: "SoftmaxWithLoss"
  bottom: "ip3"
  bottom: "label"
  top: "loss"
}
I0125 19:11:21.821328 18372 layer_factory.hpp:76] Creating layer mnist
I0125 19:11:21.821985 18372 net.cpp:106] Creating Layer mnist
I0125 19:11:21.822013 18372 net.cpp:411] mnist -> data
I0125 19:11:21.822054 18372 net.cpp:411] mnist -> label
I0125 19:11:21.823598 18378 db_lmdb.cpp:38] Opened lmdb examples/A-mnist/mnist_train_lmdb
I0125 19:11:21.833770 18372 data_layer.cpp:41] output data size: 64,1,28,28
I0125 19:11:21.835134 18372 net.cpp:150] Setting up mnist
I0125 19:11:21.835186 18372 net.cpp:157] Top shape: 64 1 28 28 (50176)
I0125 19:11:21.835199 18372 net.cpp:157] Top shape: 64 (64)
I0125 19:11:21.835206 18372 net.cpp:165] Memory required for data: 200960
I0125 19:11:21.835291 18372 layer_factory.hpp:76] Creating layer conv1
I0125 19:11:21.835330 18372 net.cpp:106] Creating Layer conv1
I0125 19:11:21.835342 18372 net.cpp:454] conv1 <- data
I0125 19:11:21.835366 18372 net.cpp:411] conv1 -> conv1
I0125 19:11:21.993584 18372 cudnn_conv_layer.cpp:194] Reallocating workspace storage: 20664
I0125 19:11:21.993688 18372 net.cpp:150] Setting up conv1
I0125 19:11:21.993708 18372 net.cpp:157] Top shape: 64 20 24 24 (737280)
I0125 19:11:21.993715 18372 net.cpp:165] Memory required for data: 3150080
I0125 19:11:21.993746 18372 layer_factory.hpp:76] Creating layer pool1
I0125 19:11:21.993769 18372 net.cpp:106] Creating Layer pool1
I0125 19:11:21.993778 18372 net.cpp:454] pool1 <- conv1
I0125 19:11:21.993789 18372 net.cpp:411] pool1 -> pool1
I0125 19:11:21.994034 18372 net.cpp:150] Setting up pool1
I0125 19:11:21.994048 18372 net.cpp:157] Top shape: 64 20 12 12 (184320)
I0125 19:11:21.994055 18372 net.cpp:165] Memory required for data: 3887360
I0125 19:11:21.994060 18372 layer_factory.hpp:76] Creating layer conv2
I0125 19:11:21.994076 18372 net.cpp:106] Creating Layer conv2
I0125 19:11:21.994082 18372 net.cpp:454] conv2 <- pool1
I0125 19:11:21.994091 18372 net.cpp:411] conv2 -> conv2
I0125 19:11:21.995342 18372 cudnn_conv_layer.cpp:194] Reallocating workspace storage: 10272
I0125 19:11:21.995499 18372 net.cpp:150] Setting up conv2
I0125 19:11:21.995517 18372 net.cpp:157] Top shape: 64 50 8 8 (204800)
I0125 19:11:21.995522 18372 net.cpp:165] Memory required for data: 4706560
I0125 19:11:21.995537 18372 layer_factory.hpp:76] Creating layer pool2
I0125 19:11:21.995549 18372 net.cpp:106] Creating Layer pool2
I0125 19:11:21.995558 18372 net.cpp:454] pool2 <- conv2
I0125 19:11:21.995565 18372 net.cpp:411] pool2 -> pool2
I0125 19:11:21.995936 18372 net.cpp:150] Setting up pool2
I0125 19:11:21.995954 18372 net.cpp:157] Top shape: 64 50 4 4 (51200)
I0125 19:11:21.995959 18372 net.cpp:165] Memory required for data: 4911360
I0125 19:11:21.995965 18372 layer_factory.hpp:76] Creating layer ip1
I0125 19:11:21.995982 18372 net.cpp:106] Creating Layer ip1
I0125 19:11:21.995990 18372 net.cpp:454] ip1 <- pool2
I0125 19:11:21.995998 18372 net.cpp:411] ip1 -> ip1
I0125 19:11:21.999994 18372 net.cpp:150] Setting up ip1
I0125 19:11:22.000012 18372 net.cpp:157] Top shape: 64 500 (32000)
I0125 19:11:22.000018 18372 net.cpp:165] Memory required for data: 5039360
I0125 19:11:22.000031 18372 layer_factory.hpp:76] Creating layer relu1
I0125 19:11:22.000044 18372 net.cpp:106] Creating Layer relu1
I0125 19:11:22.000051 18372 net.cpp:454] relu1 <- ip1
I0125 19:11:22.000058 18372 net.cpp:397] relu1 -> ip1 (in-place)
I0125 19:11:22.000267 18372 net.cpp:150] Setting up relu1
I0125 19:11:22.000283 18372 net.cpp:157] Top shape: 64 500 (32000)
I0125 19:11:22.000288 18372 net.cpp:165] Memory required for data: 5167360
I0125 19:11:22.000293 18372 layer_factory.hpp:76] Creating layer ip2_sig
I0125 19:11:22.000306 18372 net.cpp:106] Creating Layer ip2_sig
I0125 19:11:22.000313 18372 net.cpp:454] ip2_sig <- ip1
I0125 19:11:22.000326 18372 net.cpp:411] ip2_sig -> ip2_sig
I0125 19:11:22.000660 18372 net.cpp:150] Setting up ip2_sig
I0125 19:11:22.000674 18372 net.cpp:157] Top shape: 64 48 (3072)
I0125 19:11:22.000680 18372 net.cpp:165] Memory required for data: 5179648
I0125 19:11:22.000689 18372 layer_factory.hpp:76] Creating layer ip2_hash
I0125 19:11:22.000700 18372 net.cpp:106] Creating Layer ip2_hash
I0125 19:11:22.000706 18372 net.cpp:454] ip2_hash <- ip2_sig
I0125 19:11:22.000715 18372 net.cpp:411] ip2_hash -> ip2_hash
I0125 19:11:22.001068 18372 net.cpp:150] Setting up ip2_hash
I0125 19:11:22.001086 18372 net.cpp:157] Top shape: 64 48 (3072)
I0125 19:11:22.001091 18372 net.cpp:165] Memory required for data: 5191936
I0125 19:11:22.001097 18372 layer_factory.hpp:76] Creating layer ip3
I0125 19:11:22.001109 18372 net.cpp:106] Creating Layer ip3
I0125 19:11:22.001116 18372 net.cpp:454] ip3 <- ip2_hash
I0125 19:11:22.001126 18372 net.cpp:411] ip3 -> ip3
I0125 19:11:22.001255 18372 net.cpp:150] Setting up ip3
I0125 19:11:22.001267 18372 net.cpp:157] Top shape: 64 10 (640)
I0125 19:11:22.001273 18372 net.cpp:165] Memory required for data: 5194496
I0125 19:11:22.001286 18372 layer_factory.hpp:76] Creating layer loss
I0125 19:11:22.001302 18372 net.cpp:106] Creating Layer loss
I0125 19:11:22.001310 18372 net.cpp:454] loss <- ip3
I0125 19:11:22.001335 18372 net.cpp:454] loss <- label
I0125 19:11:22.001346 18372 net.cpp:411] loss -> loss
I0125 19:11:22.001368 18372 layer_factory.hpp:76] Creating layer loss
…
I0125 19:11:22.002285 18372 solver.cpp:180] Creating test net (#0) specified by net file: examples/A-mnist/train_test.prototxt
I0125 19:11:22.002331 18372 net.cpp:322] The NetState phase (1) differed from the phase (0) specified by a rule in layer mnist
I0125 19:11:22.002475 18372 net.cpp:49] Initializing net from parameters: 
name: "LeNet"
state {
  phase: TEST
}
layer {
  name: "mnist"
  type: "Data"
  top: "data"
  top: "label"
  include {
    phase: TEST
  }
  transform_param {
    scale: 0.00390625
  }
  data_param {
    source: "examples/A-mnist/mnist_test_lmdb"
    batch_size: 100
    backend: LMDB
  }
}
layer {
  name: "conv1"
  type: "Convolution"
  bottom: "data"
  top: "conv1"
  param {
    lr_mult: 1
  }
  param {
    lr_mult: 2
  }
  convolution_param {
    num_output: 20
    kernel_size: 5
    stride: 1
    weight_filler {
      type: "xavier"
    }
    bias_filler {
      type: "constant"
    }
  }
}
layer {
  name: "pool1"
  type: "Pooling"
  bottom: "conv1"
  top: "pool1"
  pooling_param {
    pool: MAX
    kernel_size: 2
    stride: 2
  }
}
layer {
  name: "conv2"
  type: "Convolution"
  bottom: "pool1"
  top: "conv2"
  param {
    lr_mult: 1
  }
  param {
    lr_mult: 2
  }
  convolution_param {
    num_output: 50
    kernel_size: 5
    stride: 1
    weight_filler {
      type: "xavier"
    }
    bias_filler {
      type: "constant"
    }
  }
}
layer {
  name: "pool2"
  type: "Pooling"
  bottom: "conv2"
  top: "pool2"
  pooling_param {
    pool: MAX
    kernel_size: 2
    stride: 2
  }
}
layer {
  name: "ip1"
  type: "InnerProduct"
  bottom: "pool2"
  top: "ip1"
  param {
    lr_mult: 1
  }
  param {
    lr_mult: 2
  }
  inner_product_param {
    num_output: 500
    weight_filler {
      type: "xavier"
    }
    bias_filler {
      type: "constant"
    }
  }
}
layer {
  name: "relu1"
  type: "ReLU"
  bottom: "ip1"
  top: "ip1"
}
layer {
  name: "ip2_sig"
  type: "InnerProduct"
  bottom: "ip1"
  top: "ip2_sig"
  param {
    lr_mult: 1
  }
  param {
    lr_mult: 2
  }
  inner_product_param {
    num_output: 48
    weight_filler {
      type: "xavier"
    }
    bias_filler {
      type: "constant"
    }
  }
}
layer {
  name: "ip2_hash"
  type: "Sigmoid"
  bottom: "ip2_sig"
  top: "ip2_hash"
}
layer {
  name: "ip3"
  type: "InnerProduct"
  bottom: "ip2_hash"
  top: "ip3"
  param {
    lr_mult: 1
  }
  param {
    lr_mult: 2
  }
  inner_product_param {
    num_output: 10
    weight_filler {
      type: "xavier"
    }
    bias_filler {
      type: "constant"
    }
  }
}
layer {
  name: "accuracy"
  type: "Accuracy"
  bottom: "ip3"
  bottom: "label"
  top: "accuracy"
  include {
    phase: TEST
  }
}
layer {
  name: "loss"
  type: "SoftmaxWithLoss"
  bottom: "ip3"
  bottom: "label"
  top: "loss"
}
I0125 19:11:22.002599 18372 layer_factory.hpp:76] Creating layer mnist
I0125 19:11:22.002743 18372 net.cpp:106] Creating Layer mnist
I0125 19:11:22.002756 18372 net.cpp:411] mnist -> data
I0125 19:11:22.002780 18372 net.cpp:411] mnist -> label
I0125 19:11:22.003767 18380 db_lmdb.cpp:38] Opened lmdb examples/A-mnist/mnist_test_lmdb
I0125 19:11:22.003895 18372 data_layer.cpp:41] output data size: 100,1,28,28
I0125 19:11:22.005031 18372 net.cpp:150] Setting up mnist
I0125 19:11:22.005049 18372 net.cpp:157] Top shape: 100 1 28 28 (78400)
I0125 19:11:22.005058 18372 net.cpp:157] Top shape: 100 (100)
I0125 19:11:22.005062 18372 net.cpp:165] Memory required for data: 314000
I0125 19:11:22.005069 18372 layer_factory.hpp:76] Creating layer label_mnist_1_split
I0125 19:11:22.005084 18372 net.cpp:106] Creating Layer label_mnist_1_split
I0125 19:11:22.005091 18372 net.cpp:454] label_mnist_1_split <- label
I0125 19:11:22.005100 18372 net.cpp:411] label_mnist_1_split -> label_mnist_1_split_0
I0125 19:11:22.005110 18372 net.cpp:411] label_mnist_1_split -> label_mnist_1_split_1
I0125 19:11:22.005170 18372 net.cpp:150] Setting up label_mnist_1_split
I0125 19:11:22.005183 18372 net.cpp:157] Top shape: 100 (100)
I0125 19:11:22.005189 18372 net.cpp:157] Top shape: 100 (100)
I0125 19:11:22.005194 18372 net.cpp:165] Memory required for data: 314800
I0125 19:11:22.005199 18372 layer_factory.hpp:76] Creating layer conv1
I0125 19:11:22.005214 18372 net.cpp:106] Creating Layer conv1
I0125 19:11:22.005223 18372 net.cpp:454] conv1 <- data
I0125 19:11:22.005234 18372 net.cpp:411] conv1 -> conv1
I0125 19:11:22.006567 18372 cudnn_conv_layer.cpp:194] Reallocating workspace storage: 20664
I0125 19:11:22.006656 18372 net.cpp:150] Setting up conv1
I0125 19:11:22.006687 18372 net.cpp:157] Top shape: 100 20 24 24 (1152000)
I0125 19:11:22.006695 18372 net.cpp:165] Memory required for data: 4922800
I0125 19:11:22.006711 18372 layer_factory.hpp:76] Creating layer pool1
I0125 19:11:22.006726 18372 net.cpp:106] Creating Layer pool1
I0125 19:11:22.006736 18372 net.cpp:454] pool1 <- conv1
I0125 19:11:22.006747 18372 net.cpp:411] pool1 -> pool1
I0125 19:11:22.007169 18372 net.cpp:150] Setting up pool1
I0125 19:11:22.007189 18372 net.cpp:157] Top shape: 100 20 12 12 (288000)
I0125 19:11:22.007195 18372 net.cpp:165] Memory required for data: 6074800
I0125 19:11:22.007202 18372 layer_factory.hpp:76] Creating layer conv2
I0125 19:11:22.007217 18372 net.cpp:106] Creating Layer conv2
I0125 19:11:22.007228 18372 net.cpp:454] conv2 <- pool1
I0125 19:11:22.007251 18372 net.cpp:411] conv2 -> conv2
I0125 19:11:22.008570 18372 cudnn_conv_layer.cpp:194] Reallocating workspace storage: 10272
I0125 19:11:22.008651 18372 net.cpp:150] Setting up conv2
I0125 19:11:22.008671 18372 net.cpp:157] Top shape: 100 50 8 8 (320000)
I0125 19:11:22.008678 18372 net.cpp:165] Memory required for data: 7354800
I0125 19:11:22.008693 18372 layer_factory.hpp:76] Creating layer pool2
I0125 19:11:22.008703 18372 net.cpp:106] Creating Layer pool2
I0125 19:11:22.008713 18372 net.cpp:454] pool2 <- conv2
I0125 19:11:22.008725 18372 net.cpp:411] pool2 -> pool2
I0125 19:11:22.009181 18372 net.cpp:150] Setting up pool2
I0125 19:11:22.009202 18372 net.cpp:157] Top shape: 100 50 4 4 (80000)
I0125 19:11:22.009207 18372 net.cpp:165] Memory required for data: 7674800
I0125 19:11:22.009213 18372 layer_factory.hpp:76] Creating layer ip1
I0125 19:11:22.009227 18372 net.cpp:106] Creating Layer ip1
I0125 19:11:22.009238 18372 net.cpp:454] ip1 <- pool2
I0125 19:11:22.009248 18372 net.cpp:411] ip1 -> ip1
I0125 19:11:22.014335 18372 net.cpp:150] Setting up ip1
I0125 19:11:22.014358 18372 net.cpp:157] Top shape: 100 500 (50000)
I0125 19:11:22.014365 18372 net.cpp:165] Memory required for data: 7874800
I0125 19:11:22.014381 18372 layer_factory.hpp:76] Creating layer relu1
I0125 19:11:22.014394 18372 net.cpp:106] Creating Layer relu1
I0125 19:11:22.014405 18372 net.cpp:454] relu1 <- ip1
I0125 19:11:22.014417 18372 net.cpp:397] relu1 -> ip1 (in-place)
I0125 19:11:22.014955 18372 net.cpp:150] Setting up relu1
I0125 19:11:22.015022 18372 net.cpp:157] Top shape: 100 500 (50000)
I0125 19:11:22.015038 18372 net.cpp:165] Memory required for data: 8074800
I0125 19:11:22.015050 18372 layer_factory.hpp:76] Creating layer ip2_sig
I0125 19:11:22.015081 18372 net.cpp:106] Creating Layer ip2_sig
I0125 19:11:22.015095 18372 net.cpp:454] ip2_sig <- ip1
I0125 19:11:22.015115 18372 net.cpp:411] ip2_sig -> ip2_sig
I0125 19:11:22.015820 18372 net.cpp:150] Setting up ip2_sig
I0125 19:11:22.015854 18372 net.cpp:157] Top shape: 100 48 (4800)
I0125 19:11:22.015866 18372 net.cpp:165] Memory required for data: 8094000
I0125 19:11:22.015887 18372 layer_factory.hpp:76] Creating layer ip2_hash
I0125 19:11:22.015907 18372 net.cpp:106] Creating Layer ip2_hash
I0125 19:11:22.015918 18372 net.cpp:454] ip2_hash <- ip2_sig
I0125 19:11:22.015933 18372 net.cpp:411] ip2_hash -> ip2_hash
I0125 19:11:22.016402 18372 net.cpp:150] Setting up ip2_hash
I0125 19:11:22.016435 18372 net.cpp:157] Top shape: 100 48 (4800)
I0125 19:11:22.016448 18372 net.cpp:165] Memory required for data: 8113200
I0125 19:11:22.016459 18372 layer_factory.hpp:76] Creating layer ip3
I0125 19:11:22.016479 18372 net.cpp:106] Creating Layer ip3
I0125 19:11:22.016492 18372 net.cpp:454] ip3 <- ip2_hash
I0125 19:11:22.016515 18372 net.cpp:411] ip3 -> ip3
I0125 19:11:22.016799 18372 net.cpp:150] Setting up ip3
I0125 19:11:22.016827 18372 net.cpp:157] Top shape: 100 10 (1000)
I0125 19:11:22.016839 18372 net.cpp:165] Memory required for data: 8117200
I0125 19:11:22.016865 18372 layer_factory.hpp:76] Creating layer ip3_ip3_0_split
I0125 19:11:22.016883 18372 net.cpp:106] Creating Layer ip3_ip3_0_split
I0125 19:11:22.016901 18372 net.cpp:454] ip3_ip3_0_split <- ip3
I0125 19:11:22.016916 18372 net.cpp:411] ip3_ip3_0_split -> ip3_ip3_0_split_0
I0125 19:11:22.016937 18372 net.cpp:411] ip3_ip3_0_split -> ip3_ip3_0_split_1
I0125 19:11:22.017032 18372 net.cpp:150] Setting up ip3_ip3_0_split
I0125 19:11:22.017058 18372 net.cpp:157] Top shape: 100 10 (1000)
I0125 19:11:22.017072 18372 net.cpp:157] Top shape: 100 10 (1000)
I0125 19:11:22.017082 18372 net.cpp:165] Memory required for data: 8125200
I0125 19:11:22.017094 18372 layer_factory.hpp:76] Creating layer accuracy
I0125 19:11:22.017118 18372 net.cpp:106] Creating Layer accuracy
I0125 19:11:22.017137 18372 net.cpp:454] accuracy <- ip3_ip3_0_split_0
I0125 19:11:22.017151 18372 net.cpp:454] accuracy <- label_mnist_1_split_0
I0125 19:11:22.017171 18372 net.cpp:411] accuracy -> accuracy
…
