…
I0118 16:54:53.546329 10636 net.cpp:322] The NetState phase (0) differed from the phase (1) specified by a rule in layer accuracy
I0118 16:54:53.546552 10636 net.cpp:49] Initializing net from parameters: 
name: "Oxford102_VGG_CNN_S"
state {
  phase: TRAIN
}
layer {
  name: "data"
  type: "ImageData"
  top: "data"
  top: "label"
  include {
    phase: TRAIN
  }
  transform_param {
    mirror: true
    crop_size: 224
    mean_file: "/home/dl/caffe-master/models/bvlc_reference_caffenet/imagenet_mean.binaryproto"
  }
  image_data_param {
    source: "/home/dl/caffe-master/data/oxford102/test.txt"
    batch_size: 50
    new_height: 256
    new_width: 256
  }
}
layer {
  name: "conv1"
  type: "Convolution"
  bottom: "data"
  top: "conv1"
  param {
    lr_mult: 1
    decay_mult: 1
  }
  param {
    lr_mult: 2
    decay_mult: 0
  }
  convolution_param {
    num_output: 96
    kernel_size: 7
    stride: 2
    weight_filler {
      type: "gaussian"
      std: 0.01
    }
    bias_filler {
      type: "constant"
      value: 0
    }
  }
}
layer {
  name: "relu1"
  type: "ReLU"
  bottom: "conv1"
  top: "conv1"
}
layer {
  name: "norm1"
  type: "LRN"
  bottom: "conv1"
  top: "norm1"
  lrn_param {
    local_size: 5
    alpha: 0.0005
    beta: 0.75
    k: 2
  }
}
layer {
  name: "pool1"
  type: "Pooling"
  bottom: "norm1"
  top: "pool1"
  pooling_param {
    pool: MAX
    kernel_size: 3
    stride: 3
  }
}
layer {
  name: "conv2"
  type: "Convolution"
  bottom: "pool1"
  top: "conv2"
  param {
    lr_mult: 1
    decay_mult: 1
  }
  param {
    lr_mult: 2
    decay_mult: 0
  }
  convolution_param {
    num_output: 256
    kernel_size: 5
    weight_filler {
      type: "gaussian"
      std: 0.01
    }
    bias_filler {
      type: "constant"
      value: 1
    }
  }
}
layer {
  name: "relu2"
  type: "ReLU"
  bottom: "conv2"
  top: "conv2"
}
layer {
  name: "pool2"
  type: "Pooling"
  bottom: "conv2"
  top: "pool2"
  pooling_param {
    pool: MAX
    kernel_size: 2
    stride: 2
  }
}
layer {
  name: "conv3"
  type: "Convolution"
  bottom: "pool2"
  top: "conv3"
  param {
    lr_mult: 1
    decay_mult: 1
  }
  param {
    lr_mult: 2
    decay_mult: 0
  }
  convolution_param {
    num_output: 512
    pad: 1
    kernel_size: 3
    weight_filler {
      type: "gaussian"
      std: 0.01
    }
    bias_filler {
      type: "constant"
      value: 1
    }
  }
}
layer {
  name: "relu3"
  type: "ReLU"
  bottom: "conv3"
  top: "conv3"
}
layer {
  name: "conv4"
  type: "Convolution"
  bottom: "conv3"
  top: "conv4"
  param {
    lr_mult: 1
    decay_mult: 1
  }
  param {
    lr_mult: 2
    decay_mult: 0
  }
  convolution_param {
    num_output: 512
    pad: 1
    kernel_size: 3
    weight_filler {
      type: "gaussian"
      std: 0.01
    }
    bias_filler {
      type: "constant"
      value: 1
    }
  }
}
layer {
  name: "relu4"
  type: "ReLU"
  bottom: "conv4"
  top: "conv4"
}
layer {
  name: "conv5"
  type: "Convolution"
  bottom: "conv4"
  top: "conv5"
  param {
    lr_mult: 1
    decay_mult: 1
  }
  param {
    lr_mult: 2
    decay_mult: 0
  }
  convolution_param {
    num_output: 512
    pad: 1
    kernel_size: 3
    weight_filler {
      type: "gaussian"
      std: 0.005
    }
    bias_filler {
      type: "constant"
      value: 1
    }
  }
}
layer {
  name: "relu5"
  type: "ReLU"
  bottom: "conv5"
  top: "conv5"
}
layer {
  name: "pool5"
  type: "Pooling"
  bottom: "conv5"
  top: "pool5"
  pooling_param {
    pool: MAX
    kernel_size: 3
    stride: 3
  }
}
layer {
  name: "fc6"
  type: "InnerProduct"
  bottom: "pool5"
  top: "fc6"
  inner_product_param {
    num_output: 4096
  }
}
layer {
  name: "relu6"
  type: "ReLU"
  bottom: "fc6"
  top: "fc6"
}
layer {
  name: "drop6"
  type: "Dropout"
  bottom: "fc6"
  top: "fc6"
  dropout_param {
    dropout_ratio: 0.5
  }
}
layer {
  name: "fc7"
  type: "InnerProduct"
  bottom: "fc6"
  top: "fc7"
  inner_product_param {
    num_output: 4096
  }
}
layer {
  name: "relu7"
  type: "ReLU"
  bottom: "fc7"
  top: "fc7"
}
layer {
  name: "drop7"
  type: "Dropout"
  bottom: "fc7"
  top: "fc7"
  dropout_param {
    dropout_ratio: 0.5
  }
}
layer {
  name: "ip1"
  type: "InnerProduct"
  bottom: "fc7"
  top: "ip1"
  param {
    lr_mult: 1
    decay_mult: 1
  }
  param {
    lr_mult: 2
    decay_mult: 0
  }
  inner_product_param {
    num_output: 64
    weight_filler {
      type: "gaussian"
      std: 0.01
    }
    bias_filler {
      type: "constant"
      value: 0
    }
  }
}
layer {
  name: "ip2"
  type: "Sigmoid"
  bottom: "ip1"
  top: "ip2"
}
layer {
  name: "fc8_oxford102_hash"
  type: "InnerProduct"
  bottom: "ip2"
  top: "fc8_oxford102_hash"
  param {
    lr_mult: 10
    decay_mult: 1
  }
  param {
    lr_mult: 20
    decay_mult: 0
  }
  inner_product_param {
    num_output: 102
    weight_filler {
      type: "gaussian"
      std: 0.01
    }
    bias_filler {
      type: "constant"
      value: 0
    }
  }
}
layer {
  name: "loss"
  type: "SoftmaxWithLoss"
  bottom: "fc8_oxford102_hash"
  bottom: "label"
}
I0118 16:54:53.546718 10636 layer_factory.hpp:76] Creating layer data
I0118 16:54:53.546761 10636 net.cpp:106] Creating Layer data
I0118 16:54:53.546774 10636 net.cpp:411] data -> data
I0118 16:54:53.546803 10636 net.cpp:411] data -> label
I0118 16:54:53.546828 10636 data_transformer.cpp:25] Loading mean file from: /home/dl/caffe-master/models/bvlc_reference_caffenet/imagenet_mean.binaryproto
I0118 16:54:53.558676 10636 image_data_layer.cpp:36] Opening file /home/dl/caffe-master/data/oxford102/test.txt
I0118 16:54:53.561983 10636 image_data_layer.cpp:51] A total of 6149 images.
I0118 16:54:53.570435 10636 image_data_layer.cpp:78] output data size: 50,3,224,224
I0118 16:54:53.623874 10636 net.cpp:150] Setting up data
I0118 16:54:53.623931 10636 net.cpp:157] Top shape: 50 3 224 224 (7526400)
I0118 16:54:53.623944 10636 net.cpp:157] Top shape: 50 (50)
I0118 16:54:53.623950 10636 net.cpp:165] Memory required for data: 30105800
I0118 16:54:53.623961 10636 layer_factory.hpp:76] Creating layer conv1
I0118 16:54:53.623988 10636 net.cpp:106] Creating Layer conv1
I0118 16:54:53.623998 10636 net.cpp:454] conv1 <- data
I0118 16:54:53.624017 10636 net.cpp:411] conv1 -> conv1
I0118 16:54:53.790298 10636 cudnn_conv_layer.cpp:194] Reallocating workspace storage: 213876
I0118 16:54:53.790477 10636 net.cpp:150] Setting up conv1
I0118 16:54:53.790500 10636 net.cpp:157] Top shape: 50 96 109 109 (57028800)
I0118 16:54:53.790508 10636 net.cpp:165] Memory required for data: 258221000
I0118 16:54:53.790540 10636 layer_factory.hpp:76] Creating layer relu1
I0118 16:54:53.790561 10636 net.cpp:106] Creating Layer relu1
I0118 16:54:53.790571 10636 net.cpp:454] relu1 <- conv1
I0118 16:54:53.790581 10636 net.cpp:397] relu1 -> conv1 (in-place)
I0118 16:54:53.790791 10636 net.cpp:150] Setting up relu1
I0118 16:54:53.790809 10636 net.cpp:157] Top shape: 50 96 109 109 (57028800)
I0118 16:54:53.790815 10636 net.cpp:165] Memory required for data: 486336200
I0118 16:54:53.790822 10636 layer_factory.hpp:76] Creating layer norm1
I0118 16:54:53.790838 10636 net.cpp:106] Creating Layer norm1
I0118 16:54:53.790843 10636 net.cpp:454] norm1 <- conv1
I0118 16:54:53.790853 10636 net.cpp:411] norm1 -> norm1
I0118 16:54:53.791249 10636 net.cpp:150] Setting up norm1
I0118 16:54:53.791285 10636 net.cpp:157] Top shape: 50 96 109 109 (57028800)
I0118 16:54:53.791293 10636 net.cpp:165] Memory required for data: 714451400
I0118 16:54:53.791299 10636 layer_factory.hpp:76] Creating layer pool1
I0118 16:54:53.791311 10636 net.cpp:106] Creating Layer pool1
I0118 16:54:53.791317 10636 net.cpp:454] pool1 <- norm1
I0118 16:54:53.791326 10636 net.cpp:411] pool1 -> pool1
I0118 16:54:53.791584 10636 net.cpp:150] Setting up pool1
I0118 16:54:53.791600 10636 net.cpp:157] Top shape: 50 96 37 37 (6571200)
I0118 16:54:53.791606 10636 net.cpp:165] Memory required for data: 740736200
I0118 16:54:53.791612 10636 layer_factory.hpp:76] Creating layer conv2
I0118 16:54:53.791628 10636 net.cpp:106] Creating Layer conv2
I0118 16:54:53.791635 10636 net.cpp:454] conv2 <- pool1
I0118 16:54:53.791646 10636 net.cpp:411] conv2 -> conv2
I0118 16:54:53.816092 10636 cudnn_conv_layer.cpp:194] Reallocating workspace storage: 21972
I0118 16:54:53.816138 10636 net.cpp:150] Setting up conv2
I0118 16:54:53.816153 10636 net.cpp:157] Top shape: 50 256 33 33 (13939200)
I0118 16:54:53.816159 10636 net.cpp:165] Memory required for data: 796493000
I0118 16:54:53.816177 10636 layer_factory.hpp:76] Creating layer relu2
I0118 16:54:53.816197 10636 net.cpp:106] Creating Layer relu2
I0118 16:54:53.816205 10636 net.cpp:454] relu2 <- conv2
I0118 16:54:53.816215 10636 net.cpp:397] relu2 -> conv2 (in-place)
I0118 16:54:53.816565 10636 net.cpp:150] Setting up relu2
I0118 16:54:53.816582 10636 net.cpp:157] Top shape: 50 256 33 33 (13939200)
I0118 16:54:53.816588 10636 net.cpp:165] Memory required for data: 852249800
I0118 16:54:53.816601 10636 layer_factory.hpp:76] Creating layer pool2
I0118 16:54:53.816618 10636 net.cpp:106] Creating Layer pool2
I0118 16:54:53.816627 10636 net.cpp:454] pool2 <- conv2
I0118 16:54:53.816637 10636 net.cpp:411] pool2 -> pool2
I0118 16:54:53.816875 10636 net.cpp:150] Setting up pool2
I0118 16:54:53.816891 10636 net.cpp:157] Top shape: 50 256 17 17 (3699200)
I0118 16:54:53.816900 10636 net.cpp:165] Memory required for data: 867046600
I0118 16:54:53.816905 10636 layer_factory.hpp:76] Creating layer conv3
I0118 16:54:53.816926 10636 net.cpp:106] Creating Layer conv3
I0118 16:54:53.816934 10636 net.cpp:454] conv3 <- pool2
I0118 16:54:53.816946 10636 net.cpp:411] conv3 -> conv3
I0118 16:54:53.862112 10636 cudnn_conv_layer.cpp:194] Reallocating workspace storage: 11748
I0118 16:54:53.862282 10636 net.cpp:150] Setting up conv3
I0118 16:54:53.862303 10636 net.cpp:157] Top shape: 50 512 17 17 (7398400)
I0118 16:54:53.862311 10636 net.cpp:165] Memory required for data: 896640200
I0118 16:54:53.862332 10636 layer_factory.hpp:76] Creating layer relu3
I0118 16:54:53.862350 10636 net.cpp:106] Creating Layer relu3
I0118 16:54:53.862357 10636 net.cpp:454] relu3 <- conv3
I0118 16:54:53.862366 10636 net.cpp:397] relu3 -> conv3 (in-place)
I0118 16:54:53.862720 10636 net.cpp:150] Setting up relu3
I0118 16:54:53.862738 10636 net.cpp:157] Top shape: 50 512 17 17 (7398400)
I0118 16:54:53.862746 10636 net.cpp:165] Memory required for data: 926233800
I0118 16:54:53.862753 10636 layer_factory.hpp:76] Creating layer conv4
I0118 16:54:53.862767 10636 net.cpp:106] Creating Layer conv4
I0118 16:54:53.862773 10636 net.cpp:454] conv4 <- conv3
I0118 16:54:53.862787 10636 net.cpp:411] conv4 -> conv4
I0118 16:54:53.951020 10636 cudnn_conv_layer.cpp:194] Reallocating workspace storage: 11748
I0118 16:54:53.951071 10636 net.cpp:150] Setting up conv4
I0118 16:54:53.951086 10636 net.cpp:157] Top shape: 50 512 17 17 (7398400)
I0118 16:54:53.951092 10636 net.cpp:165] Memory required for data: 955827400
I0118 16:54:53.951104 10636 layer_factory.hpp:76] Creating layer relu4
I0118 16:54:53.951118 10636 net.cpp:106] Creating Layer relu4
I0118 16:54:53.951127 10636 net.cpp:454] relu4 <- conv4
I0118 16:54:53.951138 10636 net.cpp:397] relu4 -> conv4 (in-place)
I0118 16:54:53.951489 10636 net.cpp:150] Setting up relu4
I0118 16:54:53.951508 10636 net.cpp:157] Top shape: 50 512 17 17 (7398400)
I0118 16:54:53.951514 10636 net.cpp:165] Memory required for data: 985421000
I0118 16:54:53.951540 10636 layer_factory.hpp:76] Creating layer conv5
I0118 16:54:53.951558 10636 net.cpp:106] Creating Layer conv5
I0118 16:54:53.951565 10636 net.cpp:454] conv5 <- conv4
I0118 16:54:53.951576 10636 net.cpp:411] conv5 -> conv5
I0118 16:54:54.040113 10636 cudnn_conv_layer.cpp:194] Reallocating workspace storage: 11748
I0118 16:54:54.040166 10636 net.cpp:150] Setting up conv5
I0118 16:54:54.040181 10636 net.cpp:157] Top shape: 50 512 17 17 (7398400)
I0118 16:54:54.040187 10636 net.cpp:165] Memory required for data: 1015014600
I0118 16:54:54.040207 10636 layer_factory.hpp:76] Creating layer relu5
I0118 16:54:54.040221 10636 net.cpp:106] Creating Layer relu5
I0118 16:54:54.040228 10636 net.cpp:454] relu5 <- conv5
I0118 16:54:54.040241 10636 net.cpp:397] relu5 -> conv5 (in-place)
I0118 16:54:54.040447 10636 net.cpp:150] Setting up relu5
I0118 16:54:54.040463 10636 net.cpp:157] Top shape: 50 512 17 17 (7398400)
I0118 16:54:54.040472 10636 net.cpp:165] Memory required for data: 1044608200
I0118 16:54:54.040477 10636 layer_factory.hpp:76] Creating layer pool5
I0118 16:54:54.040488 10636 net.cpp:106] Creating Layer pool5
I0118 16:54:54.040493 10636 net.cpp:454] pool5 <- conv5
I0118 16:54:54.040501 10636 net.cpp:411] pool5 -> pool5
I0118 16:54:54.040881 10636 net.cpp:150] Setting up pool5
I0118 16:54:54.040900 10636 net.cpp:157] Top shape: 50 512 6 6 (921600)
I0118 16:54:54.040906 10636 net.cpp:165] Memory required for data: 1048294600
I0118 16:54:54.040912 10636 layer_factory.hpp:76] Creating layer fc6
I0118 16:54:54.040928 10636 net.cpp:106] Creating Layer fc6
I0118 16:54:54.040935 10636 net.cpp:454] fc6 <- pool5
I0118 16:54:54.040942 10636 net.cpp:411] fc6 -> fc6
I0118 16:54:54.205241 10636 net.cpp:150] Setting up fc6
I0118 16:54:54.205276 10636 net.cpp:157] Top shape: 50 4096 (204800)
I0118 16:54:54.205283 10636 net.cpp:165] Memory required for data: 1049113800
I0118 16:54:54.205298 10636 layer_factory.hpp:76] Creating layer relu6
I0118 16:54:54.205317 10636 net.cpp:106] Creating Layer relu6
I0118 16:54:54.205323 10636 net.cpp:454] relu6 <- fc6
I0118 16:54:54.205337 10636 net.cpp:397] relu6 -> fc6 (in-place)
I0118 16:54:54.205615 10636 net.cpp:150] Setting up relu6
I0118 16:54:54.205631 10636 net.cpp:157] Top shape: 50 4096 (204800)
I0118 16:54:54.205637 10636 net.cpp:165] Memory required for data: 1049933000
I0118 16:54:54.205643 10636 layer_factory.hpp:76] Creating layer drop6
I0118 16:54:54.205660 10636 net.cpp:106] Creating Layer drop6
I0118 16:54:54.205687 10636 net.cpp:454] drop6 <- fc6
I0118 16:54:54.205698 10636 net.cpp:397] drop6 -> fc6 (in-place)
I0118 16:54:54.205749 10636 net.cpp:150] Setting up drop6
I0118 16:54:54.205762 10636 net.cpp:157] Top shape: 50 4096 (204800)
I0118 16:54:54.205768 10636 net.cpp:165] Memory required for data: 1050752200
I0118 16:54:54.205775 10636 layer_factory.hpp:76] Creating layer fc7
I0118 16:54:54.205785 10636 net.cpp:106] Creating Layer fc7
I0118 16:54:54.205790 10636 net.cpp:454] fc7 <- fc6
I0118 16:54:54.205801 10636 net.cpp:411] fc7 -> fc7
I0118 16:54:54.242681 10636 net.cpp:150] Setting up fc7
I0118 16:54:54.242727 10636 net.cpp:157] Top shape: 50 4096 (204800)
I0118 16:54:54.242733 10636 net.cpp:165] Memory required for data: 1051571400
I0118 16:54:54.242748 10636 layer_factory.hpp:76] Creating layer relu7
I0118 16:54:54.242761 10636 net.cpp:106] Creating Layer relu7
I0118 16:54:54.242769 10636 net.cpp:454] relu7 <- fc7
I0118 16:54:54.242781 10636 net.cpp:397] relu7 -> fc7 (in-place)
I0118 16:54:54.243278 10636 net.cpp:150] Setting up relu7
I0118 16:54:54.243295 10636 net.cpp:157] Top shape: 50 4096 (204800)
I0118 16:54:54.243302 10636 net.cpp:165] Memory required for data: 1052390600
I0118 16:54:54.243309 10636 layer_factory.hpp:76] Creating layer drop7
I0118 16:54:54.243319 10636 net.cpp:106] Creating Layer drop7
I0118 16:54:54.243324 10636 net.cpp:454] drop7 <- fc7
I0118 16:54:54.243335 10636 net.cpp:397] drop7 -> fc7 (in-place)
I0118 16:54:54.243372 10636 net.cpp:150] Setting up drop7
I0118 16:54:54.243384 10636 net.cpp:157] Top shape: 50 4096 (204800)
I0118 16:54:54.243413 10636 net.cpp:165] Memory required for data: 1053209800
I0118 16:54:54.243419 10636 layer_factory.hpp:76] Creating layer ip1
I0118 16:54:54.243434 10636 net.cpp:106] Creating Layer ip1
I0118 16:54:54.243443 10636 net.cpp:454] ip1 <- fc7
I0118 16:54:54.243454 10636 net.cpp:411] ip1 -> ip1
I0118 16:54:54.253419 10636 net.cpp:150] Setting up ip1
I0118 16:54:54.253442 10636 net.cpp:157] Top shape: 50 64 (3200)
I0118 16:54:54.253448 10636 net.cpp:165] Memory required for data: 1053222600
I0118 16:54:54.253458 10636 layer_factory.hpp:76] Creating layer ip2
I0118 16:54:54.253468 10636 net.cpp:106] Creating Layer ip2
I0118 16:54:54.253473 10636 net.cpp:454] ip2 <- ip1
I0118 16:54:54.253485 10636 net.cpp:411] ip2 -> ip2
I0118 16:54:54.253773 10636 net.cpp:150] Setting up ip2
I0118 16:54:54.253799 10636 net.cpp:157] Top shape: 50 64 (3200)
I0118 16:54:54.253806 10636 net.cpp:165] Memory required for data: 1053235400
I0118 16:54:54.253813 10636 layer_factory.hpp:76] Creating layer fc8_oxford102_hash
I0118 16:54:54.253828 10636 net.cpp:106] Creating Layer fc8_oxford102_hash
I0118 16:54:54.253837 10636 net.cpp:454] fc8_oxford102_hash <- ip2
I0118 16:54:54.253849 10636 net.cpp:411] fc8_oxford102_hash -> fc8_oxford102_hash
I0118 16:54:54.254226 10636 net.cpp:150] Setting up fc8_oxford102_hash
I0118 16:54:54.254271 10636 net.cpp:157] Top shape: 50 102 (5100)
I0118 16:54:54.254297 10636 net.cpp:165] Memory required for data: 1053255800
I0118 16:54:54.254333 10636 layer_factory.hpp:76] Creating layer loss
I0118 16:54:54.254349 10636 net.cpp:106] Creating Layer loss
I0118 16:54:54.254356 10636 net.cpp:454] loss <- fc8_oxford102_hash
I0118 16:54:54.254364 10636 net.cpp:454] loss <- label
I0118 16:54:54.254382 10636 net.cpp:411] loss -> (automatic)
…
I0118 16:54:54.256127 10636 net.cpp:322] The NetState phase (1) differed from the phase (0) specified by a rule in layer data
I0118 16:54:54.256371 10636 net.cpp:49] Initializing net from parameters: 
name: "Oxford102_VGG_CNN_S"
state {
  phase: TEST
}
layer {
  name: "data"
  type: "ImageData"
  top: "data"
  top: "label"
  include {
    phase: TEST
  }
  transform_param {
    mirror: false
    crop_size: 224
    mean_file: "/home/dl/caffe-master/models/bvlc_reference_caffenet/imagenet_mean.binaryproto"
  }
  image_data_param {
    source: "/home/dl/caffe-master/data/oxford102/train.txt"
    batch_size: 50
    new_height: 256
    new_width: 256
  }
}
layer {
  name: "conv1"
  type: "Convolution"
  bottom: "data"
  top: "conv1"
  param {
    lr_mult: 1
    decay_mult: 1
  }
  param {
    lr_mult: 2
    decay_mult: 0
  }
  convolution_param {
    num_output: 96
    kernel_size: 7
    stride: 2
    weight_filler {
      type: "gaussian"
      std: 0.01
    }
    bias_filler {
      type: "constant"
      value: 0
    }
  }
}
layer {
  name: "relu1"
  type: "ReLU"
  bottom: "conv1"
  top: "conv1"
}
layer {
  name: "norm1"
  type: "LRN"
  bottom: "conv1"
  top: "norm1"
  lrn_param {
    local_size: 5
    alpha: 0.0005
    beta: 0.75
    k: 2
  }
}
layer {
  name: "pool1"
  type: "Pooling"
  bottom: "norm1"
  top: "pool1"
  pooling_param {
    pool: MAX
    kernel_size: 3
    stride: 3
  }
}
layer {
  name: "conv2"
  type: "Convolution"
  bottom: "pool1"
  top: "conv2"
  param {
    lr_mult: 1
    decay_mult: 1
  }
  param {
    lr_mult: 2
    decay_mult: 0
  }
  convolution_param {
    num_output: 256
    kernel_size: 5
    weight_filler {
      type: "gaussian"
      std: 0.01
    }
    bias_filler {
      type: "constant"
      value: 1
    }
  }
}
layer {
  name: "relu2"
  type: "ReLU"
  bottom: "conv2"
  top: "conv2"
}
layer {
  name: "pool2"
  type: "Pooling"
  bottom: "conv2"
  top: "pool2"
  pooling_param {
    pool: MAX
    kernel_size: 2
    stride: 2
  }
}
layer {
  name: "conv3"
  type: "Convolution"
  bottom: "pool2"
  top: "conv3"
  param {
    lr_mult: 1
    decay_mult: 1
  }
  param {
    lr_mult: 2
    decay_mult: 0
  }
  convolution_param {
    num_output: 512
    pad: 1
    kernel_size: 3
    weight_filler {
      type: "gaussian"
      std: 0.01
    }
    bias_filler {
      type: "constant"
      value: 1
    }
  }
}
layer {
  name: "relu3"
  type: "ReLU"
  bottom: "conv3"
  top: "conv3"
}
layer {
  name: "conv4"
  type: "Convolution"
  bottom: "conv3"
  top: "conv4"
  param {
    lr_mult: 1
    decay_mult: 1
  }
  param {
    lr_mult: 2
    decay_mult: 0
  }
  convolution_param {
    num_output: 512
    pad: 1
    kernel_size: 3
    weight_filler {
      type: "gaussian"
      std: 0.01
    }
    bias_filler {
      type: "constant"
      value: 1
    }
  }
}
layer {
  name: "relu4"
  type: "ReLU"
  bottom: "conv4"
  top: "conv4"
}
layer {
  name: "conv5"
  type: "Convolution"
  bottom: "conv4"
  top: "conv5"
  param {
    lr_mult: 1
    decay_mult: 1
  }
  param {
    lr_mult: 2
    decay_mult: 0
  }
  convolution_param {
    num_output: 512
    pad: 1
    kernel_size: 3
    weight_filler {
      type: "gaussian"
      std: 0.005
    }
    bias_filler {
      type: "constant"
      value: 1
    }
  }
}
layer {
  name: "relu5"
  type: "ReLU"
  bottom: "conv5"
  top: "conv5"
}
layer {
  name: "pool5"
  type: "Pooling"
  bottom: "conv5"
  top: "pool5"
  pooling_param {
    pool: MAX
    kernel_size: 3
    stride: 3
  }
}
layer {
  name: "fc6"
  type: "InnerProduct"
  bottom: "pool5"
  top: "fc6"
  inner_product_param {
    num_output: 4096
  }
}
layer {
  name: "relu6"
  type: "ReLU"
  bottom: "fc6"
  top: "fc6"
}
layer {
  name: "drop6"
  type: "Dropout"
  bottom: "fc6"
  top: "fc6"
  dropout_param {
    dropout_ratio: 0.5
  }
}
layer {
  name: "fc7"
  type: "InnerProduct"
  bottom: "fc6"
  top: "fc7"
  inner_product_param {
    num_output: 4096
  }
}
layer {
  name: "relu7"
  type: "ReLU"
  bottom: "fc7"
  top: "fc7"
}
layer {
  name: "drop7"
  type: "Dropout"
  bottom: "fc7"
  top: "fc7"
  dropout_param {
    dropout_ratio: 0.5
  }
}
layer {
  name: "ip1"
  type: "InnerProduct"
  bottom: "fc7"
  top: "ip1"
  param {
    lr_mult: 1
    decay_mult: 1
  }
  param {
    lr_mult: 2
    decay_mult: 0
  }
  inner_product_param {
    num_output: 64
    weight_filler {
      type: "gaussian"
      std: 0.01
    }
    bias_filler {
      type: "constant"
      value: 0
    }
  }
}
layer {
  name: "ip2"
  type: "Sigmoid"
  bottom: "ip1"
  top: "ip2"
}
layer {
  name: "fc8_oxford102_hash"
  type: "InnerProduct"
  bottom: "ip2"
  top: "fc8_oxford102_hash"
  param {
    lr_mult: 10
    decay_mult: 1
  }
  param {
    lr_mult: 20
    decay_mult: 0
  }
  inner_product_param {
    num_output: 102
    weight_filler {
      type: "gaussian"
      std: 0.01
    }
    bias_filler {
      type: "constant"
      value: 0
    }
  }
}
layer {
  name: "loss"
  type: "SoftmaxWithLoss"
  bottom: "fc8_oxford102_hash"
  bottom: "label"
}
layer {
  name: "accuracy"
  type: "Accuracy"
  bottom: "fc8_oxford102_hash"
  bottom: "label"
  top: "accuracy"
  include {
    phase: TEST
  }
}
I0118 16:54:54.256541 10636 layer_factory.hpp:76] Creating layer data
I0118 16:54:54.256561 10636 net.cpp:106] Creating Layer data
I0118 16:54:54.256569 10636 net.cpp:411] data -> data
I0118 16:54:54.256582 10636 net.cpp:411] data -> label
I0118 16:54:54.256594 10636 data_transformer.cpp:25] Loading mean file from: /home/dl/caffe-master/models/bvlc_reference_caffenet/imagenet_mean.binaryproto
I0118 16:54:54.259023 10636 image_data_layer.cpp:36] Opening file /home/dl/caffe-master/data/oxford102/train.txt
I0118 16:54:54.259580 10636 image_data_layer.cpp:51] A total of 1020 images.
I0118 16:54:54.264286 10636 image_data_layer.cpp:78] output data size: 50,3,224,224
I0118 16:54:54.317739 10636 net.cpp:150] Setting up data
I0118 16:54:54.317775 10636 net.cpp:157] Top shape: 50 3 224 224 (7526400)
I0118 16:54:54.317785 10636 net.cpp:157] Top shape: 50 (50)
I0118 16:54:54.317790 10636 net.cpp:165] Memory required for data: 30105800
I0118 16:54:54.317800 10636 layer_factory.hpp:76] Creating layer label_data_1_split
I0118 16:54:54.317821 10636 net.cpp:106] Creating Layer label_data_1_split
I0118 16:54:54.317829 10636 net.cpp:454] label_data_1_split <- label
I0118 16:54:54.317839 10636 net.cpp:411] label_data_1_split -> label_data_1_split_0
I0118 16:54:54.317854 10636 net.cpp:411] label_data_1_split -> label_data_1_split_1
I0118 16:54:54.317947 10636 net.cpp:150] Setting up label_data_1_split
I0118 16:54:54.317961 10636 net.cpp:157] Top shape: 50 (50)
I0118 16:54:54.317968 10636 net.cpp:157] Top shape: 50 (50)
I0118 16:54:54.317973 10636 net.cpp:165] Memory required for data: 30106200
I0118 16:54:54.317980 10636 layer_factory.hpp:76] Creating layer conv1
I0118 16:54:54.317994 10636 net.cpp:106] Creating Layer conv1
I0118 16:54:54.318001 10636 net.cpp:454] conv1 <- data
I0118 16:54:54.318009 10636 net.cpp:411] conv1 -> conv1
I0118 16:54:54.319939 10636 cudnn_conv_layer.cpp:194] Reallocating workspace storage: 213876
I0118 16:54:54.319980 10636 net.cpp:150] Setting up conv1
I0118 16:54:54.319993 10636 net.cpp:157] Top shape: 50 96 109 109 (57028800)
I0118 16:54:54.319998 10636 net.cpp:165] Memory required for data: 258221400
I0118 16:54:54.320013 10636 layer_factory.hpp:76] Creating layer relu1
I0118 16:54:54.320024 10636 net.cpp:106] Creating Layer relu1
I0118 16:54:54.320029 10636 net.cpp:454] relu1 <- conv1
I0118 16:54:54.320037 10636 net.cpp:397] relu1 -> conv1 (in-place)
I0118 16:54:54.320230 10636 net.cpp:150] Setting up relu1
I0118 16:54:54.320243 10636 net.cpp:157] Top shape: 50 96 109 109 (57028800)
I0118 16:54:54.320248 10636 net.cpp:165] Memory required for data: 486336600
I0118 16:54:54.320277 10636 layer_factory.hpp:76] Creating layer norm1
I0118 16:54:54.320291 10636 net.cpp:106] Creating Layer norm1
I0118 16:54:54.320297 10636 net.cpp:454] norm1 <- conv1
I0118 16:54:54.320304 10636 net.cpp:411] norm1 -> norm1
I0118 16:54:54.320668 10636 net.cpp:150] Setting up norm1
I0118 16:54:54.320686 10636 net.cpp:157] Top shape: 50 96 109 109 (57028800)
I0118 16:54:54.320693 10636 net.cpp:165] Memory required for data: 714451800
I0118 16:54:54.320698 10636 layer_factory.hpp:76] Creating layer pool1
I0118 16:54:54.320708 10636 net.cpp:106] Creating Layer pool1
I0118 16:54:54.320714 10636 net.cpp:454] pool1 <- norm1
I0118 16:54:54.320722 10636 net.cpp:411] pool1 -> pool1
I0118 16:54:54.320948 10636 net.cpp:150] Setting up pool1
I0118 16:54:54.320962 10636 net.cpp:157] Top shape: 50 96 37 37 (6571200)
I0118 16:54:54.320967 10636 net.cpp:165] Memory required for data: 740736600
I0118 16:54:54.320973 10636 layer_factory.hpp:76] Creating layer conv2
I0118 16:54:54.320984 10636 net.cpp:106] Creating Layer conv2
I0118 16:54:54.320991 10636 net.cpp:454] conv2 <- pool1
I0118 16:54:54.321009 10636 net.cpp:411] conv2 -> conv2
I0118 16:54:54.345064 10636 cudnn_conv_layer.cpp:194] Reallocating workspace storage: 21972
I0118 16:54:54.345105 10636 net.cpp:150] Setting up conv2
I0118 16:54:54.345126 10636 net.cpp:157] Top shape: 50 256 33 33 (13939200)
I0118 16:54:54.345134 10636 net.cpp:165] Memory required for data: 796493400
I0118 16:54:54.345154 10636 layer_factory.hpp:76] Creating layer relu2
I0118 16:54:54.345167 10636 net.cpp:106] Creating Layer relu2
I0118 16:54:54.345175 10636 net.cpp:454] relu2 <- conv2
I0118 16:54:54.345183 10636 net.cpp:397] relu2 -> conv2 (in-place)
I0118 16:54:54.345521 10636 net.cpp:150] Setting up relu2
I0118 16:54:54.345536 10636 net.cpp:157] Top shape: 50 256 33 33 (13939200)
I0118 16:54:54.345542 10636 net.cpp:165] Memory required for data: 852250200
I0118 16:54:54.345548 10636 layer_factory.hpp:76] Creating layer pool2
I0118 16:54:54.345561 10636 net.cpp:106] Creating Layer pool2
I0118 16:54:54.345566 10636 net.cpp:454] pool2 <- conv2
I0118 16:54:54.345574 10636 net.cpp:411] pool2 -> pool2
I0118 16:54:54.345829 10636 net.cpp:150] Setting up pool2
I0118 16:54:54.345844 10636 net.cpp:157] Top shape: 50 256 17 17 (3699200)
I0118 16:54:54.345849 10636 net.cpp:165] Memory required for data: 867047000
I0118 16:54:54.345855 10636 layer_factory.hpp:76] Creating layer conv3
I0118 16:54:54.345868 10636 net.cpp:106] Creating Layer conv3
I0118 16:54:54.345875 10636 net.cpp:454] conv3 <- pool2
I0118 16:54:54.345883 10636 net.cpp:411] conv3 -> conv3
I0118 16:54:54.390727 10636 cudnn_conv_layer.cpp:194] Reallocating workspace storage: 11748
I0118 16:54:54.390779 10636 net.cpp:150] Setting up conv3
I0118 16:54:54.390794 10636 net.cpp:157] Top shape: 50 512 17 17 (7398400)
I0118 16:54:54.390799 10636 net.cpp:165] Memory required for data: 896640600
I0118 16:54:54.390820 10636 layer_factory.hpp:76] Creating layer relu3
I0118 16:54:54.390833 10636 net.cpp:106] Creating Layer relu3
I0118 16:54:54.390841 10636 net.cpp:454] relu3 <- conv3
I0118 16:54:54.390849 10636 net.cpp:397] relu3 -> conv3 (in-place)
I0118 16:54:54.391182 10636 net.cpp:150] Setting up relu3
I0118 16:54:54.391232 10636 net.cpp:157] Top shape: 50 512 17 17 (7398400)
I0118 16:54:54.391244 10636 net.cpp:165] Memory required for data: 926234200
I0118 16:54:54.391252 10636 layer_factory.hpp:76] Creating layer conv4
I0118 16:54:54.391266 10636 net.cpp:106] Creating Layer conv4
I0118 16:54:54.391273 10636 net.cpp:454] conv4 <- conv3
I0118 16:54:54.391281 10636 net.cpp:411] conv4 -> conv4
I0118 16:54:54.479851 10636 cudnn_conv_layer.cpp:194] Reallocating workspace storage: 11748
I0118 16:54:54.479904 10636 net.cpp:150] Setting up conv4
I0118 16:54:54.479918 10636 net.cpp:157] Top shape: 50 512 17 17 (7398400)
I0118 16:54:54.479924 10636 net.cpp:165] Memory required for data: 955827800
I0118 16:54:54.479938 10636 layer_factory.hpp:76] Creating layer relu4
I0118 16:54:54.479950 10636 net.cpp:106] Creating Layer relu4
I0118 16:54:54.480002 10636 net.cpp:454] relu4 <- conv4
I0118 16:54:54.480031 10636 net.cpp:397] relu4 -> conv4 (in-place)
I0118 16:54:54.480376 10636 net.cpp:150] Setting up relu4
I0118 16:54:54.480392 10636 net.cpp:157] Top shape: 50 512 17 17 (7398400)
I0118 16:54:54.480399 10636 net.cpp:165] Memory required for data: 985421400
I0118 16:54:54.480406 10636 layer_factory.hpp:76] Creating layer conv5
I0118 16:54:54.480419 10636 net.cpp:106] Creating Layer conv5
I0118 16:54:54.480425 10636 net.cpp:454] conv5 <- conv4
I0118 16:54:54.480434 10636 net.cpp:411] conv5 -> conv5
I0118 16:54:54.572868 10636 cudnn_conv_layer.cpp:194] Reallocating workspace storage: 11748
I0118 16:54:54.572921 10636 net.cpp:150] Setting up conv5
I0118 16:54:54.572934 10636 net.cpp:157] Top shape: 50 512 17 17 (7398400)
I0118 16:54:54.572940 10636 net.cpp:165] Memory required for data: 1015015000
I0118 16:54:54.572960 10636 layer_factory.hpp:76] Creating layer relu5
I0118 16:54:54.572974 10636 net.cpp:106] Creating Layer relu5
I0118 16:54:54.572981 10636 net.cpp:454] relu5 <- conv5
I0118 16:54:54.572989 10636 net.cpp:397] relu5 -> conv5 (in-place)
I0118 16:54:54.573186 10636 net.cpp:150] Setting up relu5
I0118 16:54:54.573204 10636 net.cpp:157] Top shape: 50 512 17 17 (7398400)
I0118 16:54:54.573210 10636 net.cpp:165] Memory required for data: 1044608600
I0118 16:54:54.573215 10636 layer_factory.hpp:76] Creating layer pool5
I0118 16:54:54.573225 10636 net.cpp:106] Creating Layer pool5
I0118 16:54:54.573230 10636 net.cpp:454] pool5 <- conv5
I0118 16:54:54.573240 10636 net.cpp:411] pool5 -> pool5
I0118 16:54:54.573609 10636 net.cpp:150] Setting up pool5
I0118 16:54:54.573627 10636 net.cpp:157] Top shape: 50 512 6 6 (921600)
I0118 16:54:54.573633 10636 net.cpp:165] Memory required for data: 1048295000
I0118 16:54:54.573639 10636 layer_factory.hpp:76] Creating layer fc6
I0118 16:54:54.573652 10636 net.cpp:106] Creating Layer fc6
I0118 16:54:54.573658 10636 net.cpp:454] fc6 <- pool5
I0118 16:54:54.573667 10636 net.cpp:411] fc6 -> fc6
I0118 16:54:54.740775 10636 net.cpp:150] Setting up fc6
I0118 16:54:54.740816 10636 net.cpp:157] Top shape: 50 4096 (204800)
I0118 16:54:54.740823 10636 net.cpp:165] Memory required for data: 1049114200
I0118 16:54:54.740838 10636 layer_factory.hpp:76] Creating layer relu6
I0118 16:54:54.740851 10636 net.cpp:106] Creating Layer relu6
I0118 16:54:54.740859 10636 net.cpp:454] relu6 <- fc6
I0118 16:54:54.740869 10636 net.cpp:397] relu6 -> fc6 (in-place)
I0118 16:54:54.741142 10636 net.cpp:150] Setting up relu6
I0118 16:54:54.741158 10636 net.cpp:157] Top shape: 50 4096 (204800)
I0118 16:54:54.741164 10636 net.cpp:165] Memory required for data: 1049933400
I0118 16:54:54.741170 10636 layer_factory.hpp:76] Creating layer drop6
I0118 16:54:54.741180 10636 net.cpp:106] Creating Layer drop6
I0118 16:54:54.741186 10636 net.cpp:454] drop6 <- fc6
I0118 16:54:54.741194 10636 net.cpp:397] drop6 -> fc6 (in-place)
I0118 16:54:54.741235 10636 net.cpp:150] Setting up drop6
I0118 16:54:54.741247 10636 net.cpp:157] Top shape: 50 4096 (204800)
I0118 16:54:54.741253 10636 net.cpp:165] Memory required for data: 1050752600
I0118 16:54:54.741258 10636 layer_factory.hpp:76] Creating layer fc7
I0118 16:54:54.741268 10636 net.cpp:106] Creating Layer fc7
I0118 16:54:54.741274 10636 net.cpp:454] fc7 <- fc6
I0118 16:54:54.741281 10636 net.cpp:411] fc7 -> fc7
I0118 16:54:54.778024 10636 net.cpp:150] Setting up fc7
I0118 16:54:54.778064 10636 net.cpp:157] Top shape: 50 4096 (204800)
I0118 16:54:54.778069 10636 net.cpp:165] Memory required for data: 1051571800
I0118 16:54:54.778084 10636 layer_factory.hpp:76] Creating layer relu7
I0118 16:54:54.778098 10636 net.cpp:106] Creating Layer relu7
I0118 16:54:54.778106 10636 net.cpp:454] relu7 <- fc7
I0118 16:54:54.778115 10636 net.cpp:397] relu7 -> fc7 (in-place)
I0118 16:54:54.778619 10636 net.cpp:150] Setting up relu7
I0118 16:54:54.778636 10636 net.cpp:157] Top shape: 50 4096 (204800)
I0118 16:54:54.778642 10636 net.cpp:165] Memory required for data: 1052391000
I0118 16:54:54.778648 10636 layer_factory.hpp:76] Creating layer drop7
I0118 16:54:54.778686 10636 net.cpp:106] Creating Layer drop7
I0118 16:54:54.778693 10636 net.cpp:454] drop7 <- fc7
I0118 16:54:54.778702 10636 net.cpp:397] drop7 -> fc7 (in-place)
I0118 16:54:54.778748 10636 net.cpp:150] Setting up drop7
I0118 16:54:54.778761 10636 net.cpp:157] Top shape: 50 4096 (204800)
I0118 16:54:54.778766 10636 net.cpp:165] Memory required for data: 1053210200
I0118 16:54:54.778772 10636 layer_factory.hpp:76] Creating layer ip1
I0118 16:54:54.778784 10636 net.cpp:106] Creating Layer ip1
I0118 16:54:54.778789 10636 net.cpp:454] ip1 <- fc7
I0118 16:54:54.778798 10636 net.cpp:411] ip1 -> ip1
I0118 16:54:54.788790 10636 net.cpp:150] Setting up ip1
I0118 16:54:54.788812 10636 net.cpp:157] Top shape: 50 64 (3200)
I0118 16:54:54.788818 10636 net.cpp:165] Memory required for data: 1053223000
I0118 16:54:54.788830 10636 layer_factory.hpp:76] Creating layer ip2
I0118 16:54:54.788841 10636 net.cpp:106] Creating Layer ip2
I0118 16:54:54.788847 10636 net.cpp:454] ip2 <- ip1
I0118 16:54:54.788856 10636 net.cpp:411] ip2 -> ip2
I0118 16:54:54.789122 10636 net.cpp:150] Setting up ip2
I0118 16:54:54.789140 10636 net.cpp:157] Top shape: 50 64 (3200)
I0118 16:54:54.789146 10636 net.cpp:165] Memory required for data: 1053235800
I0118 16:54:54.789152 10636 layer_factory.hpp:76] Creating layer fc8_oxford102_hash
I0118 16:54:54.789163 10636 net.cpp:106] Creating Layer fc8_oxford102_hash
I0118 16:54:54.789170 10636 net.cpp:454] fc8_oxford102_hash <- ip2
I0118 16:54:54.789177 10636 net.cpp:411] fc8_oxford102_hash -> fc8_oxford102_hash
I0118 16:54:54.789557 10636 net.cpp:150] Setting up fc8_oxford102_hash
I0118 16:54:54.789572 10636 net.cpp:157] Top shape: 50 102 (5100)
I0118 16:54:54.789577 10636 net.cpp:165] Memory required for data: 1053256200
I0118 16:54:54.789593 10636 layer_factory.hpp:76] Creating layer fc8_oxford102_hash_fc8_oxford102_hash_0_split
I0118 16:54:54.789602 10636 net.cpp:106] Creating Layer fc8_oxford102_hash_fc8_oxford102_hash_0_split
I0118 16:54:54.789608 10636 net.cpp:454] fc8_oxford102_hash_fc8_oxford102_hash_0_split <- fc8_oxford102_hash
I0118 16:54:54.789616 10636 net.cpp:411] fc8_oxford102_hash_fc8_oxford102_hash_0_split -> fc8_oxford102_hash_fc8_oxford102_hash_0_split_0
I0118 16:54:54.789626 10636 net.cpp:411] fc8_oxford102_hash_fc8_oxford102_hash_0_split -> fc8_oxford102_hash_fc8_oxford102_hash_0_split_1
I0118 16:54:54.789691 10636 net.cpp:150] Setting up fc8_oxford102_hash_fc8_oxford102_hash_0_split
I0118 16:54:54.789706 10636 net.cpp:157] Top shape: 50 102 (5100)
I0118 16:54:54.789713 10636 net.cpp:157] Top shape: 50 102 (5100)
I0118 16:54:54.789718 10636 net.cpp:165] Memory required for data: 1053297000
I0118 16:54:54.789723 10636 layer_factory.hpp:76] Creating layer loss
I0118 16:54:54.789732 10636 net.cpp:106] Creating Layer loss
I0118 16:54:54.789738 10636 net.cpp:454] loss <- fc8_oxford102_hash_fc8_oxford102_hash_0_split_0
I0118 16:54:54.789746 10636 net.cpp:454] loss <- label_data_1_split_0
I0118 16:54:54.789753 10636 net.cpp:411] loss -> (automatic)
…
