…
I0118 10:17:24.596418  8735 net.cpp:322] The NetState phase (0) differed from the phase (1) specified by a rule in layer cifar
I0118 10:17:24.596458  8735 net.cpp:322] The NetState phase (0) differed from the phase (1) specified by a rule in layer accuracy
I0118 10:17:24.596712  8735 net.cpp:49] Initializing net from parameters: 
name: "CIFAR10_full"
state {
  phase: TRAIN
}
layer {
  name: "cifar"
  type: "Data"
  top: "data"
  top: "label"
  include {
    phase: TRAIN
  }
  data_param {
    source: "examples/A-cifar10/cifar-train-leveldb"
    batch_size: 128
  }
}
layer {
  name: "conv1"
  type: "Convolution"
  bottom: "data"
  top: "conv1"
  param {
    lr_mult: 1
    decay_mult: 1
  }
  param {
    lr_mult: 2
    decay_mult: 0
  }
  convolution_param {
    num_output: 192
    pad: 2
    kernel_size: 5
    weight_filler {
      type: "gaussian"
      std: 0.05
    }
    bias_filler {
      type: "constant"
    }
  }
}
layer {
  name: "relu1"
  type: "ReLU"
  bottom: "conv1"
  top: "conv1"
}
layer {
  name: "cccp1"
  type: "Convolution"
  bottom: "conv1"
  top: "cccp1"
  param {
    lr_mult: 1
    decay_mult: 1
  }
  param {
    lr_mult: 2
    decay_mult: 0
  }
  convolution_param {
    num_output: 160
    kernel_size: 1
    group: 1
    weight_filler {
      type: "gaussian"
      std: 0.05
    }
    bias_filler {
      type: "constant"
      value: 0
    }
  }
}
layer {
  name: "relu_cccp1"
  type: "ReLU"
  bottom: "cccp1"
  top: "cccp1"
}
layer {
  name: "cccp2"
  type: "Convolution"
  bottom: "cccp1"
  top: "cccp2"
  param {
    lr_mult: 1
    decay_mult: 1
  }
  param {
    lr_mult: 2
    decay_mult: 0
  }
  convolution_param {
    num_output: 96
    kernel_size: 1
    group: 1
    weight_filler {
      type: "gaussian"
      std: 0.05
    }
    bias_filler {
      type: "constant"
      value: 0
    }
  }
}
layer {
  name: "relu_cccp2"
  type: "ReLU"
  bottom: "cccp2"
  top: "cccp2"
}
layer {
  name: "pool1"
  type: "Pooling"
  bottom: "cccp2"
  top: "pool1"
  pooling_param {
    pool: MAX
    kernel_size: 3
    stride: 2
  }
}
layer {
  name: "drop3"
  type: "Dropout"
  bottom: "pool1"
  top: "pool1"
  dropout_param {
    dropout_ratio: 0.5
  }
}
layer {
  name: "conv2"
  type: "Convolution"
  bottom: "pool1"
  top: "conv2"
  param {
    lr_mult: 1
    decay_mult: 1
  }
  param {
    lr_mult: 2
    decay_mult: 0
  }
  convolution_param {
    num_output: 192
    pad: 2
    kernel_size: 5
    weight_filler {
      type: "gaussian"
      std: 0.05
    }
    bias_filler {
      type: "constant"
    }
  }
}
layer {
  name: "relu2"
  type: "ReLU"
  bottom: "conv2"
  top: "conv2"
}
layer {
  name: "cccp3"
  type: "Convolution"
  bottom: "conv2"
  top: "cccp3"
  param {
    lr_mult: 1
    decay_mult: 1
  }
  param {
    lr_mult: 2
    decay_mult: 0
  }
  convolution_param {
    num_output: 192
    kernel_size: 1
    group: 1
    weight_filler {
      type: "gaussian"
      std: 0.05
    }
    bias_filler {
      type: "constant"
      value: 0
    }
  }
}
layer {
  name: "relu_cccp3"
  type: "ReLU"
  bottom: "cccp3"
  top: "cccp3"
}
layer {
  name: "cccp4"
  type: "Convolution"
  bottom: "cccp3"
  top: "cccp4"
  param {
    lr_mult: 1
    decay_mult: 1
  }
  param {
    lr_mult: 2
    decay_mult: 0
  }
  convolution_param {
    num_output: 192
    kernel_size: 1
    group: 1
    weight_filler {
      type: "gaussian"
      std: 0.05
    }
    bias_filler {
      type: "constant"
      value: 0
    }
  }
}
layer {
  name: "relu_cccp4"
  type: "ReLU"
  bottom: "cccp4"
  top: "cccp4"
}
layer {
  name: "pool2"
  type: "Pooling"
  bottom: "cccp4"
  top: "pool2"
  pooling_param {
    pool: AVE
    kernel_size: 3
    stride: 2
  }
}
layer {
  name: "drop6"
  type: "Dropout"
  bottom: "pool2"
  top: "pool2"
  dropout_param {
    dropout_ratio: 0.5
  }
}
layer {
  name: "conv3"
  type: "Convolution"
  bottom: "pool2"
  top: "conv3"
  param {
    lr_mult: 1
    decay_mult: 1
  }
  param {
    lr_mult: 2
    decay_mult: 0
  }
  convolution_param {
    num_output: 192
    pad: 1
    kernel_size: 3
    weight_filler {
      type: "gaussian"
      std: 0.05
    }
    bias_filler {
      type: "constant"
    }
  }
}
layer {
  name: "relu3"
  type: "ReLU"
  bottom: "conv3"
  top: "conv3"
}
layer {
  name: "cccp5"
  type: "Convolution"
  bottom: "conv3"
  top: "cccp5"
  param {
    lr_mult: 1
    decay_mult: 1
  }
  param {
    lr_mult: 2
    decay_mult: 0
  }
  convolution_param {
    num_output: 192
    kernel_size: 1
    group: 1
    weight_filler {
      type: "gaussian"
      std: 0.05
    }
    bias_filler {
      type: "constant"
      value: 0
    }
  }
}
layer {
  name: "relu_cccp5"
  type: "ReLU"
  bottom: "cccp5"
  top: "cccp5"
}
layer {
  name: "cccp6"
  type: "Convolution"
  bottom: "cccp5"
  top: "cccp6"
  param {
    lr_mult: 0.1
    decay_mult: 1
  }
  param {
    lr_mult: 0.1
    decay_mult: 0
  }
  convolution_param {
    num_output: 10
    kernel_size: 1
    group: 1
    weight_filler {
      type: "gaussian"
      std: 0.05
    }
    bias_filler {
      type: "constant"
      value: 0
    }
  }
}
layer {
  name: "relu_cccp6"
  type: "ReLU"
  bottom: "cccp6"
  top: "cccp6"
}
layer {
  name: "ip1"
  type: "InnerProduct"
  bottom: "cccp6"
  top: "ip1"
  param {
    lr_mult: 1
  }
  param {
    lr_mult: 2
  }
  inner_product_param {
    num_output: 640
    weight_filler {
      type: "gaussian"
      std: 0.001
    }
    bias_filler {
      type: "constant"
    }
  }
}
layer {
  name: "ip2"
  type: "InnerProduct"
  bottom: "ip1"
  top: "ip2"
  param {
    lr_mult: 1
  }
  param {
    lr_mult: 2
  }
  inner_product_param {
    num_output: 64
    weight_filler {
      type: "gaussian"
      std: 0.01
    }
    bias_filler {
      type: "constant"
    }
  }
}
layer {
  name: "ip3"
  type: "Sigmoid"
  bottom: "ip2"
  top: "ip3"
}
layer {
  name: "ip4"
  type: "InnerProduct"
  bottom: "ip3"
  top: "ip4"
  param {
    lr_mult: 1
  }
  param {
    lr_mult: 2
  }
  inner_product_param {
    num_output: 10
    weight_filler {
      type: "xavier"
    }
    bias_filler {
      type: "constant"
    }
  }
}
layer {
  name: "loss"
  type: "SoftmaxWithLoss"
  bottom: "ip4"
  bottom: "label"
  top: "loss"
}
I0118 10:17:24.596896  8735 layer_factory.hpp:76] Creating layer cifar
I0118 10:17:24.597569  8735 net.cpp:106] Creating Layer cifar
I0118 10:17:24.597607  8735 net.cpp:411] cifar -> data
I0118 10:17:24.597638  8735 net.cpp:411] cifar -> label
I0118 10:17:24.695439  8742 db_leveldb.cpp:18] Opened leveldb examples/A-cifar10/cifar-train-leveldb
I0118 10:17:24.754545  8735 data_layer.cpp:41] output data size: 128,3,32,32
I0118 10:17:24.758296  8735 net.cpp:150] Setting up cifar
I0118 10:17:24.758347  8735 net.cpp:157] Top shape: 128 3 32 32 (393216)
I0118 10:17:24.758358  8735 net.cpp:157] Top shape: 128 (128)
I0118 10:17:24.758363  8735 net.cpp:165] Memory required for data: 1573376
I0118 10:17:24.758376  8735 layer_factory.hpp:76] Creating layer conv1
I0118 10:17:24.758404  8735 net.cpp:106] Creating Layer conv1
I0118 10:17:24.758416  8735 net.cpp:454] conv1 <- data
I0118 10:17:24.758438  8735 net.cpp:411] conv1 -> conv1
I0118 10:17:24.920218  8735 cudnn_conv_layer.cpp:194] Reallocating workspace storage: 21504
I0118 10:17:24.920275  8735 net.cpp:150] Setting up conv1
I0118 10:17:24.920295  8735 net.cpp:157] Top shape: 128 192 32 32 (25165824)
I0118 10:17:24.920300  8735 net.cpp:165] Memory required for data: 102236672
I0118 10:17:24.920356  8735 layer_factory.hpp:76] Creating layer relu1
I0118 10:17:24.920378  8735 net.cpp:106] Creating Layer relu1
I0118 10:17:24.920387  8735 net.cpp:454] relu1 <- conv1
I0118 10:17:24.920398  8735 net.cpp:397] relu1 -> conv1 (in-place)
I0118 10:17:24.920878  8735 net.cpp:150] Setting up relu1
I0118 10:17:24.920896  8735 net.cpp:157] Top shape: 128 192 32 32 (25165824)
I0118 10:17:24.920902  8735 net.cpp:165] Memory required for data: 202899968
I0118 10:17:24.920908  8735 layer_factory.hpp:76] Creating layer cccp1
I0118 10:17:24.920923  8735 net.cpp:106] Creating Layer cccp1
I0118 10:17:24.920929  8735 net.cpp:454] cccp1 <- conv1
I0118 10:17:24.920938  8735 net.cpp:411] cccp1 -> cccp1
I0118 10:17:24.923527  8735 cudnn_conv_layer.cpp:194] Reallocating workspace storage: 24984
I0118 10:17:24.923559  8735 net.cpp:150] Setting up cccp1
I0118 10:17:24.923570  8735 net.cpp:157] Top shape: 128 160 32 32 (20971520)
I0118 10:17:24.923576  8735 net.cpp:165] Memory required for data: 286786048
I0118 10:17:24.923590  8735 layer_factory.hpp:76] Creating layer relu_cccp1
I0118 10:17:24.923601  8735 net.cpp:106] Creating Layer relu_cccp1
I0118 10:17:24.923609  8735 net.cpp:454] relu_cccp1 <- cccp1
I0118 10:17:24.923616  8735 net.cpp:397] relu_cccp1 -> cccp1 (in-place)
I0118 10:17:24.923933  8735 net.cpp:150] Setting up relu_cccp1
I0118 10:17:24.923951  8735 net.cpp:157] Top shape: 128 160 32 32 (20971520)
I0118 10:17:24.923957  8735 net.cpp:165] Memory required for data: 370672128
I0118 10:17:24.923964  8735 layer_factory.hpp:76] Creating layer cccp2
I0118 10:17:24.923975  8735 net.cpp:106] Creating Layer cccp2
I0118 10:17:24.923982  8735 net.cpp:454] cccp2 <- cccp1
I0118 10:17:24.923991  8735 net.cpp:411] cccp2 -> cccp2
I0118 10:17:24.925438  8735 cudnn_conv_layer.cpp:194] Reallocating workspace storage: 24984
I0118 10:17:24.925468  8735 net.cpp:150] Setting up cccp2
I0118 10:17:24.925480  8735 net.cpp:157] Top shape: 128 96 32 32 (12582912)
I0118 10:17:24.925487  8735 net.cpp:165] Memory required for data: 421003776
I0118 10:17:24.925500  8735 layer_factory.hpp:76] Creating layer relu_cccp2
I0118 10:17:24.925509  8735 net.cpp:106] Creating Layer relu_cccp2
I0118 10:17:24.925516  8735 net.cpp:454] relu_cccp2 <- cccp2
I0118 10:17:24.925524  8735 net.cpp:397] relu_cccp2 -> cccp2 (in-place)
I0118 10:17:24.925850  8735 net.cpp:150] Setting up relu_cccp2
I0118 10:17:24.925868  8735 net.cpp:157] Top shape: 128 96 32 32 (12582912)
I0118 10:17:24.925873  8735 net.cpp:165] Memory required for data: 471335424
I0118 10:17:24.925879  8735 layer_factory.hpp:76] Creating layer pool1
I0118 10:17:24.925890  8735 net.cpp:106] Creating Layer pool1
I0118 10:17:24.925896  8735 net.cpp:454] pool1 <- cccp2
I0118 10:17:24.925904  8735 net.cpp:411] pool1 -> pool1
I0118 10:17:24.926270  8735 net.cpp:150] Setting up pool1
I0118 10:17:24.926287  8735 net.cpp:157] Top shape: 128 96 16 16 (3145728)
I0118 10:17:24.926293  8735 net.cpp:165] Memory required for data: 483918336
I0118 10:17:24.926301  8735 layer_factory.hpp:76] Creating layer drop3
I0118 10:17:24.926314  8735 net.cpp:106] Creating Layer drop3
I0118 10:17:24.926321  8735 net.cpp:454] drop3 <- pool1
I0118 10:17:24.926329  8735 net.cpp:397] drop3 -> pool1 (in-place)
I0118 10:17:24.926364  8735 net.cpp:150] Setting up drop3
I0118 10:17:24.926376  8735 net.cpp:157] Top shape: 128 96 16 16 (3145728)
I0118 10:17:24.926383  8735 net.cpp:165] Memory required for data: 496501248
I0118 10:17:24.926388  8735 layer_factory.hpp:76] Creating layer conv2
I0118 10:17:24.926399  8735 net.cpp:106] Creating Layer conv2
I0118 10:17:24.926405  8735 net.cpp:454] conv2 <- pool1
I0118 10:17:24.926414  8735 net.cpp:411] conv2 -> conv2
I0118 10:17:24.944380  8735 cudnn_conv_layer.cpp:194] Reallocating workspace storage: 14016
I0118 10:17:24.944538  8735 net.cpp:150] Setting up conv2
I0118 10:17:24.944555  8735 net.cpp:157] Top shape: 128 192 16 16 (6291456)
I0118 10:17:24.944562  8735 net.cpp:165] Memory required for data: 521667072
I0118 10:17:24.944573  8735 layer_factory.hpp:76] Creating layer relu2
I0118 10:17:24.944602  8735 net.cpp:106] Creating Layer relu2
I0118 10:17:24.944609  8735 net.cpp:454] relu2 <- conv2
I0118 10:17:24.944618  8735 net.cpp:397] relu2 -> conv2 (in-place)
I0118 10:17:24.944937  8735 net.cpp:150] Setting up relu2
I0118 10:17:24.944954  8735 net.cpp:157] Top shape: 128 192 16 16 (6291456)
I0118 10:17:24.944960  8735 net.cpp:165] Memory required for data: 546832896
I0118 10:17:24.944967  8735 layer_factory.hpp:76] Creating layer cccp3
I0118 10:17:24.944979  8735 net.cpp:106] Creating Layer cccp3
I0118 10:17:24.944985  8735 net.cpp:454] cccp3 <- conv2
I0118 10:17:24.944995  8735 net.cpp:411] cccp3 -> cccp3
I0118 10:17:24.947394  8735 cudnn_conv_layer.cpp:194] Reallocating workspace storage: 11160
I0118 10:17:24.947429  8735 net.cpp:150] Setting up cccp3
I0118 10:17:24.947443  8735 net.cpp:157] Top shape: 128 192 16 16 (6291456)
I0118 10:17:24.947448  8735 net.cpp:165] Memory required for data: 571998720
I0118 10:17:24.947463  8735 layer_factory.hpp:76] Creating layer relu_cccp3
I0118 10:17:24.947474  8735 net.cpp:106] Creating Layer relu_cccp3
I0118 10:17:24.947479  8735 net.cpp:454] relu_cccp3 <- cccp3
I0118 10:17:24.947489  8735 net.cpp:397] relu_cccp3 -> cccp3 (in-place)
I0118 10:17:24.947698  8735 net.cpp:150] Setting up relu_cccp3
I0118 10:17:24.947715  8735 net.cpp:157] Top shape: 128 192 16 16 (6291456)
I0118 10:17:24.947721  8735 net.cpp:165] Memory required for data: 597164544
I0118 10:17:24.947726  8735 layer_factory.hpp:76] Creating layer cccp4
I0118 10:17:24.947741  8735 net.cpp:106] Creating Layer cccp4
I0118 10:17:24.947746  8735 net.cpp:454] cccp4 <- cccp3
I0118 10:17:24.947756  8735 net.cpp:411] cccp4 -> cccp4
I0118 10:17:24.950201  8735 cudnn_conv_layer.cpp:194] Reallocating workspace storage: 11160
I0118 10:17:24.950235  8735 net.cpp:150] Setting up cccp4
I0118 10:17:24.950248  8735 net.cpp:157] Top shape: 128 192 16 16 (6291456)
I0118 10:17:24.950253  8735 net.cpp:165] Memory required for data: 622330368
I0118 10:17:24.950263  8735 layer_factory.hpp:76] Creating layer relu_cccp4
I0118 10:17:24.950275  8735 net.cpp:106] Creating Layer relu_cccp4
I0118 10:17:24.950281  8735 net.cpp:454] relu_cccp4 <- cccp4
I0118 10:17:24.950290  8735 net.cpp:397] relu_cccp4 -> cccp4 (in-place)
I0118 10:17:24.950626  8735 net.cpp:150] Setting up relu_cccp4
I0118 10:17:24.950644  8735 net.cpp:157] Top shape: 128 192 16 16 (6291456)
I0118 10:17:24.950649  8735 net.cpp:165] Memory required for data: 647496192
I0118 10:17:24.950655  8735 layer_factory.hpp:76] Creating layer pool2
I0118 10:17:24.950667  8735 net.cpp:106] Creating Layer pool2
I0118 10:17:24.950675  8735 net.cpp:454] pool2 <- cccp4
I0118 10:17:24.950682  8735 net.cpp:411] pool2 -> pool2
I0118 10:17:24.950898  8735 net.cpp:150] Setting up pool2
I0118 10:17:24.950914  8735 net.cpp:157] Top shape: 128 192 8 8 (1572864)
I0118 10:17:24.950919  8735 net.cpp:165] Memory required for data: 653787648
I0118 10:17:24.950925  8735 layer_factory.hpp:76] Creating layer drop6
I0118 10:17:24.950942  8735 net.cpp:106] Creating Layer drop6
I0118 10:17:24.950949  8735 net.cpp:454] drop6 <- pool2
I0118 10:17:24.950958  8735 net.cpp:397] drop6 -> pool2 (in-place)
I0118 10:17:24.950992  8735 net.cpp:150] Setting up drop6
I0118 10:17:24.951004  8735 net.cpp:157] Top shape: 128 192 8 8 (1572864)
I0118 10:17:24.951009  8735 net.cpp:165] Memory required for data: 660079104
I0118 10:17:24.951014  8735 layer_factory.hpp:76] Creating layer conv3
I0118 10:17:24.951028  8735 net.cpp:106] Creating Layer conv3
I0118 10:17:24.951037  8735 net.cpp:454] conv3 <- pool2
I0118 10:17:24.951046  8735 net.cpp:411] conv3 -> conv3
I0118 10:17:24.964648  8735 cudnn_conv_layer.cpp:194] Reallocating workspace storage: 7968
I0118 10:17:24.964685  8735 net.cpp:150] Setting up conv3
I0118 10:17:24.964696  8735 net.cpp:157] Top shape: 128 192 8 8 (1572864)
I0118 10:17:24.964702  8735 net.cpp:165] Memory required for data: 666370560
I0118 10:17:24.964714  8735 layer_factory.hpp:76] Creating layer relu3
I0118 10:17:24.964725  8735 net.cpp:106] Creating Layer relu3
I0118 10:17:24.964731  8735 net.cpp:454] relu3 <- conv3
I0118 10:17:24.964753  8735 net.cpp:397] relu3 -> conv3 (in-place)
I0118 10:17:24.964961  8735 net.cpp:150] Setting up relu3
I0118 10:17:24.964977  8735 net.cpp:157] Top shape: 128 192 8 8 (1572864)
I0118 10:17:24.964983  8735 net.cpp:165] Memory required for data: 672662016
I0118 10:17:24.964989  8735 layer_factory.hpp:76] Creating layer cccp5
I0118 10:17:24.965003  8735 net.cpp:106] Creating Layer cccp5
I0118 10:17:24.965011  8735 net.cpp:454] cccp5 <- conv3
I0118 10:17:24.965020  8735 net.cpp:411] cccp5 -> cccp5
I0118 10:17:24.967473  8735 cudnn_conv_layer.cpp:194] Reallocating workspace storage: 7704
I0118 10:17:24.967509  8735 net.cpp:150] Setting up cccp5
I0118 10:17:24.967520  8735 net.cpp:157] Top shape: 128 192 8 8 (1572864)
I0118 10:17:24.967526  8735 net.cpp:165] Memory required for data: 678953472
I0118 10:17:24.967536  8735 layer_factory.hpp:76] Creating layer relu_cccp5
I0118 10:17:24.967545  8735 net.cpp:106] Creating Layer relu_cccp5
I0118 10:17:24.967551  8735 net.cpp:454] relu_cccp5 <- cccp5
I0118 10:17:24.967562  8735 net.cpp:397] relu_cccp5 -> cccp5 (in-place)
I0118 10:17:24.967896  8735 net.cpp:150] Setting up relu_cccp5
I0118 10:17:24.967913  8735 net.cpp:157] Top shape: 128 192 8 8 (1572864)
I0118 10:17:24.967919  8735 net.cpp:165] Memory required for data: 685244928
I0118 10:17:24.967926  8735 layer_factory.hpp:76] Creating layer cccp6
I0118 10:17:24.967939  8735 net.cpp:106] Creating Layer cccp6
I0118 10:17:24.967947  8735 net.cpp:454] cccp6 <- cccp5
I0118 10:17:24.967957  8735 net.cpp:411] cccp6 -> cccp6
I0118 10:17:24.969600  8735 cudnn_conv_layer.cpp:194] Reallocating workspace storage: 7704
I0118 10:17:24.969635  8735 net.cpp:150] Setting up cccp6
I0118 10:17:24.969646  8735 net.cpp:157] Top shape: 128 10 8 8 (81920)
I0118 10:17:24.969652  8735 net.cpp:165] Memory required for data: 685572608
I0118 10:17:24.969667  8735 layer_factory.hpp:76] Creating layer relu_cccp6
I0118 10:17:24.969684  8735 net.cpp:106] Creating Layer relu_cccp6
I0118 10:17:24.969691  8735 net.cpp:454] relu_cccp6 <- cccp6
I0118 10:17:24.969702  8735 net.cpp:397] relu_cccp6 -> cccp6 (in-place)
I0118 10:17:24.969904  8735 net.cpp:150] Setting up relu_cccp6
I0118 10:17:24.969923  8735 net.cpp:157] Top shape: 128 10 8 8 (81920)
I0118 10:17:24.969933  8735 net.cpp:165] Memory required for data: 685900288
I0118 10:17:24.969938  8735 layer_factory.hpp:76] Creating layer ip1
I0118 10:17:24.969955  8735 net.cpp:106] Creating Layer ip1
I0118 10:17:24.969962  8735 net.cpp:454] ip1 <- cccp6
I0118 10:17:24.969974  8735 net.cpp:411] ip1 -> ip1
I0118 10:17:24.985317  8735 net.cpp:150] Setting up ip1
I0118 10:17:24.985338  8735 net.cpp:157] Top shape: 128 640 (81920)
I0118 10:17:24.985344  8735 net.cpp:165] Memory required for data: 686227968
I0118 10:17:24.985354  8735 layer_factory.hpp:76] Creating layer ip2
I0118 10:17:24.985368  8735 net.cpp:106] Creating Layer ip2
I0118 10:17:24.985375  8735 net.cpp:454] ip2 <- ip1
I0118 10:17:24.985384  8735 net.cpp:411] ip2 -> ip2
I0118 10:17:24.986992  8735 net.cpp:150] Setting up ip2
I0118 10:17:24.987009  8735 net.cpp:157] Top shape: 128 64 (8192)
I0118 10:17:24.987015  8735 net.cpp:165] Memory required for data: 686260736
I0118 10:17:24.987023  8735 layer_factory.hpp:76] Creating layer ip3
I0118 10:17:24.987033  8735 net.cpp:106] Creating Layer ip3
I0118 10:17:24.987040  8735 net.cpp:454] ip3 <- ip2
I0118 10:17:24.987046  8735 net.cpp:411] ip3 -> ip3
I0118 10:17:24.987421  8735 net.cpp:150] Setting up ip3
I0118 10:17:24.987439  8735 net.cpp:157] Top shape: 128 64 (8192)
I0118 10:17:24.987445  8735 net.cpp:165] Memory required for data: 686293504
I0118 10:17:24.987452  8735 layer_factory.hpp:76] Creating layer ip4
I0118 10:17:24.987465  8735 net.cpp:106] Creating Layer ip4
I0118 10:17:24.987473  8735 net.cpp:454] ip4 <- ip3
I0118 10:17:24.987483  8735 net.cpp:411] ip4 -> ip4
I0118 10:17:24.987632  8735 net.cpp:150] Setting up ip4
I0118 10:17:24.987649  8735 net.cpp:157] Top shape: 128 10 (1280)
I0118 10:17:24.987655  8735 net.cpp:165] Memory required for data: 686298624
I0118 10:17:24.987682  8735 layer_factory.hpp:76] Creating layer loss
I0118 10:17:24.987699  8735 net.cpp:106] Creating Layer loss
I0118 10:17:24.987707  8735 net.cpp:454] loss <- ip4
I0118 10:17:24.987714  8735 net.cpp:454] loss <- label
I0118 10:17:24.987723  8735 net.cpp:411] loss -> loss
I0118 10:17:24.987743  8735 layer_factory.hpp:76] Creating layer loss
…
I0118 10:17:24.989388  8735 solver.cpp:180] Creating test net (#0) specified by net file: examples/A-cifar10/train_hash.prototxt
I0118 10:17:24.989445  8735 net.cpp:322] The NetState phase (1) differed from the phase (0) specified by a rule in layer cifar
I0118 10:17:24.989737  8735 net.cpp:49] Initializing net from parameters: 
name: "CIFAR10_full"
state {
  phase: TEST
}
layer {
  name: "cifar"
  type: "Data"
  top: "data"
  top: "label"
  include {
    phase: TEST
  }
  data_param {
    source: "examples/A-cifar10/cifar-test-leveldb"
    batch_size: 100
  }
}
layer {
  name: "conv1"
  type: "Convolution"
  bottom: "data"
  top: "conv1"
  param {
    lr_mult: 1
    decay_mult: 1
  }
  param {
    lr_mult: 2
    decay_mult: 0
  }
  convolution_param {
    num_output: 192
    pad: 2
    kernel_size: 5
    weight_filler {
      type: "gaussian"
      std: 0.05
    }
    bias_filler {
      type: "constant"
    }
  }
}
layer {
  name: "relu1"
  type: "ReLU"
  bottom: "conv1"
  top: "conv1"
}
layer {
  name: "cccp1"
  type: "Convolution"
  bottom: "conv1"
  top: "cccp1"
  param {
    lr_mult: 1
    decay_mult: 1
  }
  param {
    lr_mult: 2
    decay_mult: 0
  }
  convolution_param {
    num_output: 160
    kernel_size: 1
    group: 1
    weight_filler {
      type: "gaussian"
      std: 0.05
    }
    bias_filler {
      type: "constant"
      value: 0
    }
  }
}
layer {
  name: "relu_cccp1"
  type: "ReLU"
  bottom: "cccp1"
  top: "cccp1"
}
layer {
  name: "cccp2"
  type: "Convolution"
  bottom: "cccp1"
  top: "cccp2"
  param {
    lr_mult: 1
    decay_mult: 1
  }
  param {
    lr_mult: 2
    decay_mult: 0
  }
  convolution_param {
    num_output: 96
    kernel_size: 1
    group: 1
    weight_filler {
      type: "gaussian"
      std: 0.05
    }
    bias_filler {
      type: "constant"
      value: 0
    }
  }
}
layer {
  name: "relu_cccp2"
  type: "ReLU"
  bottom: "cccp2"
  top: "cccp2"
}
layer {
  name: "pool1"
  type: "Pooling"
  bottom: "cccp2"
  top: "pool1"
  pooling_param {
    pool: MAX
    kernel_size: 3
    stride: 2
  }
}
layer {
  name: "drop3"
  type: "Dropout"
  bottom: "pool1"
  top: "pool1"
  dropout_param {
    dropout_ratio: 0.5
  }
}
layer {
  name: "conv2"
  type: "Convolution"
  bottom: "pool1"
  top: "conv2"
  param {
    lr_mult: 1
    decay_mult: 1
  }
  param {
    lr_mult: 2
    decay_mult: 0
  }
  convolution_param {
    num_output: 192
    pad: 2
    kernel_size: 5
    weight_filler {
      type: "gaussian"
      std: 0.05
    }
    bias_filler {
      type: "constant"
    }
  }
}
layer {
  name: "relu2"
  type: "ReLU"
  bottom: "conv2"
  top: "conv2"
}
layer {
  name: "cccp3"
  type: "Convolution"
  bottom: "conv2"
  top: "cccp3"
  param {
    lr_mult: 1
    decay_mult: 1
  }
  param {
    lr_mult: 2
    decay_mult: 0
  }
  convolution_param {
    num_output: 192
    kernel_size: 1
    group: 1
    weight_filler {
      type: "gaussian"
      std: 0.05
    }
    bias_filler {
      type: "constant"
      value: 0
    }
  }
}
layer {
  name: "relu_cccp3"
  type: "ReLU"
  bottom: "cccp3"
  top: "cccp3"
}
layer {
  name: "cccp4"
  type: "Convolution"
  bottom: "cccp3"
  top: "cccp4"
  param {
    lr_mult: 1
    decay_mult: 1
  }
  param {
    lr_mult: 2
    decay_mult: 0
  }
  convolution_param {
    num_output: 192
    kernel_size: 1
    group: 1
    weight_filler {
      type: "gaussian"
      std: 0.05
    }
    bias_filler {
      type: "constant"
      value: 0
    }
  }
}
layer {
  name: "relu_cccp4"
  type: "ReLU"
  bottom: "cccp4"
  top: "cccp4"
}
layer {
  name: "pool2"
  type: "Pooling"
  bottom: "cccp4"
  top: "pool2"
  pooling_param {
    pool: AVE
    kernel_size: 3
    stride: 2
  }
}
layer {
  name: "drop6"
  type: "Dropout"
  bottom: "pool2"
  top: "pool2"
  dropout_param {
    dropout_ratio: 0.5
  }
}
layer {
  name: "conv3"
  type: "Convolution"
  bottom: "pool2"
  top: "conv3"
  param {
    lr_mult: 1
    decay_mult: 1
  }
  param {
    lr_mult: 2
    decay_mult: 0
  }
  convolution_param {
    num_output: 192
    pad: 1
    kernel_size: 3
    weight_filler {
      type: "gaussian"
      std: 0.05
    }
    bias_filler {
      type: "constant"
    }
  }
}
layer {
  name: "relu3"
  type: "ReLU"
  bottom: "conv3"
  top: "conv3"
}
layer {
  name: "cccp5"
  type: "Convolution"
  bottom: "conv3"
  top: "cccp5"
  param {
    lr_mult: 1
    decay_mult: 1
  }
  param {
    lr_mult: 2
    decay_mult: 0
  }
  convolution_param {
    num_output: 192
    kernel_size: 1
    group: 1
    weight_filler {
      type: "gaussian"
      std: 0.05
    }
    bias_filler {
      type: "constant"
      value: 0
    }
  }
}
layer {
  name: "relu_cccp5"
  type: "ReLU"
  bottom: "cccp5"
  top: "cccp5"
}
layer {
  name: "cccp6"
  type: "Convolution"
  bottom: "cccp5"
  top: "cccp6"
  param {
    lr_mult: 0.1
    decay_mult: 1
  }
  param {
    lr_mult: 0.1
    decay_mult: 0
  }
  convolution_param {
    num_output: 10
    kernel_size: 1
    group: 1
    weight_filler {
      type: "gaussian"
      std: 0.05
    }
    bias_filler {
      type: "constant"
      value: 0
    }
  }
}
layer {
  name: "relu_cccp6"
  type: "ReLU"
  bottom: "cccp6"
  top: "cccp6"
}
layer {
  name: "ip1"
  type: "InnerProduct"
  bottom: "cccp6"
  top: "ip1"
  param {
    lr_mult: 1
  }
  param {
    lr_mult: 2
  }
  inner_product_param {
    num_output: 640
    weight_filler {
      type: "gaussian"
      std: 0.001
    }
    bias_filler {
      type: "constant"
    }
  }
}
layer {
  name: "ip2"
  type: "InnerProduct"
  bottom: "ip1"
  top: "ip2"
  param {
    lr_mult: 1
  }
  param {
    lr_mult: 2
  }
  inner_product_param {
    num_output: 64
    weight_filler {
      type: "gaussian"
      std: 0.01
    }
    bias_filler {
      type: "constant"
    }
  }
}
layer {
  name: "ip3"
  type: "Sigmoid"
  bottom: "ip2"
  top: "ip3"
}
layer {
  name: "ip4"
  type: "InnerProduct"
  bottom: "ip3"
  top: "ip4"
  param {
    lr_mult: 1
  }
  param {
    lr_mult: 2
  }
  inner_product_param {
    num_output: 10
    weight_filler {
      type: "xavier"
    }
    bias_filler {
      type: "constant"
    }
  }
}
layer {
  name: "accuracy"
  type: "Accuracy"
  bottom: "ip4"
  bottom: "label"
  top: "accuracy"
  include {
    phase: TEST
  }
}
layer {
  name: "loss"
  type: "SoftmaxWithLoss"
  bottom: "ip4"
  bottom: "label"
  top: "loss"
}
I0118 10:17:24.989974  8735 layer_factory.hpp:76] Creating layer cifar
I0118 10:17:24.990130  8735 net.cpp:106] Creating Layer cifar
I0118 10:17:24.990146  8735 net.cpp:411] cifar -> data
I0118 10:17:24.990159  8735 net.cpp:411] cifar -> label
I0118 10:17:25.079216  8744 db_leveldb.cpp:18] Opened leveldb examples/A-cifar10/cifar-test-leveldb
I0118 10:17:25.079852  8735 data_layer.cpp:41] output data size: 100,3,32,32
I0118 10:17:25.083984  8735 net.cpp:150] Setting up cifar
I0118 10:17:25.084024  8735 net.cpp:157] Top shape: 100 3 32 32 (307200)
I0118 10:17:25.084033  8735 net.cpp:157] Top shape: 100 (100)
I0118 10:17:25.084039  8735 net.cpp:165] Memory required for data: 1229200
I0118 10:17:25.084050  8735 layer_factory.hpp:76] Creating layer label_cifar_1_split
I0118 10:17:25.084075  8735 net.cpp:106] Creating Layer label_cifar_1_split
I0118 10:17:25.084084  8735 net.cpp:454] label_cifar_1_split <- label
I0118 10:17:25.084095  8735 net.cpp:411] label_cifar_1_split -> label_cifar_1_split_0
I0118 10:17:25.084111  8735 net.cpp:411] label_cifar_1_split -> label_cifar_1_split_1
I0118 10:17:25.084210  8735 net.cpp:150] Setting up label_cifar_1_split
I0118 10:17:25.084224  8735 net.cpp:157] Top shape: 100 (100)
I0118 10:17:25.084231  8735 net.cpp:157] Top shape: 100 (100)
I0118 10:17:25.084238  8735 net.cpp:165] Memory required for data: 1230000
I0118 10:17:25.084244  8735 layer_factory.hpp:76] Creating layer conv1
I0118 10:17:25.084264  8735 net.cpp:106] Creating Layer conv1
I0118 10:17:25.084273  8735 net.cpp:454] conv1 <- data
I0118 10:17:25.084287  8735 net.cpp:411] conv1 -> conv1
I0118 10:17:25.086580  8735 cudnn_conv_layer.cpp:194] Reallocating workspace storage: 21504
I0118 10:17:25.086622  8735 net.cpp:150] Setting up conv1
I0118 10:17:25.086637  8735 net.cpp:157] Top shape: 100 192 32 32 (19660800)
I0118 10:17:25.086643  8735 net.cpp:165] Memory required for data: 79873200
I0118 10:17:25.086660  8735 layer_factory.hpp:76] Creating layer relu1
I0118 10:17:25.086673  8735 net.cpp:106] Creating Layer relu1
I0118 10:17:25.086678  8735 net.cpp:454] relu1 <- conv1
I0118 10:17:25.086690  8735 net.cpp:397] relu1 -> conv1 (in-place)
I0118 10:17:25.087059  8735 net.cpp:150] Setting up relu1
I0118 10:17:25.087079  8735 net.cpp:157] Top shape: 100 192 32 32 (19660800)
I0118 10:17:25.087085  8735 net.cpp:165] Memory required for data: 158516400
I0118 10:17:25.087093  8735 layer_factory.hpp:76] Creating layer cccp1
I0118 10:17:25.087115  8735 net.cpp:106] Creating Layer cccp1
I0118 10:17:25.087123  8735 net.cpp:454] cccp1 <- conv1
I0118 10:17:25.087177  8735 net.cpp:411] cccp1 -> cccp1
I0118 10:17:25.089907  8735 cudnn_conv_layer.cpp:194] Reallocating workspace storage: 24984
I0118 10:17:25.089946  8735 net.cpp:150] Setting up cccp1
I0118 10:17:25.089984  8735 net.cpp:157] Top shape: 100 160 32 32 (16384000)
I0118 10:17:25.089992  8735 net.cpp:165] Memory required for data: 224052400
I0118 10:17:25.090044  8735 layer_factory.hpp:76] Creating layer relu_cccp1
I0118 10:17:25.090059  8735 net.cpp:106] Creating Layer relu_cccp1
I0118 10:17:25.090065  8735 net.cpp:454] relu_cccp1 <- cccp1
I0118 10:17:25.090085  8735 net.cpp:397] relu_cccp1 -> cccp1 (in-place)
I0118 10:17:25.090467  8735 net.cpp:150] Setting up relu_cccp1
I0118 10:17:25.090489  8735 net.cpp:157] Top shape: 100 160 32 32 (16384000)
I0118 10:17:25.090497  8735 net.cpp:165] Memory required for data: 289588400
I0118 10:17:25.090503  8735 layer_factory.hpp:76] Creating layer cccp2
I0118 10:17:25.090519  8735 net.cpp:106] Creating Layer cccp2
I0118 10:17:25.090525  8735 net.cpp:454] cccp2 <- cccp1
I0118 10:17:25.090538  8735 net.cpp:411] cccp2 -> cccp2
I0118 10:17:25.092869  8735 cudnn_conv_layer.cpp:194] Reallocating workspace storage: 24984
I0118 10:17:25.092907  8735 net.cpp:150] Setting up cccp2
I0118 10:17:25.092919  8735 net.cpp:157] Top shape: 100 96 32 32 (9830400)
I0118 10:17:25.092926  8735 net.cpp:165] Memory required for data: 328910000
I0118 10:17:25.092942  8735 layer_factory.hpp:76] Creating layer relu_cccp2
I0118 10:17:25.092957  8735 net.cpp:106] Creating Layer relu_cccp2
I0118 10:17:25.092965  8735 net.cpp:454] relu_cccp2 <- cccp2
I0118 10:17:25.092978  8735 net.cpp:397] relu_cccp2 -> cccp2 (in-place)
I0118 10:17:25.093214  8735 net.cpp:150] Setting up relu_cccp2
I0118 10:17:25.093230  8735 net.cpp:157] Top shape: 100 96 32 32 (9830400)
I0118 10:17:25.093236  8735 net.cpp:165] Memory required for data: 368231600
I0118 10:17:25.093243  8735 layer_factory.hpp:76] Creating layer pool1
I0118 10:17:25.093256  8735 net.cpp:106] Creating Layer pool1
I0118 10:17:25.093262  8735 net.cpp:454] pool1 <- cccp2
I0118 10:17:25.093274  8735 net.cpp:411] pool1 -> pool1
I0118 10:17:25.093735  8735 net.cpp:150] Setting up pool1
I0118 10:17:25.093752  8735 net.cpp:157] Top shape: 100 96 16 16 (2457600)
I0118 10:17:25.093758  8735 net.cpp:165] Memory required for data: 378062000
I0118 10:17:25.093765  8735 layer_factory.hpp:76] Creating layer drop3
I0118 10:17:25.093775  8735 net.cpp:106] Creating Layer drop3
I0118 10:17:25.093781  8735 net.cpp:454] drop3 <- pool1
I0118 10:17:25.093791  8735 net.cpp:397] drop3 -> pool1 (in-place)
I0118 10:17:25.093827  8735 net.cpp:150] Setting up drop3
I0118 10:17:25.093840  8735 net.cpp:157] Top shape: 100 96 16 16 (2457600)
I0118 10:17:25.093845  8735 net.cpp:165] Memory required for data: 387892400
I0118 10:17:25.093852  8735 layer_factory.hpp:76] Creating layer conv2
I0118 10:17:25.093863  8735 net.cpp:106] Creating Layer conv2
I0118 10:17:25.093869  8735 net.cpp:454] conv2 <- pool1
I0118 10:17:25.093883  8735 net.cpp:411] conv2 -> conv2
I0118 10:17:25.112411  8735 cudnn_conv_layer.cpp:194] Reallocating workspace storage: 14016
I0118 10:17:25.112462  8735 net.cpp:150] Setting up conv2
I0118 10:17:25.112476  8735 net.cpp:157] Top shape: 100 192 16 16 (4915200)
I0118 10:17:25.112483  8735 net.cpp:165] Memory required for data: 407553200
I0118 10:17:25.112494  8735 layer_factory.hpp:76] Creating layer relu2
I0118 10:17:25.112509  8735 net.cpp:106] Creating Layer relu2
I0118 10:17:25.112517  8735 net.cpp:454] relu2 <- conv2
I0118 10:17:25.112527  8735 net.cpp:397] relu2 -> conv2 (in-place)
I0118 10:17:25.112735  8735 net.cpp:150] Setting up relu2
I0118 10:17:25.112751  8735 net.cpp:157] Top shape: 100 192 16 16 (4915200)
I0118 10:17:25.112757  8735 net.cpp:165] Memory required for data: 427214000
I0118 10:17:25.112763  8735 layer_factory.hpp:76] Creating layer cccp3
I0118 10:17:25.112778  8735 net.cpp:106] Creating Layer cccp3
I0118 10:17:25.112787  8735 net.cpp:454] cccp3 <- conv2
I0118 10:17:25.112798  8735 net.cpp:411] cccp3 -> cccp3
I0118 10:17:25.115316  8735 cudnn_conv_layer.cpp:194] Reallocating workspace storage: 11160
I0118 10:17:25.115353  8735 net.cpp:150] Setting up cccp3
I0118 10:17:25.115363  8735 net.cpp:157] Top shape: 100 192 16 16 (4915200)
I0118 10:17:25.115386  8735 net.cpp:165] Memory required for data: 446874800
I0118 10:17:25.115403  8735 layer_factory.hpp:76] Creating layer relu_cccp3
I0118 10:17:25.115417  8735 net.cpp:106] Creating Layer relu_cccp3
I0118 10:17:25.115429  8735 net.cpp:454] relu_cccp3 <- cccp3
I0118 10:17:25.115437  8735 net.cpp:397] relu_cccp3 -> cccp3 (in-place)
I0118 10:17:25.115643  8735 net.cpp:150] Setting up relu_cccp3
I0118 10:17:25.115658  8735 net.cpp:157] Top shape: 100 192 16 16 (4915200)
I0118 10:17:25.115664  8735 net.cpp:165] Memory required for data: 466535600
I0118 10:17:25.115669  8735 layer_factory.hpp:76] Creating layer cccp4
I0118 10:17:25.115684  8735 net.cpp:106] Creating Layer cccp4
I0118 10:17:25.115694  8735 net.cpp:454] cccp4 <- cccp3
I0118 10:17:25.115705  8735 net.cpp:411] cccp4 -> cccp4
I0118 10:17:25.118670  8735 cudnn_conv_layer.cpp:194] Reallocating workspace storage: 11160
I0118 10:17:25.118711  8735 net.cpp:150] Setting up cccp4
I0118 10:17:25.118722  8735 net.cpp:157] Top shape: 100 192 16 16 (4915200)
I0118 10:17:25.118728  8735 net.cpp:165] Memory required for data: 486196400
I0118 10:17:25.118738  8735 layer_factory.hpp:76] Creating layer relu_cccp4
I0118 10:17:25.118748  8735 net.cpp:106] Creating Layer relu_cccp4
I0118 10:17:25.118754  8735 net.cpp:454] relu_cccp4 <- cccp4
I0118 10:17:25.118764  8735 net.cpp:397] relu_cccp4 -> cccp4 (in-place)
I0118 10:17:25.119112  8735 net.cpp:150] Setting up relu_cccp4
I0118 10:17:25.119128  8735 net.cpp:157] Top shape: 100 192 16 16 (4915200)
I0118 10:17:25.119134  8735 net.cpp:165] Memory required for data: 505857200
I0118 10:17:25.119141  8735 layer_factory.hpp:76] Creating layer pool2
I0118 10:17:25.119158  8735 net.cpp:106] Creating Layer pool2
I0118 10:17:25.119164  8735 net.cpp:454] pool2 <- cccp4
I0118 10:17:25.119173  8735 net.cpp:411] pool2 -> pool2
I0118 10:17:25.119398  8735 net.cpp:150] Setting up pool2
I0118 10:17:25.119415  8735 net.cpp:157] Top shape: 100 192 8 8 (1228800)
I0118 10:17:25.119421  8735 net.cpp:165] Memory required for data: 510772400
I0118 10:17:25.119426  8735 layer_factory.hpp:76] Creating layer drop6
I0118 10:17:25.119439  8735 net.cpp:106] Creating Layer drop6
I0118 10:17:25.119446  8735 net.cpp:454] drop6 <- pool2
I0118 10:17:25.119452  8735 net.cpp:397] drop6 -> pool2 (in-place)
I0118 10:17:25.119493  8735 net.cpp:150] Setting up drop6
I0118 10:17:25.119504  8735 net.cpp:157] Top shape: 100 192 8 8 (1228800)
I0118 10:17:25.119510  8735 net.cpp:165] Memory required for data: 515687600
I0118 10:17:25.119515  8735 layer_factory.hpp:76] Creating layer conv3
I0118 10:17:25.119530  8735 net.cpp:106] Creating Layer conv3
I0118 10:17:25.119539  8735 net.cpp:454] conv3 <- pool2
I0118 10:17:25.119551  8735 net.cpp:411] conv3 -> conv3
I0118 10:17:25.133051  8735 cudnn_conv_layer.cpp:194] Reallocating workspace storage: 7968
I0118 10:17:25.133091  8735 net.cpp:150] Setting up conv3
I0118 10:17:25.133102  8735 net.cpp:157] Top shape: 100 192 8 8 (1228800)
I0118 10:17:25.133108  8735 net.cpp:165] Memory required for data: 520602800
I0118 10:17:25.133119  8735 layer_factory.hpp:76] Creating layer relu3
I0118 10:17:25.133128  8735 net.cpp:106] Creating Layer relu3
I0118 10:17:25.133134  8735 net.cpp:454] relu3 <- conv3
I0118 10:17:25.133146  8735 net.cpp:397] relu3 -> conv3 (in-place)
I0118 10:17:25.133486  8735 net.cpp:150] Setting up relu3
I0118 10:17:25.133504  8735 net.cpp:157] Top shape: 100 192 8 8 (1228800)
I0118 10:17:25.133510  8735 net.cpp:165] Memory required for data: 525518000
I0118 10:17:25.133517  8735 layer_factory.hpp:76] Creating layer cccp5
I0118 10:17:25.133530  8735 net.cpp:106] Creating Layer cccp5
I0118 10:17:25.133538  8735 net.cpp:454] cccp5 <- conv3
I0118 10:17:25.133549  8735 net.cpp:411] cccp5 -> cccp5
I0118 10:17:25.135922  8735 cudnn_conv_layer.cpp:194] Reallocating workspace storage: 7704
I0118 10:17:25.135963  8735 net.cpp:150] Setting up cccp5
I0118 10:17:25.135974  8735 net.cpp:157] Top shape: 100 192 8 8 (1228800)
I0118 10:17:25.135980  8735 net.cpp:165] Memory required for data: 530433200
I0118 10:17:25.136006  8735 layer_factory.hpp:76] Creating layer relu_cccp5
I0118 10:17:25.136020  8735 net.cpp:106] Creating Layer relu_cccp5
I0118 10:17:25.136032  8735 net.cpp:454] relu_cccp5 <- cccp5
I0118 10:17:25.136040  8735 net.cpp:397] relu_cccp5 -> cccp5 (in-place)
I0118 10:17:25.136396  8735 net.cpp:150] Setting up relu_cccp5
I0118 10:17:25.136414  8735 net.cpp:157] Top shape: 100 192 8 8 (1228800)
I0118 10:17:25.136420  8735 net.cpp:165] Memory required for data: 535348400
I0118 10:17:25.136425  8735 layer_factory.hpp:76] Creating layer cccp6
I0118 10:17:25.136440  8735 net.cpp:106] Creating Layer cccp6
I0118 10:17:25.136447  8735 net.cpp:454] cccp6 <- cccp5
I0118 10:17:25.136458  8735 net.cpp:411] cccp6 -> cccp6
I0118 10:17:25.137717  8735 cudnn_conv_layer.cpp:194] Reallocating workspace storage: 7704
I0118 10:17:25.137753  8735 net.cpp:150] Setting up cccp6
I0118 10:17:25.137766  8735 net.cpp:157] Top shape: 100 10 8 8 (64000)
I0118 10:17:25.137773  8735 net.cpp:165] Memory required for data: 535604400
I0118 10:17:25.137786  8735 layer_factory.hpp:76] Creating layer relu_cccp6
I0118 10:17:25.137796  8735 net.cpp:106] Creating Layer relu_cccp6
I0118 10:17:25.137802  8735 net.cpp:454] relu_cccp6 <- cccp6
I0118 10:17:25.137814  8735 net.cpp:397] relu_cccp6 -> cccp6 (in-place)
I0118 10:17:25.138020  8735 net.cpp:150] Setting up relu_cccp6
I0118 10:17:25.138036  8735 net.cpp:157] Top shape: 100 10 8 8 (64000)
I0118 10:17:25.138044  8735 net.cpp:165] Memory required for data: 535860400
I0118 10:17:25.138051  8735 layer_factory.hpp:76] Creating layer ip1
I0118 10:17:25.138062  8735 net.cpp:106] Creating Layer ip1
I0118 10:17:25.138072  8735 net.cpp:454] ip1 <- cccp6
I0118 10:17:25.138080  8735 net.cpp:411] ip1 -> ip1
I0118 10:17:25.153390  8735 net.cpp:150] Setting up ip1
I0118 10:17:25.153411  8735 net.cpp:157] Top shape: 100 640 (64000)
I0118 10:17:25.153417  8735 net.cpp:165] Memory required for data: 536116400
I0118 10:17:25.153429  8735 layer_factory.hpp:76] Creating layer ip2
I0118 10:17:25.153440  8735 net.cpp:106] Creating Layer ip2
I0118 10:17:25.153446  8735 net.cpp:454] ip2 <- ip1
I0118 10:17:25.153457  8735 net.cpp:411] ip2 -> ip2
I0118 10:17:25.155078  8735 net.cpp:150] Setting up ip2
I0118 10:17:25.155095  8735 net.cpp:157] Top shape: 100 64 (6400)
I0118 10:17:25.155102  8735 net.cpp:165] Memory required for data: 536142000
I0118 10:17:25.155110  8735 layer_factory.hpp:76] Creating layer ip3
I0118 10:17:25.155122  8735 net.cpp:106] Creating Layer ip3
I0118 10:17:25.155127  8735 net.cpp:454] ip3 <- ip2
I0118 10:17:25.155134  8735 net.cpp:411] ip3 -> ip3
I0118 10:17:25.155532  8735 net.cpp:150] Setting up ip3
I0118 10:17:25.155550  8735 net.cpp:157] Top shape: 100 64 (6400)
I0118 10:17:25.155556  8735 net.cpp:165] Memory required for data: 536167600
I0118 10:17:25.155562  8735 layer_factory.hpp:76] Creating layer ip4
I0118 10:17:25.155575  8735 net.cpp:106] Creating Layer ip4
I0118 10:17:25.155582  8735 net.cpp:454] ip4 <- ip3
I0118 10:17:25.155591  8735 net.cpp:411] ip4 -> ip4
I0118 10:17:25.155740  8735 net.cpp:150] Setting up ip4
I0118 10:17:25.155753  8735 net.cpp:157] Top shape: 100 10 (1000)
I0118 10:17:25.155760  8735 net.cpp:165] Memory required for data: 536171600
I0118 10:17:25.155768  8735 layer_factory.hpp:76] Creating layer ip4_ip4_0_split
I0118 10:17:25.155778  8735 net.cpp:106] Creating Layer ip4_ip4_0_split
I0118 10:17:25.155783  8735 net.cpp:454] ip4_ip4_0_split <- ip4
I0118 10:17:25.155791  8735 net.cpp:411] ip4_ip4_0_split -> ip4_ip4_0_split_0
I0118 10:17:25.155803  8735 net.cpp:411] ip4_ip4_0_split -> ip4_ip4_0_split_1
I0118 10:17:25.155855  8735 net.cpp:150] Setting up ip4_ip4_0_split
I0118 10:17:25.155868  8735 net.cpp:157] Top shape: 100 10 (1000)
I0118 10:17:25.155874  8735 net.cpp:157] Top shape: 100 10 (1000)
I0118 10:17:25.155879  8735 net.cpp:165] Memory required for data: 536179600
I0118 10:17:25.155885  8735 layer_factory.hpp:76] Creating layer accuracy
I0118 10:17:25.156159  8735 net.cpp:106] Creating Layer accuracy
I0118 10:17:25.156173  8735 net.cpp:454] accuracy <- ip4_ip4_0_split_0
I0118 10:17:25.156195  8735 net.cpp:454] accuracy <- label_cifar_1_split_0
I0118 10:17:25.156204  8735 net.cpp:411] accuracy -> accuracy
…
