…
I0118 16:13:25.405241  9902 net.cpp:322] The NetState phase (0) differed from the phase (1) specified by a rule in layer mnist
I0118 16:13:25.405268  9902 net.cpp:322] The NetState phase (0) differed from the phase (1) specified by a rule in layer accuracy
I0118 16:13:25.405386  9902 net.cpp:49] Initializing net from parameters: 
name: "LeNet"
state {
  phase: TRAIN
}
layer {
  name: "mnist"
  type: "Data"
  top: "data"
  top: "label"
  include {
    phase: TRAIN
  }
  transform_param {
    scale: 0.00390625
  }
  data_param {
    source: "examples/A-mnist/mnist_train_lmdb"
    batch_size: 64
    backend: LMDB
  }
}
layer {
  name: "conv1"
  type: "Convolution"
  bottom: "data"
  top: "conv1"
  param {
    lr_mult: 1
  }
  param {
    lr_mult: 2
  }
  convolution_param {
    num_output: 20
    kernel_size: 5
    stride: 1
    weight_filler {
      type: "xavier"
    }
    bias_filler {
      type: "constant"
    }
  }
}
layer {
  name: "pool1"
  type: "Pooling"
  bottom: "conv1"
  top: "pool1"
  pooling_param {
    pool: MAX
    kernel_size: 2
    stride: 2
  }
}
layer {
  name: "conv2"
  type: "Convolution"
  bottom: "pool1"
  top: "conv2"
  param {
    lr_mult: 1
  }
  param {
    lr_mult: 2
  }
  convolution_param {
    num_output: 50
    kernel_size: 5
    stride: 1
    weight_filler {
      type: "xavier"
    }
    bias_filler {
      type: "constant"
    }
  }
}
layer {
  name: "pool2"
  type: "Pooling"
  bottom: "conv2"
  top: "pool2"
  pooling_param {
    pool: MAX
    kernel_size: 2
    stride: 2
  }
}
layer {
  name: "ip1"
  type: "InnerProduct"
  bottom: "pool2"
  top: "ip1"
  param {
    lr_mult: 1
  }
  param {
    lr_mult: 2
  }
  inner_product_param {
    num_output: 500
    weight_filler {
      type: "xavier"
    }
    bias_filler {
      type: "constant"
    }
  }
}
layer {
  name: "relu1"
  type: "ReLU"
  bottom: "ip1"
  top: "ip1"
}
layer {
  name: "ip2_sig"
  type: "InnerProduct"
  bottom: "ip1"
  top: "ip2_sig"
  param {
    lr_mult: 1
  }
  param {
    lr_mult: 2
  }
  inner_product_param {
    num_output: 16
    weight_filler {
      type: "xavier"
    }
    bias_filler {
      type: "constant"
    }
  }
}
layer {
  name: "ip2_hash"
  type: "Sigmoid"
  bottom: "ip2_sig"
  top: "ip2_hash"
}
layer {
  name: "ip3"
  type: "InnerProduct"
  bottom: "ip2_hash"
  top: "ip3"
  param {
    lr_mult: 1
  }
  param {
    lr_mult: 2
  }
  inner_product_param {
    num_output: 10
    weight_filler {
      type: "xavier"
    }
    bias_filler {
      type: "constant"
    }
  }
}
layer {
  name: "loss"
  type: "SoftmaxWithLoss"
  bottom: "ip3"
  bottom: "label"
  top: "loss"
}
I0118 16:13:25.405491  9902 layer_factory.hpp:76] Creating layer mnist
I0118 16:13:25.406141  9902 net.cpp:106] Creating Layer mnist
I0118 16:13:25.406188  9902 net.cpp:411] mnist -> data
I0118 16:13:25.406227  9902 net.cpp:411] mnist -> label
I0118 16:13:25.407199  9908 db_lmdb.cpp:38] Opened lmdb examples/A-mnist/mnist_train_lmdb
I0118 16:13:25.417037  9902 data_layer.cpp:41] output data size: 64,1,28,28
I0118 16:13:25.418157  9902 net.cpp:150] Setting up mnist
I0118 16:13:25.418195  9902 net.cpp:157] Top shape: 64 1 28 28 (50176)
I0118 16:13:25.418205  9902 net.cpp:157] Top shape: 64 (64)
I0118 16:13:25.418211  9902 net.cpp:165] Memory required for data: 200960
I0118 16:13:25.418221  9902 layer_factory.hpp:76] Creating layer conv1
I0118 16:13:25.418246  9902 net.cpp:106] Creating Layer conv1
I0118 16:13:25.418254  9902 net.cpp:454] conv1 <- data
I0118 16:13:25.418275  9902 net.cpp:411] conv1 -> conv1
I0118 16:13:25.580633  9902 cudnn_conv_layer.cpp:194] Reallocating workspace storage: 20664
I0118 16:13:25.580724  9902 net.cpp:150] Setting up conv1
I0118 16:13:25.580742  9902 net.cpp:157] Top shape: 64 20 24 24 (737280)
I0118 16:13:25.580749  9902 net.cpp:165] Memory required for data: 3150080
I0118 16:13:25.580780  9902 layer_factory.hpp:76] Creating layer pool1
I0118 16:13:25.580803  9902 net.cpp:106] Creating Layer pool1
I0118 16:13:25.580813  9902 net.cpp:454] pool1 <- conv1
I0118 16:13:25.580824  9902 net.cpp:411] pool1 -> pool1
I0118 16:13:25.581094  9902 net.cpp:150] Setting up pool1
I0118 16:13:25.581110  9902 net.cpp:157] Top shape: 64 20 12 12 (184320)
I0118 16:13:25.581115  9902 net.cpp:165] Memory required for data: 3887360
I0118 16:13:25.581121  9902 layer_factory.hpp:76] Creating layer conv2
I0118 16:13:25.581138  9902 net.cpp:106] Creating Layer conv2
I0118 16:13:25.581146  9902 net.cpp:454] conv2 <- pool1
I0118 16:13:25.581156  9902 net.cpp:411] conv2 -> conv2
I0118 16:13:25.582489  9902 cudnn_conv_layer.cpp:194] Reallocating workspace storage: 10272
I0118 16:13:25.582645  9902 net.cpp:150] Setting up conv2
I0118 16:13:25.582666  9902 net.cpp:157] Top shape: 64 50 8 8 (204800)
I0118 16:13:25.582675  9902 net.cpp:165] Memory required for data: 4706560
I0118 16:13:25.582690  9902 layer_factory.hpp:76] Creating layer pool2
I0118 16:13:25.582702  9902 net.cpp:106] Creating Layer pool2
I0118 16:13:25.582711  9902 net.cpp:454] pool2 <- conv2
I0118 16:13:25.582721  9902 net.cpp:411] pool2 -> pool2
I0118 16:13:25.583098  9902 net.cpp:150] Setting up pool2
I0118 16:13:25.583115  9902 net.cpp:157] Top shape: 64 50 4 4 (51200)
I0118 16:13:25.583122  9902 net.cpp:165] Memory required for data: 4911360
I0118 16:13:25.583127  9902 layer_factory.hpp:76] Creating layer ip1
I0118 16:13:25.583144  9902 net.cpp:106] Creating Layer ip1
I0118 16:13:25.583151  9902 net.cpp:454] ip1 <- pool2
I0118 16:13:25.583160  9902 net.cpp:411] ip1 -> ip1
I0118 16:13:25.587162  9902 net.cpp:150] Setting up ip1
I0118 16:13:25.587178  9902 net.cpp:157] Top shape: 64 500 (32000)
I0118 16:13:25.587184  9902 net.cpp:165] Memory required for data: 5039360
I0118 16:13:25.587198  9902 layer_factory.hpp:76] Creating layer relu1
I0118 16:13:25.587208  9902 net.cpp:106] Creating Layer relu1
I0118 16:13:25.587218  9902 net.cpp:454] relu1 <- ip1
I0118 16:13:25.587225  9902 net.cpp:397] relu1 -> ip1 (in-place)
I0118 16:13:25.587437  9902 net.cpp:150] Setting up relu1
I0118 16:13:25.587453  9902 net.cpp:157] Top shape: 64 500 (32000)
I0118 16:13:25.587460  9902 net.cpp:165] Memory required for data: 5167360
I0118 16:13:25.587466  9902 layer_factory.hpp:76] Creating layer ip2_sig
I0118 16:13:25.587478  9902 net.cpp:106] Creating Layer ip2_sig
I0118 16:13:25.587484  9902 net.cpp:454] ip2_sig <- ip1
I0118 16:13:25.587496  9902 net.cpp:411] ip2_sig -> ip2_sig
I0118 16:13:25.588153  9902 net.cpp:150] Setting up ip2_sig
I0118 16:13:25.588171  9902 net.cpp:157] Top shape: 64 16 (1024)
I0118 16:13:25.588176  9902 net.cpp:165] Memory required for data: 5171456
I0118 16:13:25.588186  9902 layer_factory.hpp:76] Creating layer ip2_hash
I0118 16:13:25.588199  9902 net.cpp:106] Creating Layer ip2_hash
I0118 16:13:25.588207  9902 net.cpp:454] ip2_hash <- ip2_sig
I0118 16:13:25.588214  9902 net.cpp:411] ip2_hash -> ip2_hash
I0118 16:13:25.588572  9902 net.cpp:150] Setting up ip2_hash
I0118 16:13:25.588593  9902 net.cpp:157] Top shape: 64 16 (1024)
I0118 16:13:25.588598  9902 net.cpp:165] Memory required for data: 5175552
I0118 16:13:25.588604  9902 layer_factory.hpp:76] Creating layer ip3
I0118 16:13:25.588614  9902 net.cpp:106] Creating Layer ip3
I0118 16:13:25.588620  9902 net.cpp:454] ip3 <- ip2_hash
I0118 16:13:25.588631  9902 net.cpp:411] ip3 -> ip3
I0118 16:13:25.588757  9902 net.cpp:150] Setting up ip3
I0118 16:13:25.588771  9902 net.cpp:157] Top shape: 64 10 (640)
I0118 16:13:25.588776  9902 net.cpp:165] Memory required for data: 5178112
I0118 16:13:25.588791  9902 layer_factory.hpp:76] Creating layer loss
I0118 16:13:25.588806  9902 net.cpp:106] Creating Layer loss
I0118 16:13:25.588812  9902 net.cpp:454] loss <- ip3
I0118 16:13:25.588837  9902 net.cpp:454] loss <- label
I0118 16:13:25.588851  9902 net.cpp:411] loss -> loss
I0118 16:13:25.588872  9902 layer_factory.hpp:76] Creating layer loss
…
I0118 16:13:25.589795  9902 solver.cpp:180] Creating test net (#0) specified by net file: examples/A-mnist/train_test.prototxt
I0118 16:13:25.589844  9902 net.cpp:322] The NetState phase (1) differed from the phase (0) specified by a rule in layer mnist
I0118 16:13:25.589987  9902 net.cpp:49] Initializing net from parameters: 
name: "LeNet"
state {
  phase: TEST
}
layer {
  name: "mnist"
  type: "Data"
  top: "data"
  top: "label"
  include {
    phase: TEST
  }
  transform_param {
    scale: 0.00390625
  }
  data_param {
    source: "examples/A-mnist/mnist_test_lmdb"
    batch_size: 100
    backend: LMDB
  }
}
layer {
  name: "conv1"
  type: "Convolution"
  bottom: "data"
  top: "conv1"
  param {
    lr_mult: 1
  }
  param {
    lr_mult: 2
  }
  convolution_param {
    num_output: 20
    kernel_size: 5
    stride: 1
    weight_filler {
      type: "xavier"
    }
    bias_filler {
      type: "constant"
    }
  }
}
layer {
  name: "pool1"
  type: "Pooling"
  bottom: "conv1"
  top: "pool1"
  pooling_param {
    pool: MAX
    kernel_size: 2
    stride: 2
  }
}
layer {
  name: "conv2"
  type: "Convolution"
  bottom: "pool1"
  top: "conv2"
  param {
    lr_mult: 1
  }
  param {
    lr_mult: 2
  }
  convolution_param {
    num_output: 50
    kernel_size: 5
    stride: 1
    weight_filler {
      type: "xavier"
    }
    bias_filler {
      type: "constant"
    }
  }
}
layer {
  name: "pool2"
  type: "Pooling"
  bottom: "conv2"
  top: "pool2"
  pooling_param {
    pool: MAX
    kernel_size: 2
    stride: 2
  }
}
layer {
  name: "ip1"
  type: "InnerProduct"
  bottom: "pool2"
  top: "ip1"
  param {
    lr_mult: 1
  }
  param {
    lr_mult: 2
  }
  inner_product_param {
    num_output: 500
    weight_filler {
      type: "xavier"
    }
    bias_filler {
      type: "constant"
    }
  }
}
layer {
  name: "relu1"
  type: "ReLU"
  bottom: "ip1"
  top: "ip1"
}
layer {
  name: "ip2_sig"
  type: "InnerProduct"
  bottom: "ip1"
  top: "ip2_sig"
  param {
    lr_mult: 1
  }
  param {
    lr_mult: 2
  }
  inner_product_param {
    num_output: 16
    weight_filler {
      type: "xavier"
    }
    bias_filler {
      type: "constant"
    }
  }
}
layer {
  name: "ip2_hash"
  type: "Sigmoid"
  bottom: "ip2_sig"
  top: "ip2_hash"
}
layer {
  name: "ip3"
  type: "InnerProduct"
  bottom: "ip2_hash"
  top: "ip3"
  param {
    lr_mult: 1
  }
  param {
    lr_mult: 2
  }
  inner_product_param {
    num_output: 10
    weight_filler {
      type: "xavier"
    }
    bias_filler {
      type: "constant"
    }
  }
}
layer {
  name: "accuracy"
  type: "Accuracy"
  bottom: "ip3"
  bottom: "label"
  top: "accuracy"
  include {
    phase: TEST
  }
}
layer {
  name: "loss"
  type: "SoftmaxWithLoss"
  bottom: "ip3"
  bottom: "label"
  top: "loss"
}
I0118 16:13:25.590112  9902 layer_factory.hpp:76] Creating layer mnist
I0118 16:13:25.590253  9902 net.cpp:106] Creating Layer mnist
I0118 16:13:25.590268  9902 net.cpp:411] mnist -> data
I0118 16:13:25.590281  9902 net.cpp:411] mnist -> label
I0118 16:13:25.591286  9910 db_lmdb.cpp:38] Opened lmdb examples/A-mnist/mnist_test_lmdb
I0118 16:13:25.591423  9902 data_layer.cpp:41] output data size: 100,1,28,28
I0118 16:13:25.592552  9902 net.cpp:150] Setting up mnist
I0118 16:13:25.592571  9902 net.cpp:157] Top shape: 100 1 28 28 (78400)
I0118 16:13:25.592579  9902 net.cpp:157] Top shape: 100 (100)
I0118 16:13:25.592584  9902 net.cpp:165] Memory required for data: 314000
I0118 16:13:25.592592  9902 layer_factory.hpp:76] Creating layer label_mnist_1_split
I0118 16:13:25.592625  9902 net.cpp:106] Creating Layer label_mnist_1_split
I0118 16:13:25.592634  9902 net.cpp:454] label_mnist_1_split <- label
I0118 16:13:25.592643  9902 net.cpp:411] label_mnist_1_split -> label_mnist_1_split_0
I0118 16:13:25.592658  9902 net.cpp:411] label_mnist_1_split -> label_mnist_1_split_1
I0118 16:13:25.592754  9902 net.cpp:150] Setting up label_mnist_1_split
I0118 16:13:25.592767  9902 net.cpp:157] Top shape: 100 (100)
I0118 16:13:25.592774  9902 net.cpp:157] Top shape: 100 (100)
I0118 16:13:25.592779  9902 net.cpp:165] Memory required for data: 314800
I0118 16:13:25.592785  9902 layer_factory.hpp:76] Creating layer conv1
I0118 16:13:25.592802  9902 net.cpp:106] Creating Layer conv1
I0118 16:13:25.592811  9902 net.cpp:454] conv1 <- data
I0118 16:13:25.592820  9902 net.cpp:411] conv1 -> conv1
I0118 16:13:25.594183  9902 cudnn_conv_layer.cpp:194] Reallocating workspace storage: 20664
I0118 16:13:25.594223  9902 net.cpp:150] Setting up conv1
I0118 16:13:25.594236  9902 net.cpp:157] Top shape: 100 20 24 24 (1152000)
I0118 16:13:25.594243  9902 net.cpp:165] Memory required for data: 4922800
I0118 16:13:25.594259  9902 layer_factory.hpp:76] Creating layer pool1
I0118 16:13:25.594272  9902 net.cpp:106] Creating Layer pool1
I0118 16:13:25.594280  9902 net.cpp:454] pool1 <- conv1
I0118 16:13:25.594288  9902 net.cpp:411] pool1 -> pool1
I0118 16:13:25.594699  9902 net.cpp:150] Setting up pool1
I0118 16:13:25.594718  9902 net.cpp:157] Top shape: 100 20 12 12 (288000)
I0118 16:13:25.594724  9902 net.cpp:165] Memory required for data: 6074800
I0118 16:13:25.594732  9902 layer_factory.hpp:76] Creating layer conv2
I0118 16:13:25.594746  9902 net.cpp:106] Creating Layer conv2
I0118 16:13:25.594753  9902 net.cpp:454] conv2 <- pool1
I0118 16:13:25.594763  9902 net.cpp:411] conv2 -> conv2
I0118 16:13:25.596096  9902 cudnn_conv_layer.cpp:194] Reallocating workspace storage: 10272
I0118 16:13:25.596130  9902 net.cpp:150] Setting up conv2
I0118 16:13:25.596140  9902 net.cpp:157] Top shape: 100 50 8 8 (320000)
I0118 16:13:25.596145  9902 net.cpp:165] Memory required for data: 7354800
I0118 16:13:25.596159  9902 layer_factory.hpp:76] Creating layer pool2
I0118 16:13:25.596173  9902 net.cpp:106] Creating Layer pool2
I0118 16:13:25.596179  9902 net.cpp:454] pool2 <- conv2
I0118 16:13:25.596187  9902 net.cpp:411] pool2 -> pool2
I0118 16:13:25.596889  9902 net.cpp:150] Setting up pool2
I0118 16:13:25.596925  9902 net.cpp:157] Top shape: 100 50 4 4 (80000)
I0118 16:13:25.596936  9902 net.cpp:165] Memory required for data: 7674800
I0118 16:13:25.596949  9902 layer_factory.hpp:76] Creating layer ip1
I0118 16:13:25.596976  9902 net.cpp:106] Creating Layer ip1
I0118 16:13:25.596990  9902 net.cpp:454] ip1 <- pool2
I0118 16:13:25.597019  9902 net.cpp:411] ip1 -> ip1
I0118 16:13:25.601368  9902 net.cpp:150] Setting up ip1
I0118 16:13:25.601389  9902 net.cpp:157] Top shape: 100 500 (50000)
I0118 16:13:25.601395  9902 net.cpp:165] Memory required for data: 7874800
I0118 16:13:25.601410  9902 layer_factory.hpp:76] Creating layer relu1
I0118 16:13:25.601424  9902 net.cpp:106] Creating Layer relu1
I0118 16:13:25.601433  9902 net.cpp:454] relu1 <- ip1
I0118 16:13:25.601444  9902 net.cpp:397] relu1 -> ip1 (in-place)
I0118 16:13:25.601817  9902 net.cpp:150] Setting up relu1
I0118 16:13:25.601850  9902 net.cpp:157] Top shape: 100 500 (50000)
I0118 16:13:25.601857  9902 net.cpp:165] Memory required for data: 8074800
I0118 16:13:25.601865  9902 layer_factory.hpp:76] Creating layer ip2_sig
I0118 16:13:25.601879  9902 net.cpp:106] Creating Layer ip2_sig
I0118 16:13:25.601888  9902 net.cpp:454] ip2_sig <- ip1
I0118 16:13:25.601899  9902 net.cpp:411] ip2_sig -> ip2_sig
I0118 16:13:25.602110  9902 net.cpp:150] Setting up ip2_sig
I0118 16:13:25.602126  9902 net.cpp:157] Top shape: 100 16 (1600)
I0118 16:13:25.602133  9902 net.cpp:165] Memory required for data: 8081200
I0118 16:13:25.602144  9902 layer_factory.hpp:76] Creating layer ip2_hash
I0118 16:13:25.602154  9902 net.cpp:106] Creating Layer ip2_hash
I0118 16:13:25.602161  9902 net.cpp:454] ip2_hash <- ip2_sig
I0118 16:13:25.602169  9902 net.cpp:411] ip2_hash -> ip2_hash
I0118 16:13:25.602403  9902 net.cpp:150] Setting up ip2_hash
I0118 16:13:25.602418  9902 net.cpp:157] Top shape: 100 16 (1600)
I0118 16:13:25.602424  9902 net.cpp:165] Memory required for data: 8087600
I0118 16:13:25.602430  9902 layer_factory.hpp:76] Creating layer ip3
I0118 16:13:25.602440  9902 net.cpp:106] Creating Layer ip3
I0118 16:13:25.602447  9902 net.cpp:454] ip3 <- ip2_hash
I0118 16:13:25.602458  9902 net.cpp:411] ip3 -> ip3
I0118 16:13:25.602591  9902 net.cpp:150] Setting up ip3
I0118 16:13:25.602603  9902 net.cpp:157] Top shape: 100 10 (1000)
I0118 16:13:25.602609  9902 net.cpp:165] Memory required for data: 8091600
I0118 16:13:25.602622  9902 layer_factory.hpp:76] Creating layer ip3_ip3_0_split
I0118 16:13:25.602635  9902 net.cpp:106] Creating Layer ip3_ip3_0_split
I0118 16:13:25.602643  9902 net.cpp:454] ip3_ip3_0_split <- ip3
I0118 16:13:25.602650  9902 net.cpp:411] ip3_ip3_0_split -> ip3_ip3_0_split_0
I0118 16:13:25.602660  9902 net.cpp:411] ip3_ip3_0_split -> ip3_ip3_0_split_1
I0118 16:13:25.602708  9902 net.cpp:150] Setting up ip3_ip3_0_split
I0118 16:13:25.602720  9902 net.cpp:157] Top shape: 100 10 (1000)
I0118 16:13:25.602727  9902 net.cpp:157] Top shape: 100 10 (1000)
I0118 16:13:25.602732  9902 net.cpp:165] Memory required for data: 8099600
I0118 16:13:25.602738  9902 layer_factory.hpp:76] Creating layer accuracy
I0118 16:13:25.602751  9902 net.cpp:106] Creating Layer accuracy
I0118 16:13:25.602756  9902 net.cpp:454] accuracy <- ip3_ip3_0_split_0
I0118 16:13:25.602763  9902 net.cpp:454] accuracy <- label_mnist_1_split_0
I0118 16:13:25.602773  9902 net.cpp:411] accuracy -> accuracy
…
