…
I0118 16:04:15.935075  9728 net.cpp:322] The NetState phase (0) differed from the phase (1) specified by a rule in layer mnist
I0118 16:04:15.935106  9728 net.cpp:322] The NetState phase (0) differed from the phase (1) specified by a rule in layer accuracy
I0118 16:04:15.935231  9728 net.cpp:49] Initializing net from parameters: 
name: "LeNet"
state {
  phase: TRAIN
}
layer {
  name: "mnist"
  type: "Data"
  top: "data"
  top: "label"
  include {
    phase: TRAIN
  }
  transform_param {
    scale: 0.00390625
  }
  data_param {
    source: "examples/A-mnist/mnist_train_lmdb"
    batch_size: 64
    backend: LMDB
  }
}
layer {
  name: "conv1"
  type: "Convolution"
  bottom: "data"
  top: "conv1"
  param {
    lr_mult: 1
  }
  param {
    lr_mult: 2
  }
  convolution_param {
    num_output: 20
    kernel_size: 5
    stride: 1
    weight_filler {
      type: "xavier"
    }
    bias_filler {
      type: "constant"
    }
  }
}
layer {
  name: "pool1"
  type: "Pooling"
  bottom: "conv1"
  top: "pool1"
  pooling_param {
    pool: MAX
    kernel_size: 2
    stride: 2
  }
}
layer {
  name: "conv2"
  type: "Convolution"
  bottom: "pool1"
  top: "conv2"
  param {
    lr_mult: 1
  }
  param {
    lr_mult: 2
  }
  convolution_param {
    num_output: 50
    kernel_size: 5
    stride: 1
    weight_filler {
      type: "xavier"
    }
    bias_filler {
      type: "constant"
    }
  }
}
layer {
  name: "pool2"
  type: "Pooling"
  bottom: "conv2"
  top: "pool2"
  pooling_param {
    pool: MAX
    kernel_size: 2
    stride: 2
  }
}
layer {
  name: "ip1"
  type: "InnerProduct"
  bottom: "pool2"
  top: "ip1"
  param {
    lr_mult: 1
  }
  param {
    lr_mult: 2
  }
  inner_product_param {
    num_output: 500
    weight_filler {
      type: "xavier"
    }
    bias_filler {
      type: "constant"
    }
  }
}
layer {
  name: "relu1"
  type: "ReLU"
  bottom: "ip1"
  top: "ip1"
}
layer {
  name: "ip2_sig"
  type: "InnerProduct"
  bottom: "ip1"
  top: "ip2_sig"
  param {
    lr_mult: 1
  }
  param {
    lr_mult: 2
  }
  inner_product_param {
    num_output: 32
    weight_filler {
      type: "xavier"
    }
    bias_filler {
      type: "constant"
    }
  }
}
layer {
  name: "ip2_hash"
  type: "Sigmoid"
  bottom: "ip2_sig"
  top: "ip2_hash"
}
layer {
  name: "ip3"
  type: "InnerProduct"
  bottom: "ip2_hash"
  top: "ip3"
  param {
    lr_mult: 1
  }
  param {
    lr_mult: 2
  }
  inner_product_param {
    num_output: 10
    weight_filler {
      type: "xavier"
    }
    bias_filler {
      type: "constant"
    }
  }
}
layer {
  name: "loss"
  type: "SoftmaxWithLoss"
  bottom: "ip3"
  bottom: "label"
  top: "loss"
}
I0118 16:04:15.935338  9728 layer_factory.hpp:76] Creating layer mnist
I0118 16:04:15.935988  9728 net.cpp:106] Creating Layer mnist
I0118 16:04:15.936015  9728 net.cpp:411] mnist -> data
I0118 16:04:15.936053  9728 net.cpp:411] mnist -> label
I0118 16:04:15.937007  9734 db_lmdb.cpp:38] Opened lmdb examples/A-mnist/mnist_train_lmdb
I0118 16:04:15.947464  9728 data_layer.cpp:41] output data size: 64,1,28,28
I0118 16:04:15.948557  9728 net.cpp:150] Setting up mnist
I0118 16:04:15.949275  9728 net.cpp:157] Top shape: 64 1 28 28 (50176)
I0118 16:04:15.949292  9728 net.cpp:157] Top shape: 64 (64)
I0118 16:04:15.949298  9728 net.cpp:165] Memory required for data: 200960
I0118 16:04:15.949311  9728 layer_factory.hpp:76] Creating layer conv1
I0118 16:04:15.949332  9728 net.cpp:106] Creating Layer conv1
I0118 16:04:15.949342  9728 net.cpp:454] conv1 <- data
I0118 16:04:15.949363  9728 net.cpp:411] conv1 -> conv1
I0118 16:04:16.110455  9728 cudnn_conv_layer.cpp:194] Reallocating workspace storage: 20664
I0118 16:04:16.110543  9728 net.cpp:150] Setting up conv1
I0118 16:04:16.110561  9728 net.cpp:157] Top shape: 64 20 24 24 (737280)
I0118 16:04:16.110569  9728 net.cpp:165] Memory required for data: 3150080
I0118 16:04:16.110599  9728 layer_factory.hpp:76] Creating layer pool1
I0118 16:04:16.110620  9728 net.cpp:106] Creating Layer pool1
I0118 16:04:16.110635  9728 net.cpp:454] pool1 <- conv1
I0118 16:04:16.110646  9728 net.cpp:411] pool1 -> pool1
I0118 16:04:16.110893  9728 net.cpp:150] Setting up pool1
I0118 16:04:16.110908  9728 net.cpp:157] Top shape: 64 20 12 12 (184320)
I0118 16:04:16.110914  9728 net.cpp:165] Memory required for data: 3887360
I0118 16:04:16.110920  9728 layer_factory.hpp:76] Creating layer conv2
I0118 16:04:16.110935  9728 net.cpp:106] Creating Layer conv2
I0118 16:04:16.110941  9728 net.cpp:454] conv2 <- pool1
I0118 16:04:16.110951  9728 net.cpp:411] conv2 -> conv2
I0118 16:04:16.112180  9728 cudnn_conv_layer.cpp:194] Reallocating workspace storage: 10272
I0118 16:04:16.112335  9728 net.cpp:150] Setting up conv2
I0118 16:04:16.112354  9728 net.cpp:157] Top shape: 64 50 8 8 (204800)
I0118 16:04:16.112360  9728 net.cpp:165] Memory required for data: 4706560
I0118 16:04:16.112373  9728 layer_factory.hpp:76] Creating layer pool2
I0118 16:04:16.112387  9728 net.cpp:106] Creating Layer pool2
I0118 16:04:16.112395  9728 net.cpp:454] pool2 <- conv2
I0118 16:04:16.112403  9728 net.cpp:411] pool2 -> pool2
I0118 16:04:16.112761  9728 net.cpp:150] Setting up pool2
I0118 16:04:16.112778  9728 net.cpp:157] Top shape: 64 50 4 4 (51200)
I0118 16:04:16.112785  9728 net.cpp:165] Memory required for data: 4911360
I0118 16:04:16.112792  9728 layer_factory.hpp:76] Creating layer ip1
I0118 16:04:16.112808  9728 net.cpp:106] Creating Layer ip1
I0118 16:04:16.112814  9728 net.cpp:454] ip1 <- pool2
I0118 16:04:16.112824  9728 net.cpp:411] ip1 -> ip1
I0118 16:04:16.116803  9728 net.cpp:150] Setting up ip1
I0118 16:04:16.116823  9728 net.cpp:157] Top shape: 64 500 (32000)
I0118 16:04:16.116829  9728 net.cpp:165] Memory required for data: 5039360
I0118 16:04:16.116843  9728 layer_factory.hpp:76] Creating layer relu1
I0118 16:04:16.116854  9728 net.cpp:106] Creating Layer relu1
I0118 16:04:16.116860  9728 net.cpp:454] relu1 <- ip1
I0118 16:04:16.116868  9728 net.cpp:397] relu1 -> ip1 (in-place)
I0118 16:04:16.117065  9728 net.cpp:150] Setting up relu1
I0118 16:04:16.117081  9728 net.cpp:157] Top shape: 64 500 (32000)
I0118 16:04:16.117087  9728 net.cpp:165] Memory required for data: 5167360
I0118 16:04:16.117094  9728 layer_factory.hpp:76] Creating layer ip2_sig
I0118 16:04:16.117105  9728 net.cpp:106] Creating Layer ip2_sig
I0118 16:04:16.117110  9728 net.cpp:454] ip2_sig <- ip1
I0118 16:04:16.117120  9728 net.cpp:411] ip2_sig -> ip2_sig
I0118 16:04:16.117843  9728 net.cpp:150] Setting up ip2_sig
I0118 16:04:16.117861  9728 net.cpp:157] Top shape: 64 32 (2048)
I0118 16:04:16.117867  9728 net.cpp:165] Memory required for data: 5175552
I0118 16:04:16.117878  9728 layer_factory.hpp:76] Creating layer ip2_hash
I0118 16:04:16.117889  9728 net.cpp:106] Creating Layer ip2_hash
I0118 16:04:16.117897  9728 net.cpp:454] ip2_hash <- ip2_sig
I0118 16:04:16.117905  9728 net.cpp:411] ip2_hash -> ip2_hash
I0118 16:04:16.118253  9728 net.cpp:150] Setting up ip2_hash
I0118 16:04:16.118271  9728 net.cpp:157] Top shape: 64 32 (2048)
I0118 16:04:16.118278  9728 net.cpp:165] Memory required for data: 5183744
I0118 16:04:16.118283  9728 layer_factory.hpp:76] Creating layer ip3
I0118 16:04:16.118294  9728 net.cpp:106] Creating Layer ip3
I0118 16:04:16.118300  9728 net.cpp:454] ip3 <- ip2_hash
I0118 16:04:16.118310  9728 net.cpp:411] ip3 -> ip3
I0118 16:04:16.118432  9728 net.cpp:150] Setting up ip3
I0118 16:04:16.118444  9728 net.cpp:157] Top shape: 64 10 (640)
I0118 16:04:16.118450  9728 net.cpp:165] Memory required for data: 5186304
I0118 16:04:16.118464  9728 layer_factory.hpp:76] Creating layer loss
I0118 16:04:16.118476  9728 net.cpp:106] Creating Layer loss
I0118 16:04:16.118484  9728 net.cpp:454] loss <- ip3
I0118 16:04:16.118508  9728 net.cpp:454] loss <- label
I0118 16:04:16.118523  9728 net.cpp:411] loss -> loss
I0118 16:04:16.118546  9728 layer_factory.hpp:76] Creating layer loss
…
I0118 16:04:16.119451  9728 solver.cpp:180] Creating test net (#0) specified by net file: examples/A-mnist/train_test.prototxt
I0118 16:04:16.119493  9728 net.cpp:322] The NetState phase (1) differed from the phase (0) specified by a rule in layer mnist
I0118 16:04:16.119626  9728 net.cpp:49] Initializing net from parameters: 
name: "LeNet"
state {
  phase: TEST
}
layer {
  name: "mnist"
  type: "Data"
  top: "data"
  top: "label"
  include {
    phase: TEST
  }
  transform_param {
    scale: 0.00390625
  }
  data_param {
    source: "examples/A-mnist/mnist_test_lmdb"
    batch_size: 100
    backend: LMDB
  }
}
layer {
  name: "conv1"
  type: "Convolution"
  bottom: "data"
  top: "conv1"
  param {
    lr_mult: 1
  }
  param {
    lr_mult: 2
  }
  convolution_param {
    num_output: 20
    kernel_size: 5
    stride: 1
    weight_filler {
      type: "xavier"
    }
    bias_filler {
      type: "constant"
    }
  }
}
layer {
  name: "pool1"
  type: "Pooling"
  bottom: "conv1"
  top: "pool1"
  pooling_param {
    pool: MAX
    kernel_size: 2
    stride: 2
  }
}
layer {
  name: "conv2"
  type: "Convolution"
  bottom: "pool1"
  top: "conv2"
  param {
    lr_mult: 1
  }
  param {
    lr_mult: 2
  }
  convolution_param {
    num_output: 50
    kernel_size: 5
    stride: 1
    weight_filler {
      type: "xavier"
    }
    bias_filler {
      type: "constant"
    }
  }
}
layer {
  name: "pool2"
  type: "Pooling"
  bottom: "conv2"
  top: "pool2"
  pooling_param {
    pool: MAX
    kernel_size: 2
    stride: 2
  }
}
layer {
  name: "ip1"
  type: "InnerProduct"
  bottom: "pool2"
  top: "ip1"
  param {
    lr_mult: 1
  }
  param {
    lr_mult: 2
  }
  inner_product_param {
    num_output: 500
    weight_filler {
      type: "xavier"
    }
    bias_filler {
      type: "constant"
    }
  }
}
layer {
  name: "relu1"
  type: "ReLU"
  bottom: "ip1"
  top: "ip1"
}
layer {
  name: "ip2_sig"
  type: "InnerProduct"
  bottom: "ip1"
  top: "ip2_sig"
  param {
    lr_mult: 1
  }
  param {
    lr_mult: 2
  }
  inner_product_param {
    num_output: 32
    weight_filler {
      type: "xavier"
    }
    bias_filler {
      type: "constant"
    }
  }
}
layer {
  name: "ip2_hash"
  type: "Sigmoid"
  bottom: "ip2_sig"
  top: "ip2_hash"
}
layer {
  name: "ip3"
  type: "InnerProduct"
  bottom: "ip2_hash"
  top: "ip3"
  param {
    lr_mult: 1
  }
  param {
    lr_mult: 2
  }
  inner_product_param {
    num_output: 10
    weight_filler {
      type: "xavier"
    }
    bias_filler {
      type: "constant"
    }
  }
}
layer {
  name: "accuracy"
  type: "Accuracy"
  bottom: "ip3"
  bottom: "label"
  top: "accuracy"
  include {
    phase: TEST
  }
}
layer {
  name: "loss"
  type: "SoftmaxWithLoss"
  bottom: "ip3"
  bottom: "label"
  top: "loss"
}
I0118 16:04:16.119740  9728 layer_factory.hpp:76] Creating layer mnist
I0118 16:04:16.120061  9728 net.cpp:106] Creating Layer mnist
I0118 16:04:16.120074  9728 net.cpp:411] mnist -> data
I0118 16:04:16.120087  9728 net.cpp:411] mnist -> label
I0118 16:04:16.121093  9736 db_lmdb.cpp:38] Opened lmdb examples/A-mnist/mnist_test_lmdb
I0118 16:04:16.121222  9728 data_layer.cpp:41] output data size: 100,1,28,28
I0118 16:04:16.122349  9728 net.cpp:150] Setting up mnist
I0118 16:04:16.122367  9728 net.cpp:157] Top shape: 100 1 28 28 (78400)
I0118 16:04:16.122375  9728 net.cpp:157] Top shape: 100 (100)
I0118 16:04:16.122381  9728 net.cpp:165] Memory required for data: 314000
I0118 16:04:16.122388  9728 layer_factory.hpp:76] Creating layer label_mnist_1_split
I0118 16:04:16.122418  9728 net.cpp:106] Creating Layer label_mnist_1_split
I0118 16:04:16.122427  9728 net.cpp:454] label_mnist_1_split <- label
I0118 16:04:16.122437  9728 net.cpp:411] label_mnist_1_split -> label_mnist_1_split_0
I0118 16:04:16.122449  9728 net.cpp:411] label_mnist_1_split -> label_mnist_1_split_1
I0118 16:04:16.122570  9728 net.cpp:150] Setting up label_mnist_1_split
I0118 16:04:16.122584  9728 net.cpp:157] Top shape: 100 (100)
I0118 16:04:16.122591  9728 net.cpp:157] Top shape: 100 (100)
I0118 16:04:16.122597  9728 net.cpp:165] Memory required for data: 314800
I0118 16:04:16.122603  9728 layer_factory.hpp:76] Creating layer conv1
I0118 16:04:16.122616  9728 net.cpp:106] Creating Layer conv1
I0118 16:04:16.122624  9728 net.cpp:454] conv1 <- data
I0118 16:04:16.122634  9728 net.cpp:411] conv1 -> conv1
I0118 16:04:16.124028  9728 cudnn_conv_layer.cpp:194] Reallocating workspace storage: 20664
I0118 16:04:16.124063  9728 net.cpp:150] Setting up conv1
I0118 16:04:16.124078  9728 net.cpp:157] Top shape: 100 20 24 24 (1152000)
I0118 16:04:16.124088  9728 net.cpp:165] Memory required for data: 4922800
I0118 16:04:16.124104  9728 layer_factory.hpp:76] Creating layer pool1
I0118 16:04:16.124122  9728 net.cpp:106] Creating Layer pool1
I0118 16:04:16.124130  9728 net.cpp:454] pool1 <- conv1
I0118 16:04:16.124140  9728 net.cpp:411] pool1 -> pool1
I0118 16:04:16.124527  9728 net.cpp:150] Setting up pool1
I0118 16:04:16.124547  9728 net.cpp:157] Top shape: 100 20 12 12 (288000)
I0118 16:04:16.124557  9728 net.cpp:165] Memory required for data: 6074800
I0118 16:04:16.124564  9728 layer_factory.hpp:76] Creating layer conv2
I0118 16:04:16.124586  9728 net.cpp:106] Creating Layer conv2
I0118 16:04:16.124596  9728 net.cpp:454] conv2 <- pool1
I0118 16:04:16.124608  9728 net.cpp:411] conv2 -> conv2
I0118 16:04:16.126119  9728 cudnn_conv_layer.cpp:194] Reallocating workspace storage: 10272
I0118 16:04:16.126155  9728 net.cpp:150] Setting up conv2
I0118 16:04:16.126168  9728 net.cpp:157] Top shape: 100 50 8 8 (320000)
I0118 16:04:16.126175  9728 net.cpp:165] Memory required for data: 7354800
I0118 16:04:16.126193  9728 layer_factory.hpp:76] Creating layer pool2
I0118 16:04:16.126206  9728 net.cpp:106] Creating Layer pool2
I0118 16:04:16.126215  9728 net.cpp:454] pool2 <- conv2
I0118 16:04:16.126227  9728 net.cpp:411] pool2 -> pool2
I0118 16:04:16.126606  9728 net.cpp:150] Setting up pool2
I0118 16:04:16.126627  9728 net.cpp:157] Top shape: 100 50 4 4 (80000)
I0118 16:04:16.126633  9728 net.cpp:165] Memory required for data: 7674800
I0118 16:04:16.126642  9728 layer_factory.hpp:76] Creating layer ip1
I0118 16:04:16.126653  9728 net.cpp:106] Creating Layer ip1
I0118 16:04:16.126659  9728 net.cpp:454] ip1 <- pool2
I0118 16:04:16.126673  9728 net.cpp:411] ip1 -> ip1
I0118 16:04:16.130846  9728 net.cpp:150] Setting up ip1
I0118 16:04:16.130868  9728 net.cpp:157] Top shape: 100 500 (50000)
I0118 16:04:16.130877  9728 net.cpp:165] Memory required for data: 7874800
I0118 16:04:16.130892  9728 layer_factory.hpp:76] Creating layer relu1
I0118 16:04:16.130903  9728 net.cpp:106] Creating Layer relu1
I0118 16:04:16.130910  9728 net.cpp:454] relu1 <- ip1
I0118 16:04:16.130923  9728 net.cpp:397] relu1 -> ip1 (in-place)
I0118 16:04:16.131311  9728 net.cpp:150] Setting up relu1
I0118 16:04:16.131347  9728 net.cpp:157] Top shape: 100 500 (50000)
I0118 16:04:16.131356  9728 net.cpp:165] Memory required for data: 8074800
I0118 16:04:16.131362  9728 layer_factory.hpp:76] Creating layer ip2_sig
I0118 16:04:16.131381  9728 net.cpp:106] Creating Layer ip2_sig
I0118 16:04:16.131388  9728 net.cpp:454] ip2_sig <- ip1
I0118 16:04:16.131398  9728 net.cpp:411] ip2_sig -> ip2_sig
I0118 16:04:16.131700  9728 net.cpp:150] Setting up ip2_sig
I0118 16:04:16.131716  9728 net.cpp:157] Top shape: 100 32 (3200)
I0118 16:04:16.131723  9728 net.cpp:165] Memory required for data: 8087600
I0118 16:04:16.131734  9728 layer_factory.hpp:76] Creating layer ip2_hash
I0118 16:04:16.131745  9728 net.cpp:106] Creating Layer ip2_hash
I0118 16:04:16.131752  9728 net.cpp:454] ip2_hash <- ip2_sig
I0118 16:04:16.131762  9728 net.cpp:411] ip2_hash -> ip2_hash
I0118 16:04:16.132020  9728 net.cpp:150] Setting up ip2_hash
I0118 16:04:16.132037  9728 net.cpp:157] Top shape: 100 32 (3200)
I0118 16:04:16.132045  9728 net.cpp:165] Memory required for data: 8100400
I0118 16:04:16.132051  9728 layer_factory.hpp:76] Creating layer ip3
I0118 16:04:16.132066  9728 net.cpp:106] Creating Layer ip3
I0118 16:04:16.132073  9728 net.cpp:454] ip3 <- ip2_hash
I0118 16:04:16.132083  9728 net.cpp:411] ip3 -> ip3
I0118 16:04:16.132241  9728 net.cpp:150] Setting up ip3
I0118 16:04:16.132256  9728 net.cpp:157] Top shape: 100 10 (1000)
I0118 16:04:16.132262  9728 net.cpp:165] Memory required for data: 8104400
I0118 16:04:16.132282  9728 layer_factory.hpp:76] Creating layer ip3_ip3_0_split
I0118 16:04:16.132294  9728 net.cpp:106] Creating Layer ip3_ip3_0_split
I0118 16:04:16.132302  9728 net.cpp:454] ip3_ip3_0_split <- ip3
I0118 16:04:16.132310  9728 net.cpp:411] ip3_ip3_0_split -> ip3_ip3_0_split_0
I0118 16:04:16.132321  9728 net.cpp:411] ip3_ip3_0_split -> ip3_ip3_0_split_1
I0118 16:04:16.132375  9728 net.cpp:150] Setting up ip3_ip3_0_split
I0118 16:04:16.132388  9728 net.cpp:157] Top shape: 100 10 (1000)
I0118 16:04:16.132396  9728 net.cpp:157] Top shape: 100 10 (1000)
I0118 16:04:16.132401  9728 net.cpp:165] Memory required for data: 8112400
I0118 16:04:16.132408  9728 layer_factory.hpp:76] Creating layer accuracy
I0118 16:04:16.132422  9728 net.cpp:106] Creating Layer accuracy
I0118 16:04:16.132429  9728 net.cpp:454] accuracy <- ip3_ip3_0_split_0
I0118 16:04:16.132437  9728 net.cpp:454] accuracy <- label_mnist_1_split_0
I0118 16:04:16.132449  9728 net.cpp:411] accuracy -> accuracy
…
