…
I0126 10:33:22.613698 25851 net.cpp:322] The NetState phase (0) differed from the phase (1) specified by a rule in layer cifar
I0126 10:33:22.613736 25851 net.cpp:322] The NetState phase (0) differed from the phase (1) specified by a rule in layer accuracy
I0126 10:33:22.613991 25851 net.cpp:49] Initializing net from parameters: 
name: "CIFAR10_full"
state {
  phase: TRAIN
}
layer {
  name: "cifar"
  type: "Data"
  top: "data"
  top: "label"
  include {
    phase: TRAIN
  }
  data_param {
    source: "examples/A-cifar10/cifar-train-leveldb"
    batch_size: 128
  }
}
layer {
  name: "conv1"
  type: "Convolution"
  bottom: "data"
  top: "conv1"
  param {
    lr_mult: 1
    decay_mult: 1
  }
  param {
    lr_mult: 2
    decay_mult: 0
  }
  convolution_param {
    num_output: 192
    pad: 2
    kernel_size: 5
    weight_filler {
      type: "gaussian"
      std: 0.05
    }
    bias_filler {
      type: "constant"
    }
  }
}
layer {
  name: "relu1"
  type: "ReLU"
  bottom: "conv1"
  top: "conv1"
}
layer {
  name: "cccp1"
  type: "Convolution"
  bottom: "conv1"
  top: "cccp1"
  param {
    lr_mult: 1
    decay_mult: 1
  }
  param {
    lr_mult: 2
    decay_mult: 0
  }
  convolution_param {
    num_output: 160
    kernel_size: 1
    group: 1
    weight_filler {
      type: "gaussian"
      std: 0.05
    }
    bias_filler {
      type: "constant"
      value: 0
    }
  }
}
layer {
  name: "relu_cccp1"
  type: "ReLU"
  bottom: "cccp1"
  top: "cccp1"
}
layer {
  name: "cccp2"
  type: "Convolution"
  bottom: "cccp1"
  top: "cccp2"
  param {
    lr_mult: 1
    decay_mult: 1
  }
  param {
    lr_mult: 2
    decay_mult: 0
  }
  convolution_param {
    num_output: 96
    kernel_size: 1
    group: 1
    weight_filler {
      type: "gaussian"
      std: 0.05
    }
    bias_filler {
      type: "constant"
      value: 0
    }
  }
}
layer {
  name: "relu_cccp2"
  type: "ReLU"
  bottom: "cccp2"
  top: "cccp2"
}
layer {
  name: "pool1"
  type: "Pooling"
  bottom: "cccp2"
  top: "pool1"
  pooling_param {
    pool: MAX
    kernel_size: 3
    stride: 2
  }
}
layer {
  name: "drop3"
  type: "Dropout"
  bottom: "pool1"
  top: "pool1"
  dropout_param {
    dropout_ratio: 0.5
  }
}
layer {
  name: "conv2"
  type: "Convolution"
  bottom: "pool1"
  top: "conv2"
  param {
    lr_mult: 1
    decay_mult: 1
  }
  param {
    lr_mult: 2
    decay_mult: 0
  }
  convolution_param {
    num_output: 192
    pad: 2
    kernel_size: 5
    weight_filler {
      type: "gaussian"
      std: 0.05
    }
    bias_filler {
      type: "constant"
    }
  }
}
layer {
  name: "relu2"
  type: "ReLU"
  bottom: "conv2"
  top: "conv2"
}
layer {
  name: "cccp3"
  type: "Convolution"
  bottom: "conv2"
  top: "cccp3"
  param {
    lr_mult: 1
    decay_mult: 1
  }
  param {
    lr_mult: 2
    decay_mult: 0
  }
  convolution_param {
    num_output: 192
    kernel_size: 1
    group: 1
    weight_filler {
      type: "gaussian"
      std: 0.05
    }
    bias_filler {
      type: "constant"
      value: 0
    }
  }
}
layer {
  name: "relu_cccp3"
  type: "ReLU"
  bottom: "cccp3"
  top: "cccp3"
}
layer {
  name: "cccp4"
  type: "Convolution"
  bottom: "cccp3"
  top: "cccp4"
  param {
    lr_mult: 1
    decay_mult: 1
  }
  param {
    lr_mult: 2
    decay_mult: 0
  }
  convolution_param {
    num_output: 192
    kernel_size: 1
    group: 1
    weight_filler {
      type: "gaussian"
      std: 0.05
    }
    bias_filler {
      type: "constant"
      value: 0
    }
  }
}
layer {
  name: "relu_cccp4"
  type: "ReLU"
  bottom: "cccp4"
  top: "cccp4"
}
layer {
  name: "pool2"
  type: "Pooling"
  bottom: "cccp4"
  top: "pool2"
  pooling_param {
    pool: AVE
    kernel_size: 3
    stride: 2
  }
}
layer {
  name: "drop6"
  type: "Dropout"
  bottom: "pool2"
  top: "pool2"
  dropout_param {
    dropout_ratio: 0.5
  }
}
layer {
  name: "conv3"
  type: "Convolution"
  bottom: "pool2"
  top: "conv3"
  param {
    lr_mult: 1
    decay_mult: 1
  }
  param {
    lr_mult: 2
    decay_mult: 0
  }
  convolution_param {
    num_output: 192
    pad: 1
    kernel_size: 3
    weight_filler {
      type: "gaussian"
      std: 0.05
    }
    bias_filler {
      type: "constant"
    }
  }
}
layer {
  name: "relu3"
  type: "ReLU"
  bottom: "conv3"
  top: "conv3"
}
layer {
  name: "cccp5"
  type: "Convolution"
  bottom: "conv3"
  top: "cccp5"
  param {
    lr_mult: 1
    decay_mult: 1
  }
  param {
    lr_mult: 2
    decay_mult: 0
  }
  convolution_param {
    num_output: 192
    kernel_size: 1
    group: 1
    weight_filler {
      type: "gaussian"
      std: 0.05
    }
    bias_filler {
      type: "constant"
      value: 0
    }
  }
}
layer {
  name: "relu_cccp5"
  type: "ReLU"
  bottom: "cccp5"
  top: "cccp5"
}
layer {
  name: "cccp6"
  type: "Convolution"
  bottom: "cccp5"
  top: "cccp6"
  param {
    lr_mult: 0.1
    decay_mult: 1
  }
  param {
    lr_mult: 0.1
    decay_mult: 0
  }
  convolution_param {
    num_output: 10
    kernel_size: 1
    group: 1
    weight_filler {
      type: "gaussian"
      std: 0.05
    }
    bias_filler {
      type: "constant"
      value: 0
    }
  }
}
layer {
  name: "relu_cccp6"
  type: "ReLU"
  bottom: "cccp6"
  top: "cccp6"
}
layer {
  name: "ip1"
  type: "InnerProduct"
  bottom: "cccp6"
  top: "ip1"
  param {
    lr_mult: 1
  }
  param {
    lr_mult: 2
  }
  inner_product_param {
    num_output: 640
    weight_filler {
      type: "gaussian"
      std: 0.001
    }
    bias_filler {
      type: "constant"
    }
  }
}
layer {
  name: "ip2"
  type: "InnerProduct"
  bottom: "ip1"
  top: "ip2"
  param {
    lr_mult: 1
  }
  param {
    lr_mult: 2
  }
  inner_product_param {
    num_output: 32
    weight_filler {
      type: "gaussian"
      std: 0.01
    }
    bias_filler {
      type: "constant"
    }
  }
}
layer {
  name: "ip3"
  type: "Sigmoid"
  bottom: "ip2"
  top: "ip3"
}
layer {
  name: "ip4"
  type: "InnerProduct"
  bottom: "ip3"
  top: "ip4"
  param {
    lr_mult: 1
  }
  param {
    lr_mult: 2
  }
  inner_product_param {
    num_output: 10
    weight_filler {
      type: "xavier"
    }
    bias_filler {
      type: "constant"
    }
  }
}
layer {
  name: "loss"
  type: "SoftmaxWithLoss"
  bottom: "ip4"
  bottom: "label"
  top: "loss"
}
I0126 10:33:22.614169 25851 layer_factory.hpp:76] Creating layer cifar
I0126 10:33:22.615037 25851 net.cpp:106] Creating Layer cifar
I0126 10:33:22.615087 25851 net.cpp:411] cifar -> data
I0126 10:33:22.615125 25851 net.cpp:411] cifar -> label
I0126 10:33:22.720914 25857 db_leveldb.cpp:18] Opened leveldb examples/A-cifar10/cifar-train-leveldb
I0126 10:33:22.732743 25851 data_layer.cpp:41] output data size: 128,3,32,32
I0126 10:33:22.737282 25851 net.cpp:150] Setting up cifar
I0126 10:33:22.737345 25851 net.cpp:157] Top shape: 128 3 32 32 (393216)
I0126 10:33:22.737356 25851 net.cpp:157] Top shape: 128 (128)
I0126 10:33:22.737361 25851 net.cpp:165] Memory required for data: 1573376
I0126 10:33:22.737452 25851 layer_factory.hpp:76] Creating layer conv1
I0126 10:33:22.737516 25851 net.cpp:106] Creating Layer conv1
I0126 10:33:22.737529 25851 net.cpp:454] conv1 <- data
I0126 10:33:22.737610 25851 net.cpp:411] conv1 -> conv1
I0126 10:33:22.908398 25851 cudnn_conv_layer.cpp:194] Reallocating workspace storage: 21504
I0126 10:33:22.908478 25851 net.cpp:150] Setting up conv1
I0126 10:33:22.908498 25851 net.cpp:157] Top shape: 128 192 32 32 (25165824)
I0126 10:33:22.908504 25851 net.cpp:165] Memory required for data: 102236672
I0126 10:33:22.908573 25851 layer_factory.hpp:76] Creating layer relu1
I0126 10:33:22.908596 25851 net.cpp:106] Creating Layer relu1
I0126 10:33:22.908604 25851 net.cpp:454] relu1 <- conv1
I0126 10:33:22.908614 25851 net.cpp:397] relu1 -> conv1 (in-place)
I0126 10:33:22.908843 25851 net.cpp:150] Setting up relu1
I0126 10:33:22.908860 25851 net.cpp:157] Top shape: 128 192 32 32 (25165824)
I0126 10:33:22.908866 25851 net.cpp:165] Memory required for data: 202899968
I0126 10:33:22.908872 25851 layer_factory.hpp:76] Creating layer cccp1
I0126 10:33:22.908888 25851 net.cpp:106] Creating Layer cccp1
I0126 10:33:22.908895 25851 net.cpp:454] cccp1 <- conv1
I0126 10:33:22.908905 25851 net.cpp:411] cccp1 -> cccp1
I0126 10:33:22.911845 25851 cudnn_conv_layer.cpp:194] Reallocating workspace storage: 24984
I0126 10:33:22.911909 25851 net.cpp:150] Setting up cccp1
I0126 10:33:22.911926 25851 net.cpp:157] Top shape: 128 160 32 32 (20971520)
I0126 10:33:22.911932 25851 net.cpp:165] Memory required for data: 286786048
I0126 10:33:22.911954 25851 layer_factory.hpp:76] Creating layer relu_cccp1
I0126 10:33:22.911972 25851 net.cpp:106] Creating Layer relu_cccp1
I0126 10:33:22.911979 25851 net.cpp:454] relu_cccp1 <- cccp1
I0126 10:33:22.911989 25851 net.cpp:397] relu_cccp1 -> cccp1 (in-place)
I0126 10:33:22.912333 25851 net.cpp:150] Setting up relu_cccp1
I0126 10:33:22.912349 25851 net.cpp:157] Top shape: 128 160 32 32 (20971520)
I0126 10:33:22.912355 25851 net.cpp:165] Memory required for data: 370672128
I0126 10:33:22.912363 25851 layer_factory.hpp:76] Creating layer cccp2
I0126 10:33:22.912377 25851 net.cpp:106] Creating Layer cccp2
I0126 10:33:22.912384 25851 net.cpp:454] cccp2 <- cccp1
I0126 10:33:22.912394 25851 net.cpp:411] cccp2 -> cccp2
I0126 10:33:22.914021 25851 cudnn_conv_layer.cpp:194] Reallocating workspace storage: 24984
I0126 10:33:22.914075 25851 net.cpp:150] Setting up cccp2
I0126 10:33:22.914093 25851 net.cpp:157] Top shape: 128 96 32 32 (12582912)
I0126 10:33:22.914100 25851 net.cpp:165] Memory required for data: 421003776
I0126 10:33:22.914120 25851 layer_factory.hpp:76] Creating layer relu_cccp2
I0126 10:33:22.914135 25851 net.cpp:106] Creating Layer relu_cccp2
I0126 10:33:22.914142 25851 net.cpp:454] relu_cccp2 <- cccp2
I0126 10:33:22.914152 25851 net.cpp:397] relu_cccp2 -> cccp2 (in-place)
I0126 10:33:22.914496 25851 net.cpp:150] Setting up relu_cccp2
I0126 10:33:22.914515 25851 net.cpp:157] Top shape: 128 96 32 32 (12582912)
I0126 10:33:22.914520 25851 net.cpp:165] Memory required for data: 471335424
I0126 10:33:22.914526 25851 layer_factory.hpp:76] Creating layer pool1
I0126 10:33:22.914537 25851 net.cpp:106] Creating Layer pool1
I0126 10:33:22.914543 25851 net.cpp:454] pool1 <- cccp2
I0126 10:33:22.914551 25851 net.cpp:411] pool1 -> pool1
I0126 10:33:22.914954 25851 net.cpp:150] Setting up pool1
I0126 10:33:22.914971 25851 net.cpp:157] Top shape: 128 96 16 16 (3145728)
I0126 10:33:22.914978 25851 net.cpp:165] Memory required for data: 483918336
I0126 10:33:22.914984 25851 layer_factory.hpp:76] Creating layer drop3
I0126 10:33:22.915004 25851 net.cpp:106] Creating Layer drop3
I0126 10:33:22.915010 25851 net.cpp:454] drop3 <- pool1
I0126 10:33:22.915019 25851 net.cpp:397] drop3 -> pool1 (in-place)
I0126 10:33:22.915057 25851 net.cpp:150] Setting up drop3
I0126 10:33:22.915071 25851 net.cpp:157] Top shape: 128 96 16 16 (3145728)
I0126 10:33:22.915076 25851 net.cpp:165] Memory required for data: 496501248
I0126 10:33:22.915081 25851 layer_factory.hpp:76] Creating layer conv2
I0126 10:33:22.915097 25851 net.cpp:106] Creating Layer conv2
I0126 10:33:22.915105 25851 net.cpp:454] conv2 <- pool1
I0126 10:33:22.915117 25851 net.cpp:411] conv2 -> conv2
I0126 10:33:22.933830 25851 cudnn_conv_layer.cpp:194] Reallocating workspace storage: 14016
I0126 10:33:22.934025 25851 net.cpp:150] Setting up conv2
I0126 10:33:22.934049 25851 net.cpp:157] Top shape: 128 192 16 16 (6291456)
I0126 10:33:22.934061 25851 net.cpp:165] Memory required for data: 521667072
I0126 10:33:22.934077 25851 layer_factory.hpp:76] Creating layer relu2
I0126 10:33:22.934110 25851 net.cpp:106] Creating Layer relu2
I0126 10:33:22.934120 25851 net.cpp:454] relu2 <- conv2
I0126 10:33:22.934131 25851 net.cpp:397] relu2 -> conv2 (in-place)
I0126 10:33:22.934495 25851 net.cpp:150] Setting up relu2
I0126 10:33:22.934514 25851 net.cpp:157] Top shape: 128 192 16 16 (6291456)
I0126 10:33:22.934520 25851 net.cpp:165] Memory required for data: 546832896
I0126 10:33:22.934526 25851 layer_factory.hpp:76] Creating layer cccp3
I0126 10:33:22.934541 25851 net.cpp:106] Creating Layer cccp3
I0126 10:33:22.934547 25851 net.cpp:454] cccp3 <- conv2
I0126 10:33:22.934558 25851 net.cpp:411] cccp3 -> cccp3
I0126 10:33:22.937333 25851 cudnn_conv_layer.cpp:194] Reallocating workspace storage: 11160
I0126 10:33:22.937400 25851 net.cpp:150] Setting up cccp3
I0126 10:33:22.937418 25851 net.cpp:157] Top shape: 128 192 16 16 (6291456)
I0126 10:33:22.937424 25851 net.cpp:165] Memory required for data: 571998720
I0126 10:33:22.937449 25851 layer_factory.hpp:76] Creating layer relu_cccp3
I0126 10:33:22.937464 25851 net.cpp:106] Creating Layer relu_cccp3
I0126 10:33:22.937472 25851 net.cpp:454] relu_cccp3 <- cccp3
I0126 10:33:22.937482 25851 net.cpp:397] relu_cccp3 -> cccp3 (in-place)
I0126 10:33:22.937710 25851 net.cpp:150] Setting up relu_cccp3
I0126 10:33:22.937726 25851 net.cpp:157] Top shape: 128 192 16 16 (6291456)
I0126 10:33:22.937732 25851 net.cpp:165] Memory required for data: 597164544
I0126 10:33:22.937738 25851 layer_factory.hpp:76] Creating layer cccp4
I0126 10:33:22.937755 25851 net.cpp:106] Creating Layer cccp4
I0126 10:33:22.937763 25851 net.cpp:454] cccp4 <- cccp3
I0126 10:33:22.937774 25851 net.cpp:411] cccp4 -> cccp4
I0126 10:33:22.940544 25851 cudnn_conv_layer.cpp:194] Reallocating workspace storage: 11160
I0126 10:33:22.940613 25851 net.cpp:150] Setting up cccp4
I0126 10:33:22.940629 25851 net.cpp:157] Top shape: 128 192 16 16 (6291456)
I0126 10:33:22.940636 25851 net.cpp:165] Memory required for data: 622330368
I0126 10:33:22.940649 25851 layer_factory.hpp:76] Creating layer relu_cccp4
I0126 10:33:22.940667 25851 net.cpp:106] Creating Layer relu_cccp4
I0126 10:33:22.940675 25851 net.cpp:454] relu_cccp4 <- cccp4
I0126 10:33:22.940685 25851 net.cpp:397] relu_cccp4 -> cccp4 (in-place)
I0126 10:33:22.941051 25851 net.cpp:150] Setting up relu_cccp4
I0126 10:33:22.941068 25851 net.cpp:157] Top shape: 128 192 16 16 (6291456)
I0126 10:33:22.941073 25851 net.cpp:165] Memory required for data: 647496192
I0126 10:33:22.941079 25851 layer_factory.hpp:76] Creating layer pool2
I0126 10:33:22.941092 25851 net.cpp:106] Creating Layer pool2
I0126 10:33:22.941099 25851 net.cpp:454] pool2 <- cccp4
I0126 10:33:22.941109 25851 net.cpp:411] pool2 -> pool2
I0126 10:33:22.941334 25851 net.cpp:150] Setting up pool2
I0126 10:33:22.941350 25851 net.cpp:157] Top shape: 128 192 8 8 (1572864)
I0126 10:33:22.941355 25851 net.cpp:165] Memory required for data: 653787648
I0126 10:33:22.941361 25851 layer_factory.hpp:76] Creating layer drop6
I0126 10:33:22.941378 25851 net.cpp:106] Creating Layer drop6
I0126 10:33:22.941386 25851 net.cpp:454] drop6 <- pool2
I0126 10:33:22.941395 25851 net.cpp:397] drop6 -> pool2 (in-place)
I0126 10:33:22.941431 25851 net.cpp:150] Setting up drop6
I0126 10:33:22.941443 25851 net.cpp:157] Top shape: 128 192 8 8 (1572864)
I0126 10:33:22.941449 25851 net.cpp:165] Memory required for data: 660079104
I0126 10:33:22.941454 25851 layer_factory.hpp:76] Creating layer conv3
I0126 10:33:22.941471 25851 net.cpp:106] Creating Layer conv3
I0126 10:33:22.941478 25851 net.cpp:454] conv3 <- pool2
I0126 10:33:22.941488 25851 net.cpp:411] conv3 -> conv3
I0126 10:33:22.955708 25851 cudnn_conv_layer.cpp:194] Reallocating workspace storage: 7968
I0126 10:33:22.955781 25851 net.cpp:150] Setting up conv3
I0126 10:33:22.955798 25851 net.cpp:157] Top shape: 128 192 8 8 (1572864)
I0126 10:33:22.955804 25851 net.cpp:165] Memory required for data: 666370560
I0126 10:33:22.955818 25851 layer_factory.hpp:76] Creating layer relu3
I0126 10:33:22.955833 25851 net.cpp:106] Creating Layer relu3
I0126 10:33:22.955842 25851 net.cpp:454] relu3 <- conv3
I0126 10:33:22.955878 25851 net.cpp:397] relu3 -> conv3 (in-place)
I0126 10:33:22.956099 25851 net.cpp:150] Setting up relu3
I0126 10:33:22.956115 25851 net.cpp:157] Top shape: 128 192 8 8 (1572864)
I0126 10:33:22.956121 25851 net.cpp:165] Memory required for data: 672662016
I0126 10:33:22.956127 25851 layer_factory.hpp:76] Creating layer cccp5
I0126 10:33:22.956146 25851 net.cpp:106] Creating Layer cccp5
I0126 10:33:22.956156 25851 net.cpp:454] cccp5 <- conv3
I0126 10:33:22.956167 25851 net.cpp:411] cccp5 -> cccp5
I0126 10:33:22.958999 25851 cudnn_conv_layer.cpp:194] Reallocating workspace storage: 7704
I0126 10:33:22.959069 25851 net.cpp:150] Setting up cccp5
I0126 10:33:22.959084 25851 net.cpp:157] Top shape: 128 192 8 8 (1572864)
I0126 10:33:22.959090 25851 net.cpp:165] Memory required for data: 678953472
I0126 10:33:22.959103 25851 layer_factory.hpp:76] Creating layer relu_cccp5
I0126 10:33:22.959121 25851 net.cpp:106] Creating Layer relu_cccp5
I0126 10:33:22.959133 25851 net.cpp:454] relu_cccp5 <- cccp5
I0126 10:33:22.959146 25851 net.cpp:397] relu_cccp5 -> cccp5 (in-place)
I0126 10:33:22.959534 25851 net.cpp:150] Setting up relu_cccp5
I0126 10:33:22.959585 25851 net.cpp:157] Top shape: 128 192 8 8 (1572864)
I0126 10:33:22.959611 25851 net.cpp:165] Memory required for data: 685244928
I0126 10:33:22.959635 25851 layer_factory.hpp:76] Creating layer cccp6
I0126 10:33:22.959671 25851 net.cpp:106] Creating Layer cccp6
I0126 10:33:22.959697 25851 net.cpp:454] cccp6 <- cccp5
I0126 10:33:22.959728 25851 net.cpp:411] cccp6 -> cccp6
I0126 10:33:22.961755 25851 cudnn_conv_layer.cpp:194] Reallocating workspace storage: 7704
I0126 10:33:22.961879 25851 net.cpp:150] Setting up cccp6
I0126 10:33:22.961920 25851 net.cpp:157] Top shape: 128 10 8 8 (81920)
I0126 10:33:22.961931 25851 net.cpp:165] Memory required for data: 685572608
I0126 10:33:22.961954 25851 layer_factory.hpp:76] Creating layer relu_cccp6
I0126 10:33:22.961973 25851 net.cpp:106] Creating Layer relu_cccp6
I0126 10:33:22.961985 25851 net.cpp:454] relu_cccp6 <- cccp6
I0126 10:33:22.961997 25851 net.cpp:397] relu_cccp6 -> cccp6 (in-place)
I0126 10:33:22.962214 25851 net.cpp:150] Setting up relu_cccp6
I0126 10:33:22.962230 25851 net.cpp:157] Top shape: 128 10 8 8 (81920)
I0126 10:33:22.962236 25851 net.cpp:165] Memory required for data: 685900288
I0126 10:33:22.962242 25851 layer_factory.hpp:76] Creating layer ip1
I0126 10:33:22.962262 25851 net.cpp:106] Creating Layer ip1
I0126 10:33:22.962268 25851 net.cpp:454] ip1 <- cccp6
I0126 10:33:22.962281 25851 net.cpp:411] ip1 -> ip1
I0126 10:33:22.978050 25851 net.cpp:150] Setting up ip1
I0126 10:33:22.978106 25851 net.cpp:157] Top shape: 128 640 (81920)
I0126 10:33:22.978113 25851 net.cpp:165] Memory required for data: 686227968
I0126 10:33:22.978128 25851 layer_factory.hpp:76] Creating layer ip2
I0126 10:33:22.978145 25851 net.cpp:106] Creating Layer ip2
I0126 10:33:22.978153 25851 net.cpp:454] ip2 <- ip1
I0126 10:33:22.978165 25851 net.cpp:411] ip2 -> ip2
I0126 10:33:22.979066 25851 net.cpp:150] Setting up ip2
I0126 10:33:22.979094 25851 net.cpp:157] Top shape: 128 32 (4096)
I0126 10:33:22.979099 25851 net.cpp:165] Memory required for data: 686244352
I0126 10:33:22.979110 25851 layer_factory.hpp:76] Creating layer ip3
I0126 10:33:22.979120 25851 net.cpp:106] Creating Layer ip3
I0126 10:33:22.979126 25851 net.cpp:454] ip3 <- ip2
I0126 10:33:22.979137 25851 net.cpp:411] ip3 -> ip3
I0126 10:33:22.979687 25851 net.cpp:150] Setting up ip3
I0126 10:33:22.979706 25851 net.cpp:157] Top shape: 128 32 (4096)
I0126 10:33:22.979712 25851 net.cpp:165] Memory required for data: 686260736
I0126 10:33:22.979717 25851 layer_factory.hpp:76] Creating layer ip4
I0126 10:33:22.979733 25851 net.cpp:106] Creating Layer ip4
I0126 10:33:22.979740 25851 net.cpp:454] ip4 <- ip3
I0126 10:33:22.979751 25851 net.cpp:411] ip4 -> ip4
I0126 10:33:22.979913 25851 net.cpp:150] Setting up ip4
I0126 10:33:22.979929 25851 net.cpp:157] Top shape: 128 10 (1280)
I0126 10:33:22.979934 25851 net.cpp:165] Memory required for data: 686265856
I0126 10:33:22.979967 25851 layer_factory.hpp:76] Creating layer loss
I0126 10:33:22.979984 25851 net.cpp:106] Creating Layer loss
I0126 10:33:22.979992 25851 net.cpp:454] loss <- ip4
I0126 10:33:22.980000 25851 net.cpp:454] loss <- label
I0126 10:33:22.980008 25851 net.cpp:411] loss -> loss
I0126 10:33:22.980031 25851 layer_factory.hpp:76] Creating layer loss
…
I0126 10:33:22.981741 25851 solver.cpp:180] Creating test net (#0) specified by net file: examples/A-cifar10/train_hash.prototxt
I0126 10:33:22.981801 25851 net.cpp:322] The NetState phase (1) differed from the phase (0) specified by a rule in layer cifar
I0126 10:33:22.982080 25851 net.cpp:49] Initializing net from parameters: 
name: "CIFAR10_full"
state {
  phase: TEST
}
layer {
  name: "cifar"
  type: "Data"
  top: "data"
  top: "label"
  include {
    phase: TEST
  }
  data_param {
    source: "examples/A-cifar10/cifar-test-leveldb"
    batch_size: 100
  }
}
layer {
  name: "conv1"
  type: "Convolution"
  bottom: "data"
  top: "conv1"
  param {
    lr_mult: 1
    decay_mult: 1
  }
  param {
    lr_mult: 2
    decay_mult: 0
  }
  convolution_param {
    num_output: 192
    pad: 2
    kernel_size: 5
    weight_filler {
      type: "gaussian"
      std: 0.05
    }
    bias_filler {
      type: "constant"
    }
  }
}
layer {
  name: "relu1"
  type: "ReLU"
  bottom: "conv1"
  top: "conv1"
}
layer {
  name: "cccp1"
  type: "Convolution"
  bottom: "conv1"
  top: "cccp1"
  param {
    lr_mult: 1
    decay_mult: 1
  }
  param {
    lr_mult: 2
    decay_mult: 0
  }
  convolution_param {
    num_output: 160
    kernel_size: 1
    group: 1
    weight_filler {
      type: "gaussian"
      std: 0.05
    }
    bias_filler {
      type: "constant"
      value: 0
    }
  }
}
layer {
  name: "relu_cccp1"
  type: "ReLU"
  bottom: "cccp1"
  top: "cccp1"
}
layer {
  name: "cccp2"
  type: "Convolution"
  bottom: "cccp1"
  top: "cccp2"
  param {
    lr_mult: 1
    decay_mult: 1
  }
  param {
    lr_mult: 2
    decay_mult: 0
  }
  convolution_param {
    num_output: 96
    kernel_size: 1
    group: 1
    weight_filler {
      type: "gaussian"
      std: 0.05
    }
    bias_filler {
      type: "constant"
      value: 0
    }
  }
}
layer {
  name: "relu_cccp2"
  type: "ReLU"
  bottom: "cccp2"
  top: "cccp2"
}
layer {
  name: "pool1"
  type: "Pooling"
  bottom: "cccp2"
  top: "pool1"
  pooling_param {
    pool: MAX
    kernel_size: 3
    stride: 2
  }
}
layer {
  name: "drop3"
  type: "Dropout"
  bottom: "pool1"
  top: "pool1"
  dropout_param {
    dropout_ratio: 0.5
  }
}
layer {
  name: "conv2"
  type: "Convolution"
  bottom: "pool1"
  top: "conv2"
  param {
    lr_mult: 1
    decay_mult: 1
  }
  param {
    lr_mult: 2
    decay_mult: 0
  }
  convolution_param {
    num_output: 192
    pad: 2
    kernel_size: 5
    weight_filler {
      type: "gaussian"
      std: 0.05
    }
    bias_filler {
      type: "constant"
    }
  }
}
layer {
  name: "relu2"
  type: "ReLU"
  bottom: "conv2"
  top: "conv2"
}
layer {
  name: "cccp3"
  type: "Convolution"
  bottom: "conv2"
  top: "cccp3"
  param {
    lr_mult: 1
    decay_mult: 1
  }
  param {
    lr_mult: 2
    decay_mult: 0
  }
  convolution_param {
    num_output: 192
    kernel_size: 1
    group: 1
    weight_filler {
      type: "gaussian"
      std: 0.05
    }
    bias_filler {
      type: "constant"
      value: 0
    }
  }
}
layer {
  name: "relu_cccp3"
  type: "ReLU"
  bottom: "cccp3"
  top: "cccp3"
}
layer {
  name: "cccp4"
  type: "Convolution"
  bottom: "cccp3"
  top: "cccp4"
  param {
    lr_mult: 1
    decay_mult: 1
  }
  param {
    lr_mult: 2
    decay_mult: 0
  }
  convolution_param {
    num_output: 192
    kernel_size: 1
    group: 1
    weight_filler {
      type: "gaussian"
      std: 0.05
    }
    bias_filler {
      type: "constant"
      value: 0
    }
  }
}
layer {
  name: "relu_cccp4"
  type: "ReLU"
  bottom: "cccp4"
  top: "cccp4"
}
layer {
  name: "pool2"
  type: "Pooling"
  bottom: "cccp4"
  top: "pool2"
  pooling_param {
    pool: AVE
    kernel_size: 3
    stride: 2
  }
}
layer {
  name: "drop6"
  type: "Dropout"
  bottom: "pool2"
  top: "pool2"
  dropout_param {
    dropout_ratio: 0.5
  }
}
layer {
  name: "conv3"
  type: "Convolution"
  bottom: "pool2"
  top: "conv3"
  param {
    lr_mult: 1
    decay_mult: 1
  }
  param {
    lr_mult: 2
    decay_mult: 0
  }
  convolution_param {
    num_output: 192
    pad: 1
    kernel_size: 3
    weight_filler {
      type: "gaussian"
      std: 0.05
    }
    bias_filler {
      type: "constant"
    }
  }
}
layer {
  name: "relu3"
  type: "ReLU"
  bottom: "conv3"
  top: "conv3"
}
layer {
  name: "cccp5"
  type: "Convolution"
  bottom: "conv3"
  top: "cccp5"
  param {
    lr_mult: 1
    decay_mult: 1
  }
  param {
    lr_mult: 2
    decay_mult: 0
  }
  convolution_param {
    num_output: 192
    kernel_size: 1
    group: 1
    weight_filler {
      type: "gaussian"
      std: 0.05
    }
    bias_filler {
      type: "constant"
      value: 0
    }
  }
}
layer {
  name: "relu_cccp5"
  type: "ReLU"
  bottom: "cccp5"
  top: "cccp5"
}
layer {
  name: "cccp6"
  type: "Convolution"
  bottom: "cccp5"
  top: "cccp6"
  param {
    lr_mult: 0.1
    decay_mult: 1
  }
  param {
    lr_mult: 0.1
    decay_mult: 0
  }
  convolution_param {
    num_output: 10
    kernel_size: 1
    group: 1
    weight_filler {
      type: "gaussian"
      std: 0.05
    }
    bias_filler {
      type: "constant"
      value: 0
    }
  }
}
layer {
  name: "relu_cccp6"
  type: "ReLU"
  bottom: "cccp6"
  top: "cccp6"
}
layer {
  name: "ip1"
  type: "InnerProduct"
  bottom: "cccp6"
  top: "ip1"
  param {
    lr_mult: 1
  }
  param {
    lr_mult: 2
  }
  inner_product_param {
    num_output: 640
    weight_filler {
      type: "gaussian"
      std: 0.001
    }
    bias_filler {
      type: "constant"
    }
  }
}
layer {
  name: "ip2"
  type: "InnerProduct"
  bottom: "ip1"
  top: "ip2"
  param {
    lr_mult: 1
  }
  param {
    lr_mult: 2
  }
  inner_product_param {
    num_output: 32
    weight_filler {
      type: "gaussian"
      std: 0.01
    }
    bias_filler {
      type: "constant"
    }
  }
}
layer {
  name: "ip3"
  type: "Sigmoid"
  bottom: "ip2"
  top: "ip3"
}
layer {
  name: "ip4"
  type: "InnerProduct"
  bottom: "ip3"
  top: "ip4"
  param {
    lr_mult: 1
  }
  param {
    lr_mult: 2
  }
  inner_product_param {
    num_output: 10
    weight_filler {
      type: "xavier"
    }
    bias_filler {
      type: "constant"
    }
  }
}
layer {
  name: "accuracy"
  type: "Accuracy"
  bottom: "ip4"
  bottom: "label"
  top: "accuracy"
  include {
    phase: TEST
  }
}
layer {
  name: "loss"
  type: "SoftmaxWithLoss"
  bottom: "ip4"
  bottom: "label"
  top: "loss"
}
I0126 10:33:22.982297 25851 layer_factory.hpp:76] Creating layer cifar
I0126 10:33:22.982656 25851 net.cpp:106] Creating Layer cifar
I0126 10:33:22.982669 25851 net.cpp:411] cifar -> data
I0126 10:33:22.982688 25851 net.cpp:411] cifar -> label
I0126 10:33:23.063624 25859 db_leveldb.cpp:18] Opened leveldb examples/A-cifar10/cifar-test-leveldb
I0126 10:33:23.064005 25851 data_layer.cpp:41] output data size: 100,3,32,32
I0126 10:33:23.072604 25851 net.cpp:150] Setting up cifar
I0126 10:33:23.072644 25851 net.cpp:157] Top shape: 100 3 32 32 (307200)
I0126 10:33:23.072654 25851 net.cpp:157] Top shape: 100 (100)
I0126 10:33:23.072659 25851 net.cpp:165] Memory required for data: 1229200
I0126 10:33:23.072669 25851 layer_factory.hpp:76] Creating layer label_cifar_1_split
I0126 10:33:23.072734 25851 net.cpp:106] Creating Layer label_cifar_1_split
I0126 10:33:23.072778 25851 net.cpp:454] label_cifar_1_split <- label
I0126 10:33:23.072813 25851 net.cpp:411] label_cifar_1_split -> label_cifar_1_split_0
I0126 10:33:23.072850 25851 net.cpp:411] label_cifar_1_split -> label_cifar_1_split_1
I0126 10:33:23.072947 25851 net.cpp:150] Setting up label_cifar_1_split
I0126 10:33:23.072981 25851 net.cpp:157] Top shape: 100 (100)
I0126 10:33:23.073009 25851 net.cpp:157] Top shape: 100 (100)
I0126 10:33:23.073032 25851 net.cpp:165] Memory required for data: 1230000
I0126 10:33:23.073056 25851 layer_factory.hpp:76] Creating layer conv1
I0126 10:33:23.073096 25851 net.cpp:106] Creating Layer conv1
I0126 10:33:23.073122 25851 net.cpp:454] conv1 <- data
I0126 10:33:23.073155 25851 net.cpp:411] conv1 -> conv1
I0126 10:33:23.075203 25851 cudnn_conv_layer.cpp:194] Reallocating workspace storage: 21504
I0126 10:33:23.077213 25851 net.cpp:150] Setting up conv1
I0126 10:33:23.077263 25851 net.cpp:157] Top shape: 100 192 32 32 (19660800)
I0126 10:33:23.077297 25851 net.cpp:165] Memory required for data: 79873200
I0126 10:33:23.078588 25851 layer_factory.hpp:76] Creating layer relu1
I0126 10:33:23.078622 25851 net.cpp:106] Creating Layer relu1
I0126 10:33:23.078647 25851 net.cpp:454] relu1 <- conv1
I0126 10:33:23.078675 25851 net.cpp:397] relu1 -> conv1 (in-place)
I0126 10:33:23.079161 25851 net.cpp:150] Setting up relu1
I0126 10:33:23.079180 25851 net.cpp:157] Top shape: 100 192 32 32 (19660800)
I0126 10:33:23.079185 25851 net.cpp:165] Memory required for data: 158516400
I0126 10:33:23.079192 25851 layer_factory.hpp:76] Creating layer cccp1
I0126 10:33:23.079210 25851 net.cpp:106] Creating Layer cccp1
I0126 10:33:23.079217 25851 net.cpp:454] cccp1 <- conv1
I0126 10:33:23.079226 25851 net.cpp:411] cccp1 -> cccp1
I0126 10:33:23.081523 25851 cudnn_conv_layer.cpp:194] Reallocating workspace storage: 24984
I0126 10:33:23.081598 25851 net.cpp:150] Setting up cccp1
I0126 10:33:23.081650 25851 net.cpp:157] Top shape: 100 160 32 32 (16384000)
I0126 10:33:23.081683 25851 net.cpp:165] Memory required for data: 224052400
I0126 10:33:23.081723 25851 layer_factory.hpp:76] Creating layer relu_cccp1
I0126 10:33:23.081758 25851 net.cpp:106] Creating Layer relu_cccp1
I0126 10:33:23.081784 25851 net.cpp:454] relu_cccp1 <- cccp1
I0126 10:33:23.081811 25851 net.cpp:397] relu_cccp1 -> cccp1 (in-place)
I0126 10:33:23.082213 25851 net.cpp:150] Setting up relu_cccp1
I0126 10:33:23.082233 25851 net.cpp:157] Top shape: 100 160 32 32 (16384000)
I0126 10:33:23.082239 25851 net.cpp:165] Memory required for data: 289588400
I0126 10:33:23.082245 25851 layer_factory.hpp:76] Creating layer cccp2
I0126 10:33:23.082257 25851 net.cpp:106] Creating Layer cccp2
I0126 10:33:23.082263 25851 net.cpp:454] cccp2 <- cccp1
I0126 10:33:23.082275 25851 net.cpp:411] cccp2 -> cccp2
I0126 10:33:23.084038 25851 cudnn_conv_layer.cpp:194] Reallocating workspace storage: 24984
I0126 10:33:23.084069 25851 net.cpp:150] Setting up cccp2
I0126 10:33:23.084079 25851 net.cpp:157] Top shape: 100 96 32 32 (9830400)
I0126 10:33:23.084085 25851 net.cpp:165] Memory required for data: 328910000
I0126 10:33:23.084098 25851 layer_factory.hpp:76] Creating layer relu_cccp2
I0126 10:33:23.084112 25851 net.cpp:106] Creating Layer relu_cccp2
I0126 10:33:23.084120 25851 net.cpp:454] relu_cccp2 <- cccp2
I0126 10:33:23.084127 25851 net.cpp:397] relu_cccp2 -> cccp2 (in-place)
I0126 10:33:23.084342 25851 net.cpp:150] Setting up relu_cccp2
I0126 10:33:23.084357 25851 net.cpp:157] Top shape: 100 96 32 32 (9830400)
I0126 10:33:23.084362 25851 net.cpp:165] Memory required for data: 368231600
I0126 10:33:23.084368 25851 layer_factory.hpp:76] Creating layer pool1
I0126 10:33:23.084383 25851 net.cpp:106] Creating Layer pool1
I0126 10:33:23.084391 25851 net.cpp:454] pool1 <- cccp2
I0126 10:33:23.084399 25851 net.cpp:411] pool1 -> pool1
I0126 10:33:23.084797 25851 net.cpp:150] Setting up pool1
I0126 10:33:23.084815 25851 net.cpp:157] Top shape: 100 96 16 16 (2457600)
I0126 10:33:23.084820 25851 net.cpp:165] Memory required for data: 378062000
I0126 10:33:23.084825 25851 layer_factory.hpp:76] Creating layer drop3
I0126 10:33:23.084838 25851 net.cpp:106] Creating Layer drop3
I0126 10:33:23.084844 25851 net.cpp:454] drop3 <- pool1
I0126 10:33:23.084852 25851 net.cpp:397] drop3 -> pool1 (in-place)
I0126 10:33:23.084890 25851 net.cpp:150] Setting up drop3
I0126 10:33:23.084903 25851 net.cpp:157] Top shape: 100 96 16 16 (2457600)
I0126 10:33:23.084908 25851 net.cpp:165] Memory required for data: 387892400
I0126 10:33:23.084913 25851 layer_factory.hpp:76] Creating layer conv2
I0126 10:33:23.084926 25851 net.cpp:106] Creating Layer conv2
I0126 10:33:23.084935 25851 net.cpp:454] conv2 <- pool1
I0126 10:33:23.084949 25851 net.cpp:411] conv2 -> conv2
I0126 10:33:23.103471 25851 cudnn_conv_layer.cpp:194] Reallocating workspace storage: 14016
I0126 10:33:23.103519 25851 net.cpp:150] Setting up conv2
I0126 10:33:23.103533 25851 net.cpp:157] Top shape: 100 192 16 16 (4915200)
I0126 10:33:23.103538 25851 net.cpp:165] Memory required for data: 407553200
I0126 10:33:23.103549 25851 layer_factory.hpp:76] Creating layer relu2
I0126 10:33:23.103561 25851 net.cpp:106] Creating Layer relu2
I0126 10:33:23.103567 25851 net.cpp:454] relu2 <- conv2
I0126 10:33:23.103575 25851 net.cpp:397] relu2 -> conv2 (in-place)
I0126 10:33:23.103785 25851 net.cpp:150] Setting up relu2
I0126 10:33:23.103799 25851 net.cpp:157] Top shape: 100 192 16 16 (4915200)
I0126 10:33:23.103806 25851 net.cpp:165] Memory required for data: 427214000
I0126 10:33:23.103811 25851 layer_factory.hpp:76] Creating layer cccp3
I0126 10:33:23.103829 25851 net.cpp:106] Creating Layer cccp3
I0126 10:33:23.103838 25851 net.cpp:454] cccp3 <- conv2
I0126 10:33:23.103847 25851 net.cpp:411] cccp3 -> cccp3
I0126 10:33:23.106402 25851 cudnn_conv_layer.cpp:194] Reallocating workspace storage: 11160
I0126 10:33:23.106441 25851 net.cpp:150] Setting up cccp3
I0126 10:33:23.106452 25851 net.cpp:157] Top shape: 100 192 16 16 (4915200)
I0126 10:33:23.106474 25851 net.cpp:165] Memory required for data: 446874800
I0126 10:33:23.106489 25851 layer_factory.hpp:76] Creating layer relu_cccp3
I0126 10:33:23.106503 25851 net.cpp:106] Creating Layer relu_cccp3
I0126 10:33:23.106515 25851 net.cpp:454] relu_cccp3 <- cccp3
I0126 10:33:23.106523 25851 net.cpp:397] relu_cccp3 -> cccp3 (in-place)
I0126 10:33:23.106732 25851 net.cpp:150] Setting up relu_cccp3
I0126 10:33:23.106748 25851 net.cpp:157] Top shape: 100 192 16 16 (4915200)
I0126 10:33:23.106753 25851 net.cpp:165] Memory required for data: 466535600
I0126 10:33:23.106760 25851 layer_factory.hpp:76] Creating layer cccp4
I0126 10:33:23.106775 25851 net.cpp:106] Creating Layer cccp4
I0126 10:33:23.106781 25851 net.cpp:454] cccp4 <- cccp3
I0126 10:33:23.106791 25851 net.cpp:411] cccp4 -> cccp4
I0126 10:33:23.109751 25851 cudnn_conv_layer.cpp:194] Reallocating workspace storage: 11160
I0126 10:33:23.109789 25851 net.cpp:150] Setting up cccp4
I0126 10:33:23.109805 25851 net.cpp:157] Top shape: 100 192 16 16 (4915200)
I0126 10:33:23.109812 25851 net.cpp:165] Memory required for data: 486196400
I0126 10:33:23.109822 25851 layer_factory.hpp:76] Creating layer relu_cccp4
I0126 10:33:23.109834 25851 net.cpp:106] Creating Layer relu_cccp4
I0126 10:33:23.109841 25851 net.cpp:454] relu_cccp4 <- cccp4
I0126 10:33:23.109849 25851 net.cpp:397] relu_cccp4 -> cccp4 (in-place)
I0126 10:33:23.110255 25851 net.cpp:150] Setting up relu_cccp4
I0126 10:33:23.110272 25851 net.cpp:157] Top shape: 100 192 16 16 (4915200)
I0126 10:33:23.110278 25851 net.cpp:165] Memory required for data: 505857200
I0126 10:33:23.110285 25851 layer_factory.hpp:76] Creating layer pool2
I0126 10:33:23.110301 25851 net.cpp:106] Creating Layer pool2
I0126 10:33:23.110307 25851 net.cpp:454] pool2 <- cccp4
I0126 10:33:23.110317 25851 net.cpp:411] pool2 -> pool2
I0126 10:33:23.110539 25851 net.cpp:150] Setting up pool2
I0126 10:33:23.110555 25851 net.cpp:157] Top shape: 100 192 8 8 (1228800)
I0126 10:33:23.110561 25851 net.cpp:165] Memory required for data: 510772400
I0126 10:33:23.110568 25851 layer_factory.hpp:76] Creating layer drop6
I0126 10:33:23.110579 25851 net.cpp:106] Creating Layer drop6
I0126 10:33:23.110585 25851 net.cpp:454] drop6 <- pool2
I0126 10:33:23.110592 25851 net.cpp:397] drop6 -> pool2 (in-place)
I0126 10:33:23.110630 25851 net.cpp:150] Setting up drop6
I0126 10:33:23.110641 25851 net.cpp:157] Top shape: 100 192 8 8 (1228800)
I0126 10:33:23.110646 25851 net.cpp:165] Memory required for data: 515687600
I0126 10:33:23.110651 25851 layer_factory.hpp:76] Creating layer conv3
I0126 10:33:23.110668 25851 net.cpp:106] Creating Layer conv3
I0126 10:33:23.110677 25851 net.cpp:454] conv3 <- pool2
I0126 10:33:23.110685 25851 net.cpp:411] conv3 -> conv3
I0126 10:33:23.134672 25851 cudnn_conv_layer.cpp:194] Reallocating workspace storage: 7968
I0126 10:33:23.134739 25851 net.cpp:150] Setting up conv3
I0126 10:33:23.134755 25851 net.cpp:157] Top shape: 100 192 8 8 (1228800)
I0126 10:33:23.134762 25851 net.cpp:165] Memory required for data: 520602800
I0126 10:33:23.134776 25851 layer_factory.hpp:76] Creating layer relu3
I0126 10:33:23.134794 25851 net.cpp:106] Creating Layer relu3
I0126 10:33:23.134802 25851 net.cpp:454] relu3 <- conv3
I0126 10:33:23.134815 25851 net.cpp:397] relu3 -> conv3 (in-place)
I0126 10:33:23.135206 25851 net.cpp:150] Setting up relu3
I0126 10:33:23.135224 25851 net.cpp:157] Top shape: 100 192 8 8 (1228800)
I0126 10:33:23.135231 25851 net.cpp:165] Memory required for data: 525518000
I0126 10:33:23.135236 25851 layer_factory.hpp:76] Creating layer cccp5
I0126 10:33:23.135252 25851 net.cpp:106] Creating Layer cccp5
I0126 10:33:23.135259 25851 net.cpp:454] cccp5 <- conv3
I0126 10:33:23.135269 25851 net.cpp:411] cccp5 -> cccp5
I0126 10:33:23.137719 25851 cudnn_conv_layer.cpp:194] Reallocating workspace storage: 7704
I0126 10:33:23.137763 25851 net.cpp:150] Setting up cccp5
I0126 10:33:23.137775 25851 net.cpp:157] Top shape: 100 192 8 8 (1228800)
I0126 10:33:23.137780 25851 net.cpp:165] Memory required for data: 530433200
I0126 10:33:23.137816 25851 layer_factory.hpp:76] Creating layer relu_cccp5
I0126 10:33:23.137827 25851 net.cpp:106] Creating Layer relu_cccp5
I0126 10:33:23.137833 25851 net.cpp:454] relu_cccp5 <- cccp5
I0126 10:33:23.137845 25851 net.cpp:397] relu_cccp5 -> cccp5 (in-place)
I0126 10:33:23.138198 25851 net.cpp:150] Setting up relu_cccp5
I0126 10:33:23.138216 25851 net.cpp:157] Top shape: 100 192 8 8 (1228800)
I0126 10:33:23.138221 25851 net.cpp:165] Memory required for data: 535348400
I0126 10:33:23.138227 25851 layer_factory.hpp:76] Creating layer cccp6
I0126 10:33:23.138244 25851 net.cpp:106] Creating Layer cccp6
I0126 10:33:23.138250 25851 net.cpp:454] cccp6 <- cccp5
I0126 10:33:23.138262 25851 net.cpp:411] cccp6 -> cccp6
I0126 10:33:23.139540 25851 cudnn_conv_layer.cpp:194] Reallocating workspace storage: 7704
I0126 10:33:23.139580 25851 net.cpp:150] Setting up cccp6
I0126 10:33:23.139590 25851 net.cpp:157] Top shape: 100 10 8 8 (64000)
I0126 10:33:23.139596 25851 net.cpp:165] Memory required for data: 535604400
I0126 10:33:23.139613 25851 layer_factory.hpp:76] Creating layer relu_cccp6
I0126 10:33:23.139626 25851 net.cpp:106] Creating Layer relu_cccp6
I0126 10:33:23.139636 25851 net.cpp:454] relu_cccp6 <- cccp6
I0126 10:33:23.139643 25851 net.cpp:397] relu_cccp6 -> cccp6 (in-place)
I0126 10:33:23.139856 25851 net.cpp:150] Setting up relu_cccp6
I0126 10:33:23.139873 25851 net.cpp:157] Top shape: 100 10 8 8 (64000)
I0126 10:33:23.139878 25851 net.cpp:165] Memory required for data: 535860400
I0126 10:33:23.139884 25851 layer_factory.hpp:76] Creating layer ip1
I0126 10:33:23.139896 25851 net.cpp:106] Creating Layer ip1
I0126 10:33:23.139901 25851 net.cpp:454] ip1 <- cccp6
I0126 10:33:23.139914 25851 net.cpp:411] ip1 -> ip1
I0126 10:33:23.155434 25851 net.cpp:150] Setting up ip1
I0126 10:33:23.155517 25851 net.cpp:157] Top shape: 100 640 (64000)
I0126 10:33:23.155544 25851 net.cpp:165] Memory required for data: 536116400
I0126 10:33:23.155577 25851 layer_factory.hpp:76] Creating layer ip2
I0126 10:33:23.155611 25851 net.cpp:106] Creating Layer ip2
I0126 10:33:23.155637 25851 net.cpp:454] ip2 <- ip1
I0126 10:33:23.155668 25851 net.cpp:411] ip2 -> ip2
I0126 10:33:23.156591 25851 net.cpp:150] Setting up ip2
I0126 10:33:23.156608 25851 net.cpp:157] Top shape: 100 32 (3200)
I0126 10:33:23.156613 25851 net.cpp:165] Memory required for data: 536129200
I0126 10:33:23.156623 25851 layer_factory.hpp:76] Creating layer ip3
I0126 10:33:23.156636 25851 net.cpp:106] Creating Layer ip3
I0126 10:33:23.156642 25851 net.cpp:454] ip3 <- ip2
I0126 10:33:23.156651 25851 net.cpp:411] ip3 -> ip3
I0126 10:33:23.157166 25851 net.cpp:150] Setting up ip3
I0126 10:33:23.157184 25851 net.cpp:157] Top shape: 100 32 (3200)
I0126 10:33:23.157191 25851 net.cpp:165] Memory required for data: 536142000
I0126 10:33:23.157196 25851 layer_factory.hpp:76] Creating layer ip4
I0126 10:33:23.157208 25851 net.cpp:106] Creating Layer ip4
I0126 10:33:23.157214 25851 net.cpp:454] ip4 <- ip3
I0126 10:33:23.157225 25851 net.cpp:411] ip4 -> ip4
I0126 10:33:23.157379 25851 net.cpp:150] Setting up ip4
I0126 10:33:23.157393 25851 net.cpp:157] Top shape: 100 10 (1000)
I0126 10:33:23.157398 25851 net.cpp:165] Memory required for data: 536146000
I0126 10:33:23.157408 25851 layer_factory.hpp:76] Creating layer ip4_ip4_0_split
I0126 10:33:23.157421 25851 net.cpp:106] Creating Layer ip4_ip4_0_split
I0126 10:33:23.157428 25851 net.cpp:454] ip4_ip4_0_split <- ip4
I0126 10:33:23.157435 25851 net.cpp:411] ip4_ip4_0_split -> ip4_ip4_0_split_0
I0126 10:33:23.157445 25851 net.cpp:411] ip4_ip4_0_split -> ip4_ip4_0_split_1
I0126 10:33:23.157498 25851 net.cpp:150] Setting up ip4_ip4_0_split
I0126 10:33:23.157511 25851 net.cpp:157] Top shape: 100 10 (1000)
I0126 10:33:23.157518 25851 net.cpp:157] Top shape: 100 10 (1000)
I0126 10:33:23.157522 25851 net.cpp:165] Memory required for data: 536154000
I0126 10:33:23.157528 25851 layer_factory.hpp:76] Creating layer accuracy
I0126 10:33:23.157544 25851 net.cpp:106] Creating Layer accuracy
I0126 10:33:23.157552 25851 net.cpp:454] accuracy <- ip4_ip4_0_split_0
I0126 10:33:23.157579 25851 net.cpp:454] accuracy <- label_cifar_1_split_0
I0126 10:33:23.157590 25851 net.cpp:411] accuracy -> accuracy
…
