…
I0119 16:29:16.535042 11599 net.cpp:322] The NetState phase (0) differed from the phase (1) specified by a rule in layer accuracy
I0119 16:29:16.535265 11599 net.cpp:49] Initializing net from parameters: 
name: "Oxford102_VGG_CNN_S"
state {
  phase: TRAIN
}
layer {
  name: "data"
  type: "ImageData"
  top: "data"
  top: "label"
  include {
    phase: TRAIN
  }
  transform_param {
    mirror: true
    crop_size: 224
    mean_file: "/home/dl/caffe-master/models/bvlc_reference_caffenet/imagenet_mean.binaryproto"
  }
  image_data_param {
    source: "/home/dl/caffe-master/data/oxford102/test.txt"
    batch_size: 50
    new_height: 256
    new_width: 256
  }
}
layer {
  name: "conv1"
  type: "Convolution"
  bottom: "data"
  top: "conv1"
  param {
    lr_mult: 1
    decay_mult: 1
  }
  param {
    lr_mult: 2
    decay_mult: 0
  }
  convolution_param {
    num_output: 96
    kernel_size: 7
    stride: 2
    weight_filler {
      type: "gaussian"
      std: 0.01
    }
    bias_filler {
      type: "constant"
      value: 0
    }
  }
}
layer {
  name: "relu1"
  type: "ReLU"
  bottom: "conv1"
  top: "conv1"
}
layer {
  name: "norm1"
  type: "LRN"
  bottom: "conv1"
  top: "norm1"
  lrn_param {
    local_size: 5
    alpha: 0.0005
    beta: 0.75
    k: 2
  }
}
layer {
  name: "pool1"
  type: "Pooling"
  bottom: "norm1"
  top: "pool1"
  pooling_param {
    pool: MAX
    kernel_size: 3
    stride: 3
  }
}
layer {
  name: "conv2"
  type: "Convolution"
  bottom: "pool1"
  top: "conv2"
  param {
    lr_mult: 1
    decay_mult: 1
  }
  param {
    lr_mult: 2
    decay_mult: 0
  }
  convolution_param {
    num_output: 256
    kernel_size: 5
    weight_filler {
      type: "gaussian"
      std: 0.01
    }
    bias_filler {
      type: "constant"
      value: 1
    }
  }
}
layer {
  name: "relu2"
  type: "ReLU"
  bottom: "conv2"
  top: "conv2"
}
layer {
  name: "pool2"
  type: "Pooling"
  bottom: "conv2"
  top: "pool2"
  pooling_param {
    pool: MAX
    kernel_size: 2
    stride: 2
  }
}
layer {
  name: "conv3"
  type: "Convolution"
  bottom: "pool2"
  top: "conv3"
  param {
    lr_mult: 1
    decay_mult: 1
  }
  param {
    lr_mult: 2
    decay_mult: 0
  }
  convolution_param {
    num_output: 512
    pad: 1
    kernel_size: 3
    weight_filler {
      type: "gaussian"
      std: 0.01
    }
    bias_filler {
      type: "constant"
      value: 1
    }
  }
}
layer {
  name: "relu3"
  type: "ReLU"
  bottom: "conv3"
  top: "conv3"
}
layer {
  name: "conv4"
  type: "Convolution"
  bottom: "conv3"
  top: "conv4"
  param {
    lr_mult: 1
    decay_mult: 1
  }
  param {
    lr_mult: 2
    decay_mult: 0
  }
  convolution_param {
    num_output: 512
    pad: 1
    kernel_size: 3
    weight_filler {
      type: "gaussian"
      std: 0.01
    }
    bias_filler {
      type: "constant"
      value: 1
    }
  }
}
layer {
  name: "relu4"
  type: "ReLU"
  bottom: "conv4"
  top: "conv4"
}
layer {
  name: "conv5"
  type: "Convolution"
  bottom: "conv4"
  top: "conv5"
  param {
    lr_mult: 1
    decay_mult: 1
  }
  param {
    lr_mult: 2
    decay_mult: 0
  }
  convolution_param {
    num_output: 512
    pad: 1
    kernel_size: 3
    weight_filler {
      type: "gaussian"
      std: 0.005
    }
    bias_filler {
      type: "constant"
      value: 1
    }
  }
}
layer {
  name: "relu5"
  type: "ReLU"
  bottom: "conv5"
  top: "conv5"
}
layer {
  name: "pool5"
  type: "Pooling"
  bottom: "conv5"
  top: "pool5"
  pooling_param {
    pool: MAX
    kernel_size: 3
    stride: 3
  }
}
layer {
  name: "fc6"
  type: "InnerProduct"
  bottom: "pool5"
  top: "fc6"
  inner_product_param {
    num_output: 4096
  }
}
layer {
  name: "relu6"
  type: "ReLU"
  bottom: "fc6"
  top: "fc6"
}
layer {
  name: "drop6"
  type: "Dropout"
  bottom: "fc6"
  top: "fc6"
  dropout_param {
    dropout_ratio: 0.5
  }
}
layer {
  name: "fc7"
  type: "InnerProduct"
  bottom: "fc6"
  top: "fc7"
  inner_product_param {
    num_output: 4096
  }
}
layer {
  name: "relu7"
  type: "ReLU"
  bottom: "fc7"
  top: "fc7"
}
layer {
  name: "drop7"
  type: "Dropout"
  bottom: "fc7"
  top: "fc7"
  dropout_param {
    dropout_ratio: 0.5
  }
}
layer {
  name: "ip1"
  type: "InnerProduct"
  bottom: "fc7"
  top: "ip1"
  param {
    lr_mult: 1
    decay_mult: 1
  }
  param {
    lr_mult: 2
    decay_mult: 0
  }
  inner_product_param {
    num_output: 32
    weight_filler {
      type: "gaussian"
      std: 0.01
    }
    bias_filler {
      type: "constant"
      value: 0
    }
  }
}
layer {
  name: "ip2"
  type: "Sigmoid"
  bottom: "ip1"
  top: "ip2"
}
layer {
  name: "fc8_oxford102_hash"
  type: "InnerProduct"
  bottom: "ip2"
  top: "fc8_oxford102_hash"
  param {
    lr_mult: 10
    decay_mult: 1
  }
  param {
    lr_mult: 20
    decay_mult: 0
  }
  inner_product_param {
    num_output: 102
    weight_filler {
      type: "gaussian"
      std: 0.01
    }
    bias_filler {
      type: "constant"
      value: 0
    }
  }
}
layer {
  name: "loss"
  type: "SoftmaxWithLoss"
  bottom: "fc8_oxford102_hash"
  bottom: "label"
}
I0119 16:29:16.535430 11599 layer_factory.hpp:76] Creating layer data
I0119 16:29:16.535473 11599 net.cpp:106] Creating Layer data
I0119 16:29:16.535490 11599 net.cpp:411] data -> data
I0119 16:29:16.535521 11599 net.cpp:411] data -> label
I0119 16:29:16.535547 11599 data_transformer.cpp:25] Loading mean file from: /home/dl/caffe-master/models/bvlc_reference_caffenet/imagenet_mean.binaryproto
I0119 16:29:16.547511 11599 image_data_layer.cpp:36] Opening file /home/dl/caffe-master/data/oxford102/test.txt
I0119 16:29:16.550804 11599 image_data_layer.cpp:51] A total of 6149 images.
I0119 16:29:16.559335 11599 image_data_layer.cpp:78] output data size: 50,3,224,224
I0119 16:29:16.613198 11599 net.cpp:150] Setting up data
I0119 16:29:16.613255 11599 net.cpp:157] Top shape: 50 3 224 224 (7526400)
I0119 16:29:16.613265 11599 net.cpp:157] Top shape: 50 (50)
I0119 16:29:16.613270 11599 net.cpp:165] Memory required for data: 30105800
I0119 16:29:16.613282 11599 layer_factory.hpp:76] Creating layer conv1
I0119 16:29:16.613309 11599 net.cpp:106] Creating Layer conv1
I0119 16:29:16.613323 11599 net.cpp:454] conv1 <- data
I0119 16:29:16.613342 11599 net.cpp:411] conv1 -> conv1
I0119 16:29:16.780267 11599 cudnn_conv_layer.cpp:194] Reallocating workspace storage: 213876
I0119 16:29:16.780447 11599 net.cpp:150] Setting up conv1
I0119 16:29:16.780470 11599 net.cpp:157] Top shape: 50 96 109 109 (57028800)
I0119 16:29:16.780478 11599 net.cpp:165] Memory required for data: 258221000
I0119 16:29:16.780510 11599 layer_factory.hpp:76] Creating layer relu1
I0119 16:29:16.780529 11599 net.cpp:106] Creating Layer relu1
I0119 16:29:16.780539 11599 net.cpp:454] relu1 <- conv1
I0119 16:29:16.780550 11599 net.cpp:397] relu1 -> conv1 (in-place)
I0119 16:29:16.780768 11599 net.cpp:150] Setting up relu1
I0119 16:29:16.780784 11599 net.cpp:157] Top shape: 50 96 109 109 (57028800)
I0119 16:29:16.780791 11599 net.cpp:165] Memory required for data: 486336200
I0119 16:29:16.780797 11599 layer_factory.hpp:76] Creating layer norm1
I0119 16:29:16.780812 11599 net.cpp:106] Creating Layer norm1
I0119 16:29:16.780819 11599 net.cpp:454] norm1 <- conv1
I0119 16:29:16.780827 11599 net.cpp:411] norm1 -> norm1
I0119 16:29:16.781214 11599 net.cpp:150] Setting up norm1
I0119 16:29:16.781250 11599 net.cpp:157] Top shape: 50 96 109 109 (57028800)
I0119 16:29:16.781257 11599 net.cpp:165] Memory required for data: 714451400
I0119 16:29:16.781263 11599 layer_factory.hpp:76] Creating layer pool1
I0119 16:29:16.781278 11599 net.cpp:106] Creating Layer pool1
I0119 16:29:16.781286 11599 net.cpp:454] pool1 <- norm1
I0119 16:29:16.781296 11599 net.cpp:411] pool1 -> pool1
I0119 16:29:16.781555 11599 net.cpp:150] Setting up pool1
I0119 16:29:16.781572 11599 net.cpp:157] Top shape: 50 96 37 37 (6571200)
I0119 16:29:16.781579 11599 net.cpp:165] Memory required for data: 740736200
I0119 16:29:16.781584 11599 layer_factory.hpp:76] Creating layer conv2
I0119 16:29:16.781601 11599 net.cpp:106] Creating Layer conv2
I0119 16:29:16.781607 11599 net.cpp:454] conv2 <- pool1
I0119 16:29:16.781618 11599 net.cpp:411] conv2 -> conv2
I0119 16:29:16.806488 11599 cudnn_conv_layer.cpp:194] Reallocating workspace storage: 21972
I0119 16:29:16.806530 11599 net.cpp:150] Setting up conv2
I0119 16:29:16.806545 11599 net.cpp:157] Top shape: 50 256 33 33 (13939200)
I0119 16:29:16.806550 11599 net.cpp:165] Memory required for data: 796493000
I0119 16:29:16.806572 11599 layer_factory.hpp:76] Creating layer relu2
I0119 16:29:16.806586 11599 net.cpp:106] Creating Layer relu2
I0119 16:29:16.806596 11599 net.cpp:454] relu2 <- conv2
I0119 16:29:16.806605 11599 net.cpp:397] relu2 -> conv2 (in-place)
I0119 16:29:16.806949 11599 net.cpp:150] Setting up relu2
I0119 16:29:16.806967 11599 net.cpp:157] Top shape: 50 256 33 33 (13939200)
I0119 16:29:16.806973 11599 net.cpp:165] Memory required for data: 852249800
I0119 16:29:16.806979 11599 layer_factory.hpp:76] Creating layer pool2
I0119 16:29:16.806989 11599 net.cpp:106] Creating Layer pool2
I0119 16:29:16.806995 11599 net.cpp:454] pool2 <- conv2
I0119 16:29:16.807006 11599 net.cpp:411] pool2 -> pool2
I0119 16:29:16.807405 11599 net.cpp:150] Setting up pool2
I0119 16:29:16.807420 11599 net.cpp:157] Top shape: 50 256 17 17 (3699200)
I0119 16:29:16.807426 11599 net.cpp:165] Memory required for data: 867046600
I0119 16:29:16.807432 11599 layer_factory.hpp:76] Creating layer conv3
I0119 16:29:16.807451 11599 net.cpp:106] Creating Layer conv3
I0119 16:29:16.807459 11599 net.cpp:454] conv3 <- pool2
I0119 16:29:16.807471 11599 net.cpp:411] conv3 -> conv3
I0119 16:29:16.853446 11599 cudnn_conv_layer.cpp:194] Reallocating workspace storage: 11748
I0119 16:29:16.853616 11599 net.cpp:150] Setting up conv3
I0119 16:29:16.853636 11599 net.cpp:157] Top shape: 50 512 17 17 (7398400)
I0119 16:29:16.853642 11599 net.cpp:165] Memory required for data: 896640200
I0119 16:29:16.853662 11599 layer_factory.hpp:76] Creating layer relu3
I0119 16:29:16.853687 11599 net.cpp:106] Creating Layer relu3
I0119 16:29:16.853698 11599 net.cpp:454] relu3 <- conv3
I0119 16:29:16.853708 11599 net.cpp:397] relu3 -> conv3 (in-place)
I0119 16:29:16.854059 11599 net.cpp:150] Setting up relu3
I0119 16:29:16.854076 11599 net.cpp:157] Top shape: 50 512 17 17 (7398400)
I0119 16:29:16.854082 11599 net.cpp:165] Memory required for data: 926233800
I0119 16:29:16.854089 11599 layer_factory.hpp:76] Creating layer conv4
I0119 16:29:16.854104 11599 net.cpp:106] Creating Layer conv4
I0119 16:29:16.854112 11599 net.cpp:454] conv4 <- conv3
I0119 16:29:16.854125 11599 net.cpp:411] conv4 -> conv4
I0119 16:29:16.943954 11599 cudnn_conv_layer.cpp:194] Reallocating workspace storage: 11748
I0119 16:29:16.944005 11599 net.cpp:150] Setting up conv4
I0119 16:29:16.944020 11599 net.cpp:157] Top shape: 50 512 17 17 (7398400)
I0119 16:29:16.944025 11599 net.cpp:165] Memory required for data: 955827400
I0119 16:29:16.944038 11599 layer_factory.hpp:76] Creating layer relu4
I0119 16:29:16.944054 11599 net.cpp:106] Creating Layer relu4
I0119 16:29:16.944062 11599 net.cpp:454] relu4 <- conv4
I0119 16:29:16.944072 11599 net.cpp:397] relu4 -> conv4 (in-place)
I0119 16:29:16.944411 11599 net.cpp:150] Setting up relu4
I0119 16:29:16.944427 11599 net.cpp:157] Top shape: 50 512 17 17 (7398400)
I0119 16:29:16.944433 11599 net.cpp:165] Memory required for data: 985421000
I0119 16:29:16.944460 11599 layer_factory.hpp:76] Creating layer conv5
I0119 16:29:16.944478 11599 net.cpp:106] Creating Layer conv5
I0119 16:29:16.944485 11599 net.cpp:454] conv5 <- conv4
I0119 16:29:16.944497 11599 net.cpp:411] conv5 -> conv5
I0119 16:29:17.034425 11599 cudnn_conv_layer.cpp:194] Reallocating workspace storage: 11748
I0119 16:29:17.034472 11599 net.cpp:150] Setting up conv5
I0119 16:29:17.034487 11599 net.cpp:157] Top shape: 50 512 17 17 (7398400)
I0119 16:29:17.034492 11599 net.cpp:165] Memory required for data: 1015014600
I0119 16:29:17.034513 11599 layer_factory.hpp:76] Creating layer relu5
I0119 16:29:17.034528 11599 net.cpp:106] Creating Layer relu5
I0119 16:29:17.034536 11599 net.cpp:454] relu5 <- conv5
I0119 16:29:17.034548 11599 net.cpp:397] relu5 -> conv5 (in-place)
I0119 16:29:17.034762 11599 net.cpp:150] Setting up relu5
I0119 16:29:17.034777 11599 net.cpp:157] Top shape: 50 512 17 17 (7398400)
I0119 16:29:17.034783 11599 net.cpp:165] Memory required for data: 1044608200
I0119 16:29:17.034790 11599 layer_factory.hpp:76] Creating layer pool5
I0119 16:29:17.034802 11599 net.cpp:106] Creating Layer pool5
I0119 16:29:17.034812 11599 net.cpp:454] pool5 <- conv5
I0119 16:29:17.034821 11599 net.cpp:411] pool5 -> pool5
I0119 16:29:17.035200 11599 net.cpp:150] Setting up pool5
I0119 16:29:17.035217 11599 net.cpp:157] Top shape: 50 512 6 6 (921600)
I0119 16:29:17.035223 11599 net.cpp:165] Memory required for data: 1048294600
I0119 16:29:17.035228 11599 layer_factory.hpp:76] Creating layer fc6
I0119 16:29:17.035246 11599 net.cpp:106] Creating Layer fc6
I0119 16:29:17.035254 11599 net.cpp:454] fc6 <- pool5
I0119 16:29:17.035261 11599 net.cpp:411] fc6 -> fc6
I0119 16:29:17.202839 11599 net.cpp:150] Setting up fc6
I0119 16:29:17.202877 11599 net.cpp:157] Top shape: 50 4096 (204800)
I0119 16:29:17.202884 11599 net.cpp:165] Memory required for data: 1049113800
I0119 16:29:17.202899 11599 layer_factory.hpp:76] Creating layer relu6
I0119 16:29:17.202918 11599 net.cpp:106] Creating Layer relu6
I0119 16:29:17.202924 11599 net.cpp:454] relu6 <- fc6
I0119 16:29:17.202937 11599 net.cpp:397] relu6 -> fc6 (in-place)
I0119 16:29:17.203213 11599 net.cpp:150] Setting up relu6
I0119 16:29:17.203233 11599 net.cpp:157] Top shape: 50 4096 (204800)
I0119 16:29:17.203238 11599 net.cpp:165] Memory required for data: 1049933000
I0119 16:29:17.203244 11599 layer_factory.hpp:76] Creating layer drop6
I0119 16:29:17.203259 11599 net.cpp:106] Creating Layer drop6
I0119 16:29:17.203268 11599 net.cpp:454] drop6 <- fc6
I0119 16:29:17.203275 11599 net.cpp:397] drop6 -> fc6 (in-place)
I0119 16:29:17.203321 11599 net.cpp:150] Setting up drop6
I0119 16:29:17.203335 11599 net.cpp:157] Top shape: 50 4096 (204800)
I0119 16:29:17.203339 11599 net.cpp:165] Memory required for data: 1050752200
I0119 16:29:17.203346 11599 layer_factory.hpp:76] Creating layer fc7
I0119 16:29:17.203354 11599 net.cpp:106] Creating Layer fc7
I0119 16:29:17.203359 11599 net.cpp:454] fc7 <- fc6
I0119 16:29:17.203369 11599 net.cpp:411] fc7 -> fc7
I0119 16:29:17.240850 11599 net.cpp:150] Setting up fc7
I0119 16:29:17.240900 11599 net.cpp:157] Top shape: 50 4096 (204800)
I0119 16:29:17.240906 11599 net.cpp:165] Memory required for data: 1051571400
I0119 16:29:17.240921 11599 layer_factory.hpp:76] Creating layer relu7
I0119 16:29:17.240934 11599 net.cpp:106] Creating Layer relu7
I0119 16:29:17.240942 11599 net.cpp:454] relu7 <- fc7
I0119 16:29:17.240954 11599 net.cpp:397] relu7 -> fc7 (in-place)
I0119 16:29:17.241459 11599 net.cpp:150] Setting up relu7
I0119 16:29:17.241477 11599 net.cpp:157] Top shape: 50 4096 (204800)
I0119 16:29:17.241482 11599 net.cpp:165] Memory required for data: 1052390600
I0119 16:29:17.241488 11599 layer_factory.hpp:76] Creating layer drop7
I0119 16:29:17.241499 11599 net.cpp:106] Creating Layer drop7
I0119 16:29:17.241505 11599 net.cpp:454] drop7 <- fc7
I0119 16:29:17.241515 11599 net.cpp:397] drop7 -> fc7 (in-place)
I0119 16:29:17.241556 11599 net.cpp:150] Setting up drop7
I0119 16:29:17.241569 11599 net.cpp:157] Top shape: 50 4096 (204800)
I0119 16:29:17.241600 11599 net.cpp:165] Memory required for data: 1053209800
I0119 16:29:17.241607 11599 layer_factory.hpp:76] Creating layer ip1
I0119 16:29:17.241619 11599 net.cpp:106] Creating Layer ip1
I0119 16:29:17.241626 11599 net.cpp:454] ip1 <- fc7
I0119 16:29:17.241636 11599 net.cpp:411] ip1 -> ip1
I0119 16:29:17.246960 11599 net.cpp:150] Setting up ip1
I0119 16:29:17.246980 11599 net.cpp:157] Top shape: 50 32 (1600)
I0119 16:29:17.246986 11599 net.cpp:165] Memory required for data: 1053216200
I0119 16:29:17.246996 11599 layer_factory.hpp:76] Creating layer ip2
I0119 16:29:17.247007 11599 net.cpp:106] Creating Layer ip2
I0119 16:29:17.247015 11599 net.cpp:454] ip2 <- ip1
I0119 16:29:17.247025 11599 net.cpp:411] ip2 -> ip2
I0119 16:29:17.247268 11599 net.cpp:150] Setting up ip2
I0119 16:29:17.247287 11599 net.cpp:157] Top shape: 50 32 (1600)
I0119 16:29:17.247292 11599 net.cpp:165] Memory required for data: 1053222600
I0119 16:29:17.247298 11599 layer_factory.hpp:76] Creating layer fc8_oxford102_hash
I0119 16:29:17.247308 11599 net.cpp:106] Creating Layer fc8_oxford102_hash
I0119 16:29:17.247314 11599 net.cpp:454] fc8_oxford102_hash <- ip2
I0119 16:29:17.247326 11599 net.cpp:411] fc8_oxford102_hash -> fc8_oxford102_hash
I0119 16:29:17.247575 11599 net.cpp:150] Setting up fc8_oxford102_hash
I0119 16:29:17.247589 11599 net.cpp:157] Top shape: 50 102 (5100)
I0119 16:29:17.247596 11599 net.cpp:165] Memory required for data: 1053243000
I0119 16:29:17.247613 11599 layer_factory.hpp:76] Creating layer loss
I0119 16:29:17.247627 11599 net.cpp:106] Creating Layer loss
I0119 16:29:17.247632 11599 net.cpp:454] loss <- fc8_oxford102_hash
I0119 16:29:17.247639 11599 net.cpp:454] loss <- label
I0119 16:29:17.247655 11599 net.cpp:411] loss -> (automatic)
…
I0119 16:29:17.249392 11599 net.cpp:322] The NetState phase (1) differed from the phase (0) specified by a rule in layer data
I0119 16:29:17.249634 11599 net.cpp:49] Initializing net from parameters: 
name: "Oxford102_VGG_CNN_S"
state {
  phase: TEST
}
layer {
  name: "data"
  type: "ImageData"
  top: "data"
  top: "label"
  include {
    phase: TEST
  }
  transform_param {
    mirror: false
    crop_size: 224
    mean_file: "/home/dl/caffe-master/models/bvlc_reference_caffenet/imagenet_mean.binaryproto"
  }
  image_data_param {
    source: "/home/dl/caffe-master/data/oxford102/train.txt"
    batch_size: 50
    new_height: 256
    new_width: 256
  }
}
layer {
  name: "conv1"
  type: "Convolution"
  bottom: "data"
  top: "conv1"
  param {
    lr_mult: 1
    decay_mult: 1
  }
  param {
    lr_mult: 2
    decay_mult: 0
  }
  convolution_param {
    num_output: 96
    kernel_size: 7
    stride: 2
    weight_filler {
      type: "gaussian"
      std: 0.01
    }
    bias_filler {
      type: "constant"
      value: 0
    }
  }
}
layer {
  name: "relu1"
  type: "ReLU"
  bottom: "conv1"
  top: "conv1"
}
layer {
  name: "norm1"
  type: "LRN"
  bottom: "conv1"
  top: "norm1"
  lrn_param {
    local_size: 5
    alpha: 0.0005
    beta: 0.75
    k: 2
  }
}
layer {
  name: "pool1"
  type: "Pooling"
  bottom: "norm1"
  top: "pool1"
  pooling_param {
    pool: MAX
    kernel_size: 3
    stride: 3
  }
}
layer {
  name: "conv2"
  type: "Convolution"
  bottom: "pool1"
  top: "conv2"
  param {
    lr_mult: 1
    decay_mult: 1
  }
  param {
    lr_mult: 2
    decay_mult: 0
  }
  convolution_param {
    num_output: 256
    kernel_size: 5
    weight_filler {
      type: "gaussian"
      std: 0.01
    }
    bias_filler {
      type: "constant"
      value: 1
    }
  }
}
layer {
  name: "relu2"
  type: "ReLU"
  bottom: "conv2"
  top: "conv2"
}
layer {
  name: "pool2"
  type: "Pooling"
  bottom: "conv2"
  top: "pool2"
  pooling_param {
    pool: MAX
    kernel_size: 2
    stride: 2
  }
}
layer {
  name: "conv3"
  type: "Convolution"
  bottom: "pool2"
  top: "conv3"
  param {
    lr_mult: 1
    decay_mult: 1
  }
  param {
    lr_mult: 2
    decay_mult: 0
  }
  convolution_param {
    num_output: 512
    pad: 1
    kernel_size: 3
    weight_filler {
      type: "gaussian"
      std: 0.01
    }
    bias_filler {
      type: "constant"
      value: 1
    }
  }
}
layer {
  name: "relu3"
  type: "ReLU"
  bottom: "conv3"
  top: "conv3"
}
layer {
  name: "conv4"
  type: "Convolution"
  bottom: "conv3"
  top: "conv4"
  param {
    lr_mult: 1
    decay_mult: 1
  }
  param {
    lr_mult: 2
    decay_mult: 0
  }
  convolution_param {
    num_output: 512
    pad: 1
    kernel_size: 3
    weight_filler {
      type: "gaussian"
      std: 0.01
    }
    bias_filler {
      type: "constant"
      value: 1
    }
  }
}
layer {
  name: "relu4"
  type: "ReLU"
  bottom: "conv4"
  top: "conv4"
}
layer {
  name: "conv5"
  type: "Convolution"
  bottom: "conv4"
  top: "conv5"
  param {
    lr_mult: 1
    decay_mult: 1
  }
  param {
    lr_mult: 2
    decay_mult: 0
  }
  convolution_param {
    num_output: 512
    pad: 1
    kernel_size: 3
    weight_filler {
      type: "gaussian"
      std: 0.005
    }
    bias_filler {
      type: "constant"
      value: 1
    }
  }
}
layer {
  name: "relu5"
  type: "ReLU"
  bottom: "conv5"
  top: "conv5"
}
layer {
  name: "pool5"
  type: "Pooling"
  bottom: "conv5"
  top: "pool5"
  pooling_param {
    pool: MAX
    kernel_size: 3
    stride: 3
  }
}
layer {
  name: "fc6"
  type: "InnerProduct"
  bottom: "pool5"
  top: "fc6"
  inner_product_param {
    num_output: 4096
  }
}
layer {
  name: "relu6"
  type: "ReLU"
  bottom: "fc6"
  top: "fc6"
}
layer {
  name: "drop6"
  type: "Dropout"
  bottom: "fc6"
  top: "fc6"
  dropout_param {
    dropout_ratio: 0.5
  }
}
layer {
  name: "fc7"
  type: "InnerProduct"
  bottom: "fc6"
  top: "fc7"
  inner_product_param {
    num_output: 4096
  }
}
layer {
  name: "relu7"
  type: "ReLU"
  bottom: "fc7"
  top: "fc7"
}
layer {
  name: "drop7"
  type: "Dropout"
  bottom: "fc7"
  top: "fc7"
  dropout_param {
    dropout_ratio: 0.5
  }
}
layer {
  name: "ip1"
  type: "InnerProduct"
  bottom: "fc7"
  top: "ip1"
  param {
    lr_mult: 1
    decay_mult: 1
  }
  param {
    lr_mult: 2
    decay_mult: 0
  }
  inner_product_param {
    num_output: 32
    weight_filler {
      type: "gaussian"
      std: 0.01
    }
    bias_filler {
      type: "constant"
      value: 0
    }
  }
}
layer {
  name: "ip2"
  type: "Sigmoid"
  bottom: "ip1"
  top: "ip2"
}
layer {
  name: "fc8_oxford102_hash"
  type: "InnerProduct"
  bottom: "ip2"
  top: "fc8_oxford102_hash"
  param {
    lr_mult: 10
    decay_mult: 1
  }
  param {
    lr_mult: 20
    decay_mult: 0
  }
  inner_product_param {
    num_output: 102
    weight_filler {
      type: "gaussian"
      std: 0.01
    }
    bias_filler {
      type: "constant"
      value: 0
    }
  }
}
layer {
  name: "loss"
  type: "SoftmaxWithLoss"
  bottom: "fc8_oxford102_hash"
  bottom: "label"
}
layer {
  name: "accuracy"
  type: "Accuracy"
  bottom: "fc8_oxford102_hash"
  bottom: "label"
  top: "accuracy"
  include {
    phase: TEST
  }
}
I0119 16:29:17.249819 11599 layer_factory.hpp:76] Creating layer data
I0119 16:29:17.249841 11599 net.cpp:106] Creating Layer data
I0119 16:29:17.249850 11599 net.cpp:411] data -> data
I0119 16:29:17.249862 11599 net.cpp:411] data -> label
I0119 16:29:17.249874 11599 data_transformer.cpp:25] Loading mean file from: /home/dl/caffe-master/models/bvlc_reference_caffenet/imagenet_mean.binaryproto
I0119 16:29:17.252353 11599 image_data_layer.cpp:36] Opening file /home/dl/caffe-master/data/oxford102/train.txt
I0119 16:29:17.252902 11599 image_data_layer.cpp:51] A total of 1020 images.
I0119 16:29:17.257522 11599 image_data_layer.cpp:78] output data size: 50,3,224,224
I0119 16:29:17.312029 11599 net.cpp:150] Setting up data
I0119 16:29:17.312062 11599 net.cpp:157] Top shape: 50 3 224 224 (7526400)
I0119 16:29:17.312072 11599 net.cpp:157] Top shape: 50 (50)
I0119 16:29:17.312079 11599 net.cpp:165] Memory required for data: 30105800
I0119 16:29:17.312089 11599 layer_factory.hpp:76] Creating layer label_data_1_split
I0119 16:29:17.312111 11599 net.cpp:106] Creating Layer label_data_1_split
I0119 16:29:17.312119 11599 net.cpp:454] label_data_1_split <- label
I0119 16:29:17.312130 11599 net.cpp:411] label_data_1_split -> label_data_1_split_0
I0119 16:29:17.312145 11599 net.cpp:411] label_data_1_split -> label_data_1_split_1
I0119 16:29:17.313747 11599 net.cpp:150] Setting up label_data_1_split
I0119 16:29:17.313771 11599 net.cpp:157] Top shape: 50 (50)
I0119 16:29:17.313778 11599 net.cpp:157] Top shape: 50 (50)
I0119 16:29:17.313783 11599 net.cpp:165] Memory required for data: 30106200
I0119 16:29:17.313789 11599 layer_factory.hpp:76] Creating layer conv1
I0119 16:29:17.313807 11599 net.cpp:106] Creating Layer conv1
I0119 16:29:17.313812 11599 net.cpp:454] conv1 <- data
I0119 16:29:17.313822 11599 net.cpp:411] conv1 -> conv1
I0119 16:29:17.315717 11599 cudnn_conv_layer.cpp:194] Reallocating workspace storage: 213876
I0119 16:29:17.315759 11599 net.cpp:150] Setting up conv1
I0119 16:29:17.315771 11599 net.cpp:157] Top shape: 50 96 109 109 (57028800)
I0119 16:29:17.315776 11599 net.cpp:165] Memory required for data: 258221400
I0119 16:29:17.315793 11599 layer_factory.hpp:76] Creating layer relu1
I0119 16:29:17.315809 11599 net.cpp:106] Creating Layer relu1
I0119 16:29:17.315815 11599 net.cpp:454] relu1 <- conv1
I0119 16:29:17.315824 11599 net.cpp:397] relu1 -> conv1 (in-place)
I0119 16:29:17.316015 11599 net.cpp:150] Setting up relu1
I0119 16:29:17.316030 11599 net.cpp:157] Top shape: 50 96 109 109 (57028800)
I0119 16:29:17.316035 11599 net.cpp:165] Memory required for data: 486336600
I0119 16:29:17.316066 11599 layer_factory.hpp:76] Creating layer norm1
I0119 16:29:17.316082 11599 net.cpp:106] Creating Layer norm1
I0119 16:29:17.316087 11599 net.cpp:454] norm1 <- conv1
I0119 16:29:17.316095 11599 net.cpp:411] norm1 -> norm1
I0119 16:29:17.316460 11599 net.cpp:150] Setting up norm1
I0119 16:29:17.316478 11599 net.cpp:157] Top shape: 50 96 109 109 (57028800)
I0119 16:29:17.316483 11599 net.cpp:165] Memory required for data: 714451800
I0119 16:29:17.316489 11599 layer_factory.hpp:76] Creating layer pool1
I0119 16:29:17.316499 11599 net.cpp:106] Creating Layer pool1
I0119 16:29:17.316505 11599 net.cpp:454] pool1 <- norm1
I0119 16:29:17.316514 11599 net.cpp:411] pool1 -> pool1
I0119 16:29:17.316740 11599 net.cpp:150] Setting up pool1
I0119 16:29:17.316754 11599 net.cpp:157] Top shape: 50 96 37 37 (6571200)
I0119 16:29:17.316761 11599 net.cpp:165] Memory required for data: 740736600
I0119 16:29:17.316766 11599 layer_factory.hpp:76] Creating layer conv2
I0119 16:29:17.316777 11599 net.cpp:106] Creating Layer conv2
I0119 16:29:17.316783 11599 net.cpp:454] conv2 <- pool1
I0119 16:29:17.316792 11599 net.cpp:411] conv2 -> conv2
I0119 16:29:17.342021 11599 cudnn_conv_layer.cpp:194] Reallocating workspace storage: 21972
I0119 16:29:17.342063 11599 net.cpp:150] Setting up conv2
I0119 16:29:17.342077 11599 net.cpp:157] Top shape: 50 256 33 33 (13939200)
I0119 16:29:17.342083 11599 net.cpp:165] Memory required for data: 796493400
I0119 16:29:17.342103 11599 layer_factory.hpp:76] Creating layer relu2
I0119 16:29:17.342116 11599 net.cpp:106] Creating Layer relu2
I0119 16:29:17.342123 11599 net.cpp:454] relu2 <- conv2
I0119 16:29:17.342133 11599 net.cpp:397] relu2 -> conv2 (in-place)
I0119 16:29:17.342473 11599 net.cpp:150] Setting up relu2
I0119 16:29:17.342489 11599 net.cpp:157] Top shape: 50 256 33 33 (13939200)
I0119 16:29:17.342494 11599 net.cpp:165] Memory required for data: 852250200
I0119 16:29:17.342500 11599 layer_factory.hpp:76] Creating layer pool2
I0119 16:29:17.342514 11599 net.cpp:106] Creating Layer pool2
I0119 16:29:17.342519 11599 net.cpp:454] pool2 <- conv2
I0119 16:29:17.342527 11599 net.cpp:411] pool2 -> pool2
I0119 16:29:17.342756 11599 net.cpp:150] Setting up pool2
I0119 16:29:17.342772 11599 net.cpp:157] Top shape: 50 256 17 17 (3699200)
I0119 16:29:17.342777 11599 net.cpp:165] Memory required for data: 867047000
I0119 16:29:17.342782 11599 layer_factory.hpp:76] Creating layer conv3
I0119 16:29:17.342797 11599 net.cpp:106] Creating Layer conv3
I0119 16:29:17.342803 11599 net.cpp:454] conv3 <- pool2
I0119 16:29:17.342811 11599 net.cpp:411] conv3 -> conv3
I0119 16:29:17.390362 11599 cudnn_conv_layer.cpp:194] Reallocating workspace storage: 11748
I0119 16:29:17.390415 11599 net.cpp:150] Setting up conv3
I0119 16:29:17.390430 11599 net.cpp:157] Top shape: 50 512 17 17 (7398400)
I0119 16:29:17.390436 11599 net.cpp:165] Memory required for data: 896640600
I0119 16:29:17.390455 11599 layer_factory.hpp:76] Creating layer relu3
I0119 16:29:17.390470 11599 net.cpp:106] Creating Layer relu3
I0119 16:29:17.390477 11599 net.cpp:454] relu3 <- conv3
I0119 16:29:17.390486 11599 net.cpp:397] relu3 -> conv3 (in-place)
I0119 16:29:17.390813 11599 net.cpp:150] Setting up relu3
I0119 16:29:17.390827 11599 net.cpp:157] Top shape: 50 512 17 17 (7398400)
I0119 16:29:17.390833 11599 net.cpp:165] Memory required for data: 926234200
I0119 16:29:17.390839 11599 layer_factory.hpp:76] Creating layer conv4
I0119 16:29:17.390853 11599 net.cpp:106] Creating Layer conv4
I0119 16:29:17.390859 11599 net.cpp:454] conv4 <- conv3
I0119 16:29:17.390868 11599 net.cpp:411] conv4 -> conv4
I0119 16:29:17.482998 11599 cudnn_conv_layer.cpp:194] Reallocating workspace storage: 11748
I0119 16:29:17.483052 11599 net.cpp:150] Setting up conv4
I0119 16:29:17.483067 11599 net.cpp:157] Top shape: 50 512 17 17 (7398400)
I0119 16:29:17.483073 11599 net.cpp:165] Memory required for data: 955827800
I0119 16:29:17.483086 11599 layer_factory.hpp:76] Creating layer relu4
I0119 16:29:17.483100 11599 net.cpp:106] Creating Layer relu4
I0119 16:29:17.483108 11599 net.cpp:454] relu4 <- conv4
I0119 16:29:17.483142 11599 net.cpp:397] relu4 -> conv4 (in-place)
I0119 16:29:17.483479 11599 net.cpp:150] Setting up relu4
I0119 16:29:17.483496 11599 net.cpp:157] Top shape: 50 512 17 17 (7398400)
I0119 16:29:17.483502 11599 net.cpp:165] Memory required for data: 985421400
I0119 16:29:17.483508 11599 layer_factory.hpp:76] Creating layer conv5
I0119 16:29:17.483523 11599 net.cpp:106] Creating Layer conv5
I0119 16:29:17.483530 11599 net.cpp:454] conv5 <- conv4
I0119 16:29:17.483539 11599 net.cpp:411] conv5 -> conv5
I0119 16:29:17.575489 11599 cudnn_conv_layer.cpp:194] Reallocating workspace storage: 11748
I0119 16:29:17.575543 11599 net.cpp:150] Setting up conv5
I0119 16:29:17.575558 11599 net.cpp:157] Top shape: 50 512 17 17 (7398400)
I0119 16:29:17.575564 11599 net.cpp:165] Memory required for data: 1015015000
I0119 16:29:17.575583 11599 layer_factory.hpp:76] Creating layer relu5
I0119 16:29:17.575598 11599 net.cpp:106] Creating Layer relu5
I0119 16:29:17.575605 11599 net.cpp:454] relu5 <- conv5
I0119 16:29:17.575615 11599 net.cpp:397] relu5 -> conv5 (in-place)
I0119 16:29:17.575809 11599 net.cpp:150] Setting up relu5
I0119 16:29:17.575824 11599 net.cpp:157] Top shape: 50 512 17 17 (7398400)
I0119 16:29:17.575830 11599 net.cpp:165] Memory required for data: 1044608600
I0119 16:29:17.575836 11599 layer_factory.hpp:76] Creating layer pool5
I0119 16:29:17.575846 11599 net.cpp:106] Creating Layer pool5
I0119 16:29:17.575851 11599 net.cpp:454] pool5 <- conv5
I0119 16:29:17.575860 11599 net.cpp:411] pool5 -> pool5
I0119 16:29:17.576228 11599 net.cpp:150] Setting up pool5
I0119 16:29:17.576246 11599 net.cpp:157] Top shape: 50 512 6 6 (921600)
I0119 16:29:17.576251 11599 net.cpp:165] Memory required for data: 1048295000
I0119 16:29:17.576257 11599 layer_factory.hpp:76] Creating layer fc6
I0119 16:29:17.576272 11599 net.cpp:106] Creating Layer fc6
I0119 16:29:17.576277 11599 net.cpp:454] fc6 <- pool5
I0119 16:29:17.576285 11599 net.cpp:411] fc6 -> fc6
I0119 16:29:17.743299 11599 net.cpp:150] Setting up fc6
I0119 16:29:17.743345 11599 net.cpp:157] Top shape: 50 4096 (204800)
I0119 16:29:17.743351 11599 net.cpp:165] Memory required for data: 1049114200
I0119 16:29:17.743366 11599 layer_factory.hpp:76] Creating layer relu6
I0119 16:29:17.743381 11599 net.cpp:106] Creating Layer relu6
I0119 16:29:17.743388 11599 net.cpp:454] relu6 <- fc6
I0119 16:29:17.743399 11599 net.cpp:397] relu6 -> fc6 (in-place)
I0119 16:29:17.743670 11599 net.cpp:150] Setting up relu6
I0119 16:29:17.743685 11599 net.cpp:157] Top shape: 50 4096 (204800)
I0119 16:29:17.743691 11599 net.cpp:165] Memory required for data: 1049933400
I0119 16:29:17.743697 11599 layer_factory.hpp:76] Creating layer drop6
I0119 16:29:17.743708 11599 net.cpp:106] Creating Layer drop6
I0119 16:29:17.743715 11599 net.cpp:454] drop6 <- fc6
I0119 16:29:17.743721 11599 net.cpp:397] drop6 -> fc6 (in-place)
I0119 16:29:17.743763 11599 net.cpp:150] Setting up drop6
I0119 16:29:17.743775 11599 net.cpp:157] Top shape: 50 4096 (204800)
I0119 16:29:17.743780 11599 net.cpp:165] Memory required for data: 1050752600
I0119 16:29:17.743785 11599 layer_factory.hpp:76] Creating layer fc7
I0119 16:29:17.743795 11599 net.cpp:106] Creating Layer fc7
I0119 16:29:17.743801 11599 net.cpp:454] fc7 <- fc6
I0119 16:29:17.743809 11599 net.cpp:411] fc7 -> fc7
I0119 16:29:17.781316 11599 net.cpp:150] Setting up fc7
I0119 16:29:17.781359 11599 net.cpp:157] Top shape: 50 4096 (204800)
I0119 16:29:17.781366 11599 net.cpp:165] Memory required for data: 1051571800
I0119 16:29:17.781381 11599 layer_factory.hpp:76] Creating layer relu7
I0119 16:29:17.781396 11599 net.cpp:106] Creating Layer relu7
I0119 16:29:17.781404 11599 net.cpp:454] relu7 <- fc7
I0119 16:29:17.781414 11599 net.cpp:397] relu7 -> fc7 (in-place)
I0119 16:29:17.781940 11599 net.cpp:150] Setting up relu7
I0119 16:29:17.781957 11599 net.cpp:157] Top shape: 50 4096 (204800)
I0119 16:29:17.781963 11599 net.cpp:165] Memory required for data: 1052391000
I0119 16:29:17.781970 11599 layer_factory.hpp:76] Creating layer drop7
I0119 16:29:17.782006 11599 net.cpp:106] Creating Layer drop7
I0119 16:29:17.782012 11599 net.cpp:454] drop7 <- fc7
I0119 16:29:17.782021 11599 net.cpp:397] drop7 -> fc7 (in-place)
I0119 16:29:17.782064 11599 net.cpp:150] Setting up drop7
I0119 16:29:17.782076 11599 net.cpp:157] Top shape: 50 4096 (204800)
I0119 16:29:17.782083 11599 net.cpp:165] Memory required for data: 1053210200
I0119 16:29:17.782088 11599 layer_factory.hpp:76] Creating layer ip1
I0119 16:29:17.782099 11599 net.cpp:106] Creating Layer ip1
I0119 16:29:17.782105 11599 net.cpp:454] ip1 <- fc7
I0119 16:29:17.782114 11599 net.cpp:411] ip1 -> ip1
I0119 16:29:17.786967 11599 net.cpp:150] Setting up ip1
I0119 16:29:17.786984 11599 net.cpp:157] Top shape: 50 32 (1600)
I0119 16:29:17.786989 11599 net.cpp:165] Memory required for data: 1053216600
I0119 16:29:17.786999 11599 layer_factory.hpp:76] Creating layer ip2
I0119 16:29:17.787009 11599 net.cpp:106] Creating Layer ip2
I0119 16:29:17.787015 11599 net.cpp:454] ip2 <- ip1
I0119 16:29:17.787024 11599 net.cpp:411] ip2 -> ip2
I0119 16:29:17.787248 11599 net.cpp:150] Setting up ip2
I0119 16:29:17.787266 11599 net.cpp:157] Top shape: 50 32 (1600)
I0119 16:29:17.787271 11599 net.cpp:165] Memory required for data: 1053223000
I0119 16:29:17.787277 11599 layer_factory.hpp:76] Creating layer fc8_oxford102_hash
I0119 16:29:17.787287 11599 net.cpp:106] Creating Layer fc8_oxford102_hash
I0119 16:29:17.787293 11599 net.cpp:454] fc8_oxford102_hash <- ip2
I0119 16:29:17.787302 11599 net.cpp:411] fc8_oxford102_hash -> fc8_oxford102_hash
I0119 16:29:17.787549 11599 net.cpp:150] Setting up fc8_oxford102_hash
I0119 16:29:17.787564 11599 net.cpp:157] Top shape: 50 102 (5100)
I0119 16:29:17.787569 11599 net.cpp:165] Memory required for data: 1053243400
I0119 16:29:17.787585 11599 layer_factory.hpp:76] Creating layer fc8_oxford102_hash_fc8_oxford102_hash_0_split
I0119 16:29:17.787595 11599 net.cpp:106] Creating Layer fc8_oxford102_hash_fc8_oxford102_hash_0_split
I0119 16:29:17.787600 11599 net.cpp:454] fc8_oxford102_hash_fc8_oxford102_hash_0_split <- fc8_oxford102_hash
I0119 16:29:17.787607 11599 net.cpp:411] fc8_oxford102_hash_fc8_oxford102_hash_0_split -> fc8_oxford102_hash_fc8_oxford102_hash_0_split_0
I0119 16:29:17.787617 11599 net.cpp:411] fc8_oxford102_hash_fc8_oxford102_hash_0_split -> fc8_oxford102_hash_fc8_oxford102_hash_0_split_1
I0119 16:29:17.787665 11599 net.cpp:150] Setting up fc8_oxford102_hash_fc8_oxford102_hash_0_split
I0119 16:29:17.787678 11599 net.cpp:157] Top shape: 50 102 (5100)
I0119 16:29:17.787684 11599 net.cpp:157] Top shape: 50 102 (5100)
I0119 16:29:17.787689 11599 net.cpp:165] Memory required for data: 1053284200
I0119 16:29:17.787695 11599 layer_factory.hpp:76] Creating layer loss
I0119 16:29:17.787703 11599 net.cpp:106] Creating Layer loss
I0119 16:29:17.787709 11599 net.cpp:454] loss <- fc8_oxford102_hash_fc8_oxford102_hash_0_split_0
I0119 16:29:17.787715 11599 net.cpp:454] loss <- label_data_1_split_0
I0119 16:29:17.787724 11599 net.cpp:411] loss -> (automatic)
…
