…
I0118 16:09:22.130197  9820 net.cpp:322] The NetState phase (0) differed from the phase (1) specified by a rule in layer mnist
I0118 16:09:22.130223  9820 net.cpp:322] The NetState phase (0) differed from the phase (1) specified by a rule in layer accuracy
I0118 16:09:22.130341  9820 net.cpp:49] Initializing net from parameters: 
name: "LeNet"
state {
  phase: TRAIN
}
layer {
  name: "mnist"
  type: "Data"
  top: "data"
  top: "label"
  include {
    phase: TRAIN
  }
  transform_param {
    scale: 0.00390625
  }
  data_param {
    source: "examples/A-mnist/mnist_train_lmdb"
    batch_size: 64
    backend: LMDB
  }
}
layer {
  name: "conv1"
  type: "Convolution"
  bottom: "data"
  top: "conv1"
  param {
    lr_mult: 1
  }
  param {
    lr_mult: 2
  }
  convolution_param {
    num_output: 20
    kernel_size: 5
    stride: 1
    weight_filler {
      type: "xavier"
    }
    bias_filler {
      type: "constant"
    }
  }
}
layer {
  name: "pool1"
  type: "Pooling"
  bottom: "conv1"
  top: "pool1"
  pooling_param {
    pool: MAX
    kernel_size: 2
    stride: 2
  }
}
layer {
  name: "conv2"
  type: "Convolution"
  bottom: "pool1"
  top: "conv2"
  param {
    lr_mult: 1
  }
  param {
    lr_mult: 2
  }
  convolution_param {
    num_output: 50
    kernel_size: 5
    stride: 1
    weight_filler {
      type: "xavier"
    }
    bias_filler {
      type: "constant"
    }
  }
}
layer {
  name: "pool2"
  type: "Pooling"
  bottom: "conv2"
  top: "pool2"
  pooling_param {
    pool: MAX
    kernel_size: 2
    stride: 2
  }
}
layer {
  name: "ip1"
  type: "InnerProduct"
  bottom: "pool2"
  top: "ip1"
  param {
    lr_mult: 1
  }
  param {
    lr_mult: 2
  }
  inner_product_param {
    num_output: 500
    weight_filler {
      type: "xavier"
    }
    bias_filler {
      type: "constant"
    }
  }
}
layer {
  name: "relu1"
  type: "ReLU"
  bottom: "ip1"
  top: "ip1"
}
layer {
  name: "ip2_sig"
  type: "InnerProduct"
  bottom: "ip1"
  top: "ip2_sig"
  param {
    lr_mult: 1
  }
  param {
    lr_mult: 2
  }
  inner_product_param {
    num_output: 24
    weight_filler {
      type: "xavier"
    }
    bias_filler {
      type: "constant"
    }
  }
}
layer {
  name: "ip2_hash"
  type: "Sigmoid"
  bottom: "ip2_sig"
  top: "ip2_hash"
}
layer {
  name: "ip3"
  type: "InnerProduct"
  bottom: "ip2_hash"
  top: "ip3"
  param {
    lr_mult: 1
  }
  param {
    lr_mult: 2
  }
  inner_product_param {
    num_output: 10
    weight_filler {
      type: "xavier"
    }
    bias_filler {
      type: "constant"
    }
  }
}
layer {
  name: "loss"
  type: "SoftmaxWithLoss"
  bottom: "ip3"
  bottom: "label"
  top: "loss"
}
I0118 16:09:22.130445  9820 layer_factory.hpp:76] Creating layer mnist
I0118 16:09:22.131089  9820 net.cpp:106] Creating Layer mnist
I0118 16:09:22.131117  9820 net.cpp:411] mnist -> data
I0118 16:09:22.131156  9820 net.cpp:411] mnist -> label
I0118 16:09:22.132115  9826 db_lmdb.cpp:38] Opened lmdb examples/A-mnist/mnist_train_lmdb
I0118 16:09:22.141816  9820 data_layer.cpp:41] output data size: 64,1,28,28
I0118 16:09:22.142957  9820 net.cpp:150] Setting up mnist
I0118 16:09:22.143005  9820 net.cpp:157] Top shape: 64 1 28 28 (50176)
I0118 16:09:22.143018  9820 net.cpp:157] Top shape: 64 (64)
I0118 16:09:22.143024  9820 net.cpp:165] Memory required for data: 200960
I0118 16:09:22.143038  9820 layer_factory.hpp:76] Creating layer conv1
I0118 16:09:22.143060  9820 net.cpp:106] Creating Layer conv1
I0118 16:09:22.143070  9820 net.cpp:454] conv1 <- data
I0118 16:09:22.143091  9820 net.cpp:411] conv1 -> conv1
I0118 16:09:22.302758  9820 cudnn_conv_layer.cpp:194] Reallocating workspace storage: 20664
I0118 16:09:22.302848  9820 net.cpp:150] Setting up conv1
I0118 16:09:22.302867  9820 net.cpp:157] Top shape: 64 20 24 24 (737280)
I0118 16:09:22.302873  9820 net.cpp:165] Memory required for data: 3150080
I0118 16:09:22.302904  9820 layer_factory.hpp:76] Creating layer pool1
I0118 16:09:22.302927  9820 net.cpp:106] Creating Layer pool1
I0118 16:09:22.302939  9820 net.cpp:454] pool1 <- conv1
I0118 16:09:22.302949  9820 net.cpp:411] pool1 -> pool1
I0118 16:09:22.303212  9820 net.cpp:150] Setting up pool1
I0118 16:09:22.303230  9820 net.cpp:157] Top shape: 64 20 12 12 (184320)
I0118 16:09:22.303236  9820 net.cpp:165] Memory required for data: 3887360
I0118 16:09:22.303241  9820 layer_factory.hpp:76] Creating layer conv2
I0118 16:09:22.303258  9820 net.cpp:106] Creating Layer conv2
I0118 16:09:22.303266  9820 net.cpp:454] conv2 <- pool1
I0118 16:09:22.303275  9820 net.cpp:411] conv2 -> conv2
I0118 16:09:22.304580  9820 cudnn_conv_layer.cpp:194] Reallocating workspace storage: 10272
I0118 16:09:22.304734  9820 net.cpp:150] Setting up conv2
I0118 16:09:22.304754  9820 net.cpp:157] Top shape: 64 50 8 8 (204800)
I0118 16:09:22.304764  9820 net.cpp:165] Memory required for data: 4706560
I0118 16:09:22.304779  9820 layer_factory.hpp:76] Creating layer pool2
I0118 16:09:22.304791  9820 net.cpp:106] Creating Layer pool2
I0118 16:09:22.304800  9820 net.cpp:454] pool2 <- conv2
I0118 16:09:22.304811  9820 net.cpp:411] pool2 -> pool2
I0118 16:09:22.305191  9820 net.cpp:150] Setting up pool2
I0118 16:09:22.305207  9820 net.cpp:157] Top shape: 64 50 4 4 (51200)
I0118 16:09:22.305213  9820 net.cpp:165] Memory required for data: 4911360
I0118 16:09:22.305219  9820 layer_factory.hpp:76] Creating layer ip1
I0118 16:09:22.305236  9820 net.cpp:106] Creating Layer ip1
I0118 16:09:22.305243  9820 net.cpp:454] ip1 <- pool2
I0118 16:09:22.305253  9820 net.cpp:411] ip1 -> ip1
I0118 16:09:22.309240  9820 net.cpp:150] Setting up ip1
I0118 16:09:22.309258  9820 net.cpp:157] Top shape: 64 500 (32000)
I0118 16:09:22.309264  9820 net.cpp:165] Memory required for data: 5039360
I0118 16:09:22.309278  9820 layer_factory.hpp:76] Creating layer relu1
I0118 16:09:22.309290  9820 net.cpp:106] Creating Layer relu1
I0118 16:09:22.309298  9820 net.cpp:454] relu1 <- ip1
I0118 16:09:22.309305  9820 net.cpp:397] relu1 -> ip1 (in-place)
I0118 16:09:22.309516  9820 net.cpp:150] Setting up relu1
I0118 16:09:22.309531  9820 net.cpp:157] Top shape: 64 500 (32000)
I0118 16:09:22.309537  9820 net.cpp:165] Memory required for data: 5167360
I0118 16:09:22.309543  9820 layer_factory.hpp:76] Creating layer ip2_sig
I0118 16:09:22.309556  9820 net.cpp:106] Creating Layer ip2_sig
I0118 16:09:22.309564  9820 net.cpp:454] ip2_sig <- ip1
I0118 16:09:22.309576  9820 net.cpp:411] ip2_sig -> ip2_sig
I0118 16:09:22.310274  9820 net.cpp:150] Setting up ip2_sig
I0118 16:09:22.310292  9820 net.cpp:157] Top shape: 64 24 (1536)
I0118 16:09:22.310298  9820 net.cpp:165] Memory required for data: 5173504
I0118 16:09:22.310308  9820 layer_factory.hpp:76] Creating layer ip2_hash
I0118 16:09:22.310323  9820 net.cpp:106] Creating Layer ip2_hash
I0118 16:09:22.310329  9820 net.cpp:454] ip2_hash <- ip2_sig
I0118 16:09:22.310338  9820 net.cpp:411] ip2_hash -> ip2_hash
I0118 16:09:22.310695  9820 net.cpp:150] Setting up ip2_hash
I0118 16:09:22.310715  9820 net.cpp:157] Top shape: 64 24 (1536)
I0118 16:09:22.310721  9820 net.cpp:165] Memory required for data: 5179648
I0118 16:09:22.310727  9820 layer_factory.hpp:76] Creating layer ip3
I0118 16:09:22.310739  9820 net.cpp:106] Creating Layer ip3
I0118 16:09:22.310745  9820 net.cpp:454] ip3 <- ip2_hash
I0118 16:09:22.310755  9820 net.cpp:411] ip3 -> ip3
I0118 16:09:22.310883  9820 net.cpp:150] Setting up ip3
I0118 16:09:22.310896  9820 net.cpp:157] Top shape: 64 10 (640)
I0118 16:09:22.310901  9820 net.cpp:165] Memory required for data: 5182208
I0118 16:09:22.310920  9820 layer_factory.hpp:76] Creating layer loss
I0118 16:09:22.310935  9820 net.cpp:106] Creating Layer loss
I0118 16:09:22.310943  9820 net.cpp:454] loss <- ip3
I0118 16:09:22.310967  9820 net.cpp:454] loss <- label
I0118 16:09:22.310981  9820 net.cpp:411] loss -> loss
I0118 16:09:22.311002  9820 layer_factory.hpp:76] Creating layer loss
…
I0118 16:09:22.311924  9820 solver.cpp:180] Creating test net (#0) specified by net file: examples/A-mnist/train_test.prototxt
I0118 16:09:22.311965  9820 net.cpp:322] The NetState phase (1) differed from the phase (0) specified by a rule in layer mnist
I0118 16:09:22.312103  9820 net.cpp:49] Initializing net from parameters: 
name: "LeNet"
state {
  phase: TEST
}
layer {
  name: "mnist"
  type: "Data"
  top: "data"
  top: "label"
  include {
    phase: TEST
  }
  transform_param {
    scale: 0.00390625
  }
  data_param {
    source: "examples/A-mnist/mnist_test_lmdb"
    batch_size: 100
    backend: LMDB
  }
}
layer {
  name: "conv1"
  type: "Convolution"
  bottom: "data"
  top: "conv1"
  param {
    lr_mult: 1
  }
  param {
    lr_mult: 2
  }
  convolution_param {
    num_output: 20
    kernel_size: 5
    stride: 1
    weight_filler {
      type: "xavier"
    }
    bias_filler {
      type: "constant"
    }
  }
}
layer {
  name: "pool1"
  type: "Pooling"
  bottom: "conv1"
  top: "pool1"
  pooling_param {
    pool: MAX
    kernel_size: 2
    stride: 2
  }
}
layer {
  name: "conv2"
  type: "Convolution"
  bottom: "pool1"
  top: "conv2"
  param {
    lr_mult: 1
  }
  param {
    lr_mult: 2
  }
  convolution_param {
    num_output: 50
    kernel_size: 5
    stride: 1
    weight_filler {
      type: "xavier"
    }
    bias_filler {
      type: "constant"
    }
  }
}
layer {
  name: "pool2"
  type: "Pooling"
  bottom: "conv2"
  top: "pool2"
  pooling_param {
    pool: MAX
    kernel_size: 2
    stride: 2
  }
}
layer {
  name: "ip1"
  type: "InnerProduct"
  bottom: "pool2"
  top: "ip1"
  param {
    lr_mult: 1
  }
  param {
    lr_mult: 2
  }
  inner_product_param {
    num_output: 500
    weight_filler {
      type: "xavier"
    }
    bias_filler {
      type: "constant"
    }
  }
}
layer {
  name: "relu1"
  type: "ReLU"
  bottom: "ip1"
  top: "ip1"
}
layer {
  name: "ip2_sig"
  type: "InnerProduct"
  bottom: "ip1"
  top: "ip2_sig"
  param {
    lr_mult: 1
  }
  param {
    lr_mult: 2
  }
  inner_product_param {
    num_output: 24
    weight_filler {
      type: "xavier"
    }
    bias_filler {
      type: "constant"
    }
  }
}
layer {
  name: "ip2_hash"
  type: "Sigmoid"
  bottom: "ip2_sig"
  top: "ip2_hash"
}
layer {
  name: "ip3"
  type: "InnerProduct"
  bottom: "ip2_hash"
  top: "ip3"
  param {
    lr_mult: 1
  }
  param {
    lr_mult: 2
  }
  inner_product_param {
    num_output: 10
    weight_filler {
      type: "xavier"
    }
    bias_filler {
      type: "constant"
    }
  }
}
layer {
  name: "accuracy"
  type: "Accuracy"
  bottom: "ip3"
  bottom: "label"
  top: "accuracy"
  include {
    phase: TEST
  }
}
layer {
  name: "loss"
  type: "SoftmaxWithLoss"
  bottom: "ip3"
  bottom: "label"
  top: "loss"
}
I0118 16:09:22.312225  9820 layer_factory.hpp:76] Creating layer mnist
I0118 16:09:22.312366  9820 net.cpp:106] Creating Layer mnist
I0118 16:09:22.312381  9820 net.cpp:411] mnist -> data
I0118 16:09:22.312394  9820 net.cpp:411] mnist -> label
I0118 16:09:22.313407  9828 db_lmdb.cpp:38] Opened lmdb examples/A-mnist/mnist_test_lmdb
I0118 16:09:22.313544  9820 data_layer.cpp:41] output data size: 100,1,28,28
I0118 16:09:22.314678  9820 net.cpp:150] Setting up mnist
I0118 16:09:22.314697  9820 net.cpp:157] Top shape: 100 1 28 28 (78400)
I0118 16:09:22.314705  9820 net.cpp:157] Top shape: 100 (100)
I0118 16:09:22.314710  9820 net.cpp:165] Memory required for data: 314000
I0118 16:09:22.314716  9820 layer_factory.hpp:76] Creating layer label_mnist_1_split
I0118 16:09:22.314730  9820 net.cpp:106] Creating Layer label_mnist_1_split
I0118 16:09:22.314738  9820 net.cpp:454] label_mnist_1_split <- label
I0118 16:09:22.314745  9820 net.cpp:411] label_mnist_1_split -> label_mnist_1_split_0
I0118 16:09:22.314759  9820 net.cpp:411] label_mnist_1_split -> label_mnist_1_split_1
I0118 16:09:22.314808  9820 net.cpp:150] Setting up label_mnist_1_split
I0118 16:09:22.314820  9820 net.cpp:157] Top shape: 100 (100)
I0118 16:09:22.314826  9820 net.cpp:157] Top shape: 100 (100)
I0118 16:09:22.314831  9820 net.cpp:165] Memory required for data: 314800
I0118 16:09:22.314837  9820 layer_factory.hpp:76] Creating layer conv1
I0118 16:09:22.314854  9820 net.cpp:106] Creating Layer conv1
I0118 16:09:22.314862  9820 net.cpp:454] conv1 <- data
I0118 16:09:22.314872  9820 net.cpp:411] conv1 -> conv1
I0118 16:09:22.316289  9820 cudnn_conv_layer.cpp:194] Reallocating workspace storage: 20664
I0118 16:09:22.316321  9820 net.cpp:150] Setting up conv1
I0118 16:09:22.316335  9820 net.cpp:157] Top shape: 100 20 24 24 (1152000)
I0118 16:09:22.316341  9820 net.cpp:165] Memory required for data: 4922800
I0118 16:09:22.316355  9820 layer_factory.hpp:76] Creating layer pool1
I0118 16:09:22.316367  9820 net.cpp:106] Creating Layer pool1
I0118 16:09:22.316375  9820 net.cpp:454] pool1 <- conv1
I0118 16:09:22.316381  9820 net.cpp:411] pool1 -> pool1
I0118 16:09:22.316913  9820 net.cpp:150] Setting up pool1
I0118 16:09:22.316932  9820 net.cpp:157] Top shape: 100 20 12 12 (288000)
I0118 16:09:22.316946  9820 net.cpp:165] Memory required for data: 6074800
I0118 16:09:22.316954  9820 layer_factory.hpp:76] Creating layer conv2
I0118 16:09:22.316979  9820 net.cpp:106] Creating Layer conv2
I0118 16:09:22.316988  9820 net.cpp:454] conv2 <- pool1
I0118 16:09:22.317000  9820 net.cpp:411] conv2 -> conv2
I0118 16:09:22.318428  9820 cudnn_conv_layer.cpp:194] Reallocating workspace storage: 10272
I0118 16:09:22.318464  9820 net.cpp:150] Setting up conv2
I0118 16:09:22.318483  9820 net.cpp:157] Top shape: 100 50 8 8 (320000)
I0118 16:09:22.318490  9820 net.cpp:165] Memory required for data: 7354800
I0118 16:09:22.318503  9820 layer_factory.hpp:76] Creating layer pool2
I0118 16:09:22.318519  9820 net.cpp:106] Creating Layer pool2
I0118 16:09:22.318531  9820 net.cpp:454] pool2 <- conv2
I0118 16:09:22.318541  9820 net.cpp:411] pool2 -> pool2
I0118 16:09:22.318946  9820 net.cpp:150] Setting up pool2
I0118 16:09:22.318964  9820 net.cpp:157] Top shape: 100 50 4 4 (80000)
I0118 16:09:22.318969  9820 net.cpp:165] Memory required for data: 7674800
I0118 16:09:22.318975  9820 layer_factory.hpp:76] Creating layer ip1
I0118 16:09:22.318994  9820 net.cpp:106] Creating Layer ip1
I0118 16:09:22.319002  9820 net.cpp:454] ip1 <- pool2
I0118 16:09:22.319013  9820 net.cpp:411] ip1 -> ip1
I0118 16:09:22.323226  9820 net.cpp:150] Setting up ip1
I0118 16:09:22.323248  9820 net.cpp:157] Top shape: 100 500 (50000)
I0118 16:09:22.323254  9820 net.cpp:165] Memory required for data: 7874800
I0118 16:09:22.323271  9820 layer_factory.hpp:76] Creating layer relu1
I0118 16:09:22.323287  9820 net.cpp:106] Creating Layer relu1
I0118 16:09:22.323297  9820 net.cpp:454] relu1 <- ip1
I0118 16:09:22.323307  9820 net.cpp:397] relu1 -> ip1 (in-place)
I0118 16:09:22.323686  9820 net.cpp:150] Setting up relu1
I0118 16:09:22.323722  9820 net.cpp:157] Top shape: 100 500 (50000)
I0118 16:09:22.323730  9820 net.cpp:165] Memory required for data: 8074800
I0118 16:09:22.323737  9820 layer_factory.hpp:76] Creating layer ip2_sig
I0118 16:09:22.323755  9820 net.cpp:106] Creating Layer ip2_sig
I0118 16:09:22.323763  9820 net.cpp:454] ip2_sig <- ip1
I0118 16:09:22.323776  9820 net.cpp:411] ip2_sig -> ip2_sig
I0118 16:09:22.324048  9820 net.cpp:150] Setting up ip2_sig
I0118 16:09:22.324064  9820 net.cpp:157] Top shape: 100 24 (2400)
I0118 16:09:22.324070  9820 net.cpp:165] Memory required for data: 8084400
I0118 16:09:22.324081  9820 layer_factory.hpp:76] Creating layer ip2_hash
I0118 16:09:22.324091  9820 net.cpp:106] Creating Layer ip2_hash
I0118 16:09:22.324100  9820 net.cpp:454] ip2_hash <- ip2_sig
I0118 16:09:22.324108  9820 net.cpp:411] ip2_hash -> ip2_hash
I0118 16:09:22.324362  9820 net.cpp:150] Setting up ip2_hash
I0118 16:09:22.324378  9820 net.cpp:157] Top shape: 100 24 (2400)
I0118 16:09:22.324385  9820 net.cpp:165] Memory required for data: 8094000
I0118 16:09:22.324391  9820 layer_factory.hpp:76] Creating layer ip3
I0118 16:09:22.324405  9820 net.cpp:106] Creating Layer ip3
I0118 16:09:22.324412  9820 net.cpp:454] ip3 <- ip2_hash
I0118 16:09:22.324424  9820 net.cpp:411] ip3 -> ip3
I0118 16:09:22.324571  9820 net.cpp:150] Setting up ip3
I0118 16:09:22.324589  9820 net.cpp:157] Top shape: 100 10 (1000)
I0118 16:09:22.324597  9820 net.cpp:165] Memory required for data: 8098000
I0118 16:09:22.324612  9820 layer_factory.hpp:76] Creating layer ip3_ip3_0_split
I0118 16:09:22.324625  9820 net.cpp:106] Creating Layer ip3_ip3_0_split
I0118 16:09:22.324631  9820 net.cpp:454] ip3_ip3_0_split <- ip3
I0118 16:09:22.324640  9820 net.cpp:411] ip3_ip3_0_split -> ip3_ip3_0_split_0
I0118 16:09:22.324651  9820 net.cpp:411] ip3_ip3_0_split -> ip3_ip3_0_split_1
I0118 16:09:22.324704  9820 net.cpp:150] Setting up ip3_ip3_0_split
I0118 16:09:22.324717  9820 net.cpp:157] Top shape: 100 10 (1000)
I0118 16:09:22.324725  9820 net.cpp:157] Top shape: 100 10 (1000)
I0118 16:09:22.324731  9820 net.cpp:165] Memory required for data: 8106000
I0118 16:09:22.324738  9820 layer_factory.hpp:76] Creating layer accuracy
I0118 16:09:22.324753  9820 net.cpp:106] Creating Layer accuracy
I0118 16:09:22.324764  9820 net.cpp:454] accuracy <- ip3_ip3_0_split_0
I0118 16:09:22.324771  9820 net.cpp:454] accuracy <- label_mnist_1_split_0
I0118 16:09:22.324780  9820 net.cpp:411] accuracy -> accuracy
…
