…
I0125 13:36:34.085362 16145 net.cpp:322] The NetState phase (0) differed from the phase (1) specified by a rule in layer accuracy
I0125 13:36:34.085587 16145 net.cpp:49] Initializing net from parameters: 
name: "Oxford102_VGG_CNN_S"
state {
  phase: TRAIN
}
layer {
  name: "data"
  type: "ImageData"
  top: "data"
  top: "label"
  include {
    phase: TRAIN
  }
  transform_param {
    mirror: true
    crop_size: 224
    mean_file: "/home/dl/caffe-master/models/bvlc_reference_caffenet/imagenet_mean.binaryproto"
  }
  image_data_param {
    source: "/home/dl/caffe-master/data/oxford102/test.txt"
    batch_size: 50
    new_height: 256
    new_width: 256
  }
}
layer {
  name: "conv1"
  type: "Convolution"
  bottom: "data"
  top: "conv1"
  param {
    lr_mult: 1
    decay_mult: 1
  }
  param {
    lr_mult: 2
    decay_mult: 0
  }
  convolution_param {
    num_output: 96
    kernel_size: 7
    stride: 2
    weight_filler {
      type: "gaussian"
      std: 0.01
    }
    bias_filler {
      type: "constant"
      value: 0
    }
  }
}
layer {
  name: "relu1"
  type: "ReLU"
  bottom: "conv1"
  top: "conv1"
}
layer {
  name: "norm1"
  type: "LRN"
  bottom: "conv1"
  top: "norm1"
  lrn_param {
    local_size: 5
    alpha: 0.0005
    beta: 0.75
    k: 2
  }
}
layer {
  name: "pool1"
  type: "Pooling"
  bottom: "norm1"
  top: "pool1"
  pooling_param {
    pool: MAX
    kernel_size: 3
    stride: 3
  }
}
layer {
  name: "conv2"
  type: "Convolution"
  bottom: "pool1"
  top: "conv2"
  param {
    lr_mult: 1
    decay_mult: 1
  }
  param {
    lr_mult: 2
    decay_mult: 0
  }
  convolution_param {
    num_output: 256
    kernel_size: 5
    weight_filler {
      type: "gaussian"
      std: 0.01
    }
    bias_filler {
      type: "constant"
      value: 1
    }
  }
}
layer {
  name: "relu2"
  type: "ReLU"
  bottom: "conv2"
  top: "conv2"
}
layer {
  name: "pool2"
  type: "Pooling"
  bottom: "conv2"
  top: "pool2"
  pooling_param {
    pool: MAX
    kernel_size: 2
    stride: 2
  }
}
layer {
  name: "conv3"
  type: "Convolution"
  bottom: "pool2"
  top: "conv3"
  param {
    lr_mult: 1
    decay_mult: 1
  }
  param {
    lr_mult: 2
    decay_mult: 0
  }
  convolution_param {
    num_output: 512
    pad: 1
    kernel_size: 3
    weight_filler {
      type: "gaussian"
      std: 0.01
    }
    bias_filler {
      type: "constant"
      value: 1
    }
  }
}
layer {
  name: "relu3"
  type: "ReLU"
  bottom: "conv3"
  top: "conv3"
}
layer {
  name: "conv4"
  type: "Convolution"
  bottom: "conv3"
  top: "conv4"
  param {
    lr_mult: 1
    decay_mult: 1
  }
  param {
    lr_mult: 2
    decay_mult: 0
  }
  convolution_param {
    num_output: 512
    pad: 1
    kernel_size: 3
    weight_filler {
      type: "gaussian"
      std: 0.01
    }
    bias_filler {
      type: "constant"
      value: 1
    }
  }
}
layer {
  name: "relu4"
  type: "ReLU"
  bottom: "conv4"
  top: "conv4"
}
layer {
  name: "conv5"
  type: "Convolution"
  bottom: "conv4"
  top: "conv5"
  param {
    lr_mult: 1
    decay_mult: 1
  }
  param {
    lr_mult: 2
    decay_mult: 0
  }
  convolution_param {
    num_output: 512
    pad: 1
    kernel_size: 3
    weight_filler {
      type: "gaussian"
      std: 0.005
    }
    bias_filler {
      type: "constant"
      value: 1
    }
  }
}
layer {
  name: "relu5"
  type: "ReLU"
  bottom: "conv5"
  top: "conv5"
}
layer {
  name: "pool5"
  type: "Pooling"
  bottom: "conv5"
  top: "pool5"
  pooling_param {
    pool: MAX
    kernel_size: 3
    stride: 3
  }
}
layer {
  name: "fc6"
  type: "InnerProduct"
  bottom: "pool5"
  top: "fc6"
  inner_product_param {
    num_output: 4096
  }
}
layer {
  name: "relu6"
  type: "ReLU"
  bottom: "fc6"
  top: "fc6"
}
layer {
  name: "drop6"
  type: "Dropout"
  bottom: "fc6"
  top: "fc6"
  dropout_param {
    dropout_ratio: 0.5
  }
}
layer {
  name: "fc7"
  type: "InnerProduct"
  bottom: "fc6"
  top: "fc7"
  inner_product_param {
    num_output: 4096
  }
}
layer {
  name: "relu7"
  type: "ReLU"
  bottom: "fc7"
  top: "fc7"
}
layer {
  name: "drop7"
  type: "Dropout"
  bottom: "fc7"
  top: "fc7"
  dropout_param {
    dropout_ratio: 0.5
  }
}
layer {
  name: "ip1"
  type: "InnerProduct"
  bottom: "fc7"
  top: "ip1"
  param {
    lr_mult: 1
    decay_mult: 1
  }
  param {
    lr_mult: 2
    decay_mult: 0
  }
  inner_product_param {
    num_output: 128
    weight_filler {
      type: "gaussian"
      std: 0.01
    }
    bias_filler {
      type: "constant"
      value: 0
    }
  }
}
layer {
  name: "ip2"
  type: "Sigmoid"
  bottom: "ip1"
  top: "ip2"
}
layer {
  name: "fc8_oxford102_hash"
  type: "InnerProduct"
  bottom: "ip2"
  top: "fc8_oxford102_hash"
  param {
    lr_mult: 10
    decay_mult: 1
  }
  param {
    lr_mult: 20
    decay_mult: 0
  }
  inner_product_param {
    num_output: 102
    weight_filler {
      type: "gaussian"
      std: 0.01
    }
    bias_filler {
      type: "constant"
      value: 0
    }
  }
}
layer {
  name: "loss"
  type: "SoftmaxWithLoss"
  bottom: "fc8_oxford102_hash"
  bottom: "label"
}
I0125 13:36:34.085767 16145 layer_factory.hpp:76] Creating layer data
I0125 13:36:34.085810 16145 net.cpp:106] Creating Layer data
I0125 13:36:34.085824 16145 net.cpp:411] data -> data
I0125 13:36:34.085853 16145 net.cpp:411] data -> label
I0125 13:36:34.085876 16145 data_transformer.cpp:25] Loading mean file from: /home/dl/caffe-master/models/bvlc_reference_caffenet/imagenet_mean.binaryproto
I0125 13:36:34.097929 16145 image_data_layer.cpp:36] Opening file /home/dl/caffe-master/data/oxford102/test.txt
I0125 13:36:34.101202 16145 image_data_layer.cpp:51] A total of 6149 images.
I0125 13:36:34.109719 16145 image_data_layer.cpp:78] output data size: 50,3,224,224
I0125 13:36:34.163399 16145 net.cpp:150] Setting up data
I0125 13:36:34.163457 16145 net.cpp:157] Top shape: 50 3 224 224 (7526400)
I0125 13:36:34.163468 16145 net.cpp:157] Top shape: 50 (50)
I0125 13:36:34.163475 16145 net.cpp:165] Memory required for data: 30105800
I0125 13:36:34.163487 16145 layer_factory.hpp:76] Creating layer conv1
I0125 13:36:34.163514 16145 net.cpp:106] Creating Layer conv1
I0125 13:36:34.163527 16145 net.cpp:454] conv1 <- data
I0125 13:36:34.163547 16145 net.cpp:411] conv1 -> conv1
I0125 13:36:34.329919 16145 cudnn_conv_layer.cpp:194] Reallocating workspace storage: 213876
I0125 13:36:34.330099 16145 net.cpp:150] Setting up conv1
I0125 13:36:34.330122 16145 net.cpp:157] Top shape: 50 96 109 109 (57028800)
I0125 13:36:34.330129 16145 net.cpp:165] Memory required for data: 258221000
I0125 13:36:34.330162 16145 layer_factory.hpp:76] Creating layer relu1
I0125 13:36:34.330181 16145 net.cpp:106] Creating Layer relu1
I0125 13:36:34.330191 16145 net.cpp:454] relu1 <- conv1
I0125 13:36:34.330201 16145 net.cpp:397] relu1 -> conv1 (in-place)
I0125 13:36:34.330411 16145 net.cpp:150] Setting up relu1
I0125 13:36:34.330427 16145 net.cpp:157] Top shape: 50 96 109 109 (57028800)
I0125 13:36:34.330433 16145 net.cpp:165] Memory required for data: 486336200
I0125 13:36:34.330440 16145 layer_factory.hpp:76] Creating layer norm1
I0125 13:36:34.330456 16145 net.cpp:106] Creating Layer norm1
I0125 13:36:34.330461 16145 net.cpp:454] norm1 <- conv1
I0125 13:36:34.330471 16145 net.cpp:411] norm1 -> norm1
I0125 13:36:34.330843 16145 net.cpp:150] Setting up norm1
I0125 13:36:34.330879 16145 net.cpp:157] Top shape: 50 96 109 109 (57028800)
I0125 13:36:34.330886 16145 net.cpp:165] Memory required for data: 714451400
I0125 13:36:34.330893 16145 layer_factory.hpp:76] Creating layer pool1
I0125 13:36:34.330904 16145 net.cpp:106] Creating Layer pool1
I0125 13:36:34.330910 16145 net.cpp:454] pool1 <- norm1
I0125 13:36:34.330919 16145 net.cpp:411] pool1 -> pool1
I0125 13:36:34.331164 16145 net.cpp:150] Setting up pool1
I0125 13:36:34.331182 16145 net.cpp:157] Top shape: 50 96 37 37 (6571200)
I0125 13:36:34.331187 16145 net.cpp:165] Memory required for data: 740736200
I0125 13:36:34.331193 16145 layer_factory.hpp:76] Creating layer conv2
I0125 13:36:34.331207 16145 net.cpp:106] Creating Layer conv2
I0125 13:36:34.331214 16145 net.cpp:454] conv2 <- pool1
I0125 13:36:34.331223 16145 net.cpp:411] conv2 -> conv2
I0125 13:36:34.355734 16145 cudnn_conv_layer.cpp:194] Reallocating workspace storage: 21972
I0125 13:36:34.355779 16145 net.cpp:150] Setting up conv2
I0125 13:36:34.355794 16145 net.cpp:157] Top shape: 50 256 33 33 (13939200)
I0125 13:36:34.355800 16145 net.cpp:165] Memory required for data: 796493000
I0125 13:36:34.355823 16145 layer_factory.hpp:76] Creating layer relu2
I0125 13:36:34.355837 16145 net.cpp:106] Creating Layer relu2
I0125 13:36:34.355844 16145 net.cpp:454] relu2 <- conv2
I0125 13:36:34.355854 16145 net.cpp:397] relu2 -> conv2 (in-place)
I0125 13:36:34.356209 16145 net.cpp:150] Setting up relu2
I0125 13:36:34.356228 16145 net.cpp:157] Top shape: 50 256 33 33 (13939200)
I0125 13:36:34.356235 16145 net.cpp:165] Memory required for data: 852249800
I0125 13:36:34.356240 16145 layer_factory.hpp:76] Creating layer pool2
I0125 13:36:34.356251 16145 net.cpp:106] Creating Layer pool2
I0125 13:36:34.356256 16145 net.cpp:454] pool2 <- conv2
I0125 13:36:34.356264 16145 net.cpp:411] pool2 -> pool2
I0125 13:36:34.356724 16145 net.cpp:150] Setting up pool2
I0125 13:36:34.356740 16145 net.cpp:157] Top shape: 50 256 17 17 (3699200)
I0125 13:36:34.356746 16145 net.cpp:165] Memory required for data: 867046600
I0125 13:36:34.356752 16145 layer_factory.hpp:76] Creating layer conv3
I0125 13:36:34.356771 16145 net.cpp:106] Creating Layer conv3
I0125 13:36:34.356781 16145 net.cpp:454] conv3 <- pool2
I0125 13:36:34.356792 16145 net.cpp:411] conv3 -> conv3
I0125 13:36:34.402096 16145 cudnn_conv_layer.cpp:194] Reallocating workspace storage: 11748
I0125 13:36:34.402278 16145 net.cpp:150] Setting up conv3
I0125 13:36:34.402299 16145 net.cpp:157] Top shape: 50 512 17 17 (7398400)
I0125 13:36:34.402305 16145 net.cpp:165] Memory required for data: 896640200
I0125 13:36:34.402325 16145 layer_factory.hpp:76] Creating layer relu3
I0125 13:36:34.402340 16145 net.cpp:106] Creating Layer relu3
I0125 13:36:34.402348 16145 net.cpp:454] relu3 <- conv3
I0125 13:36:34.402359 16145 net.cpp:397] relu3 -> conv3 (in-place)
I0125 13:36:34.402730 16145 net.cpp:150] Setting up relu3
I0125 13:36:34.402747 16145 net.cpp:157] Top shape: 50 512 17 17 (7398400)
I0125 13:36:34.402753 16145 net.cpp:165] Memory required for data: 926233800
I0125 13:36:34.402760 16145 layer_factory.hpp:76] Creating layer conv4
I0125 13:36:34.402776 16145 net.cpp:106] Creating Layer conv4
I0125 13:36:34.402782 16145 net.cpp:454] conv4 <- conv3
I0125 13:36:34.402793 16145 net.cpp:411] conv4 -> conv4
I0125 13:36:34.491181 16145 cudnn_conv_layer.cpp:194] Reallocating workspace storage: 11748
I0125 13:36:34.491232 16145 net.cpp:150] Setting up conv4
I0125 13:36:34.491248 16145 net.cpp:157] Top shape: 50 512 17 17 (7398400)
I0125 13:36:34.491255 16145 net.cpp:165] Memory required for data: 955827400
I0125 13:36:34.491267 16145 layer_factory.hpp:76] Creating layer relu4
I0125 13:36:34.491283 16145 net.cpp:106] Creating Layer relu4
I0125 13:36:34.491291 16145 net.cpp:454] relu4 <- conv4
I0125 13:36:34.491302 16145 net.cpp:397] relu4 -> conv4 (in-place)
I0125 13:36:34.491652 16145 net.cpp:150] Setting up relu4
I0125 13:36:34.491669 16145 net.cpp:157] Top shape: 50 512 17 17 (7398400)
I0125 13:36:34.491675 16145 net.cpp:165] Memory required for data: 985421000
I0125 13:36:34.491703 16145 layer_factory.hpp:76] Creating layer conv5
I0125 13:36:34.491721 16145 net.cpp:106] Creating Layer conv5
I0125 13:36:34.491729 16145 net.cpp:454] conv5 <- conv4
I0125 13:36:34.491739 16145 net.cpp:411] conv5 -> conv5
I0125 13:36:34.580296 16145 cudnn_conv_layer.cpp:194] Reallocating workspace storage: 11748
I0125 13:36:34.580346 16145 net.cpp:150] Setting up conv5
I0125 13:36:34.580360 16145 net.cpp:157] Top shape: 50 512 17 17 (7398400)
I0125 13:36:34.580366 16145 net.cpp:165] Memory required for data: 1015014600
I0125 13:36:34.580389 16145 layer_factory.hpp:76] Creating layer relu5
I0125 13:36:34.580404 16145 net.cpp:106] Creating Layer relu5
I0125 13:36:34.580411 16145 net.cpp:454] relu5 <- conv5
I0125 13:36:34.580422 16145 net.cpp:397] relu5 -> conv5 (in-place)
I0125 13:36:34.580641 16145 net.cpp:150] Setting up relu5
I0125 13:36:34.580657 16145 net.cpp:157] Top shape: 50 512 17 17 (7398400)
I0125 13:36:34.580662 16145 net.cpp:165] Memory required for data: 1044608200
I0125 13:36:34.580668 16145 layer_factory.hpp:76] Creating layer pool5
I0125 13:36:34.580680 16145 net.cpp:106] Creating Layer pool5
I0125 13:36:34.580689 16145 net.cpp:454] pool5 <- conv5
I0125 13:36:34.580698 16145 net.cpp:411] pool5 -> pool5
I0125 13:36:34.581084 16145 net.cpp:150] Setting up pool5
I0125 13:36:34.581100 16145 net.cpp:157] Top shape: 50 512 6 6 (921600)
I0125 13:36:34.581106 16145 net.cpp:165] Memory required for data: 1048294600
I0125 13:36:34.581112 16145 layer_factory.hpp:76] Creating layer fc6
I0125 13:36:34.581130 16145 net.cpp:106] Creating Layer fc6
I0125 13:36:34.581137 16145 net.cpp:454] fc6 <- pool5
I0125 13:36:34.581146 16145 net.cpp:411] fc6 -> fc6
I0125 13:36:34.747376 16145 net.cpp:150] Setting up fc6
I0125 13:36:34.747416 16145 net.cpp:157] Top shape: 50 4096 (204800)
I0125 13:36:34.747423 16145 net.cpp:165] Memory required for data: 1049113800
I0125 13:36:34.747438 16145 layer_factory.hpp:76] Creating layer relu6
I0125 13:36:34.747457 16145 net.cpp:106] Creating Layer relu6
I0125 13:36:34.747464 16145 net.cpp:454] relu6 <- fc6
I0125 13:36:34.747476 16145 net.cpp:397] relu6 -> fc6 (in-place)
I0125 13:36:34.747759 16145 net.cpp:150] Setting up relu6
I0125 13:36:34.747776 16145 net.cpp:157] Top shape: 50 4096 (204800)
I0125 13:36:34.747784 16145 net.cpp:165] Memory required for data: 1049933000
I0125 13:36:34.747791 16145 layer_factory.hpp:76] Creating layer drop6
I0125 13:36:34.747805 16145 net.cpp:106] Creating Layer drop6
I0125 13:36:34.747813 16145 net.cpp:454] drop6 <- fc6
I0125 13:36:34.747820 16145 net.cpp:397] drop6 -> fc6 (in-place)
I0125 13:36:34.747869 16145 net.cpp:150] Setting up drop6
I0125 13:36:34.747881 16145 net.cpp:157] Top shape: 50 4096 (204800)
I0125 13:36:34.747886 16145 net.cpp:165] Memory required for data: 1050752200
I0125 13:36:34.747891 16145 layer_factory.hpp:76] Creating layer fc7
I0125 13:36:34.747901 16145 net.cpp:106] Creating Layer fc7
I0125 13:36:34.747906 16145 net.cpp:454] fc7 <- fc6
I0125 13:36:34.747916 16145 net.cpp:411] fc7 -> fc7
I0125 13:36:34.785166 16145 net.cpp:150] Setting up fc7
I0125 13:36:34.785215 16145 net.cpp:157] Top shape: 50 4096 (204800)
I0125 13:36:34.785223 16145 net.cpp:165] Memory required for data: 1051571400
I0125 13:36:34.785238 16145 layer_factory.hpp:76] Creating layer relu7
I0125 13:36:34.785251 16145 net.cpp:106] Creating Layer relu7
I0125 13:36:34.785259 16145 net.cpp:454] relu7 <- fc7
I0125 13:36:34.785269 16145 net.cpp:397] relu7 -> fc7 (in-place)
I0125 13:36:34.785800 16145 net.cpp:150] Setting up relu7
I0125 13:36:34.785818 16145 net.cpp:157] Top shape: 50 4096 (204800)
I0125 13:36:34.785825 16145 net.cpp:165] Memory required for data: 1052390600
I0125 13:36:34.785830 16145 layer_factory.hpp:76] Creating layer drop7
I0125 13:36:34.785841 16145 net.cpp:106] Creating Layer drop7
I0125 13:36:34.785847 16145 net.cpp:454] drop7 <- fc7
I0125 13:36:34.785858 16145 net.cpp:397] drop7 -> fc7 (in-place)
I0125 13:36:34.785897 16145 net.cpp:150] Setting up drop7
I0125 13:36:34.785912 16145 net.cpp:157] Top shape: 50 4096 (204800)
I0125 13:36:34.785936 16145 net.cpp:165] Memory required for data: 1053209800
I0125 13:36:34.785943 16145 layer_factory.hpp:76] Creating layer ip1
I0125 13:36:34.785955 16145 net.cpp:106] Creating Layer ip1
I0125 13:36:34.785967 16145 net.cpp:454] ip1 <- fc7
I0125 13:36:34.785982 16145 net.cpp:411] ip1 -> ip1
I0125 13:36:34.805557 16145 net.cpp:150] Setting up ip1
I0125 13:36:34.805584 16145 net.cpp:157] Top shape: 50 128 (6400)
I0125 13:36:34.805590 16145 net.cpp:165] Memory required for data: 1053235400
I0125 13:36:34.805603 16145 layer_factory.hpp:76] Creating layer ip2
I0125 13:36:34.805615 16145 net.cpp:106] Creating Layer ip2
I0125 13:36:34.805622 16145 net.cpp:454] ip2 <- ip1
I0125 13:36:34.805631 16145 net.cpp:411] ip2 -> ip2
I0125 13:36:34.805932 16145 net.cpp:150] Setting up ip2
I0125 13:36:34.805949 16145 net.cpp:157] Top shape: 50 128 (6400)
I0125 13:36:34.805955 16145 net.cpp:165] Memory required for data: 1053261000
I0125 13:36:34.805961 16145 layer_factory.hpp:76] Creating layer fc8_oxford102_hash
I0125 13:36:34.805975 16145 net.cpp:106] Creating Layer fc8_oxford102_hash
I0125 13:36:34.805982 16145 net.cpp:454] fc8_oxford102_hash <- ip2
I0125 13:36:34.805991 16145 net.cpp:411] fc8_oxford102_hash -> fc8_oxford102_hash
I0125 13:36:34.806604 16145 net.cpp:150] Setting up fc8_oxford102_hash
I0125 13:36:34.806619 16145 net.cpp:157] Top shape: 50 102 (5100)
I0125 13:36:34.806625 16145 net.cpp:165] Memory required for data: 1053281400
I0125 13:36:34.806644 16145 layer_factory.hpp:76] Creating layer loss
I0125 13:36:34.806658 16145 net.cpp:106] Creating Layer loss
I0125 13:36:34.806663 16145 net.cpp:454] loss <- fc8_oxford102_hash
I0125 13:36:34.806670 16145 net.cpp:454] loss <- label
I0125 13:36:34.806720 16145 net.cpp:411] loss -> (automatic)
…
I0125 13:36:34.808509 16145 net.cpp:322] The NetState phase (1) differed from the phase (0) specified by a rule in layer data
I0125 13:36:34.808750 16145 net.cpp:49] Initializing net from parameters: 
name: "Oxford102_VGG_CNN_S"
state {
  phase: TEST
}
layer {
  name: "data"
  type: "ImageData"
  top: "data"
  top: "label"
  include {
    phase: TEST
  }
  transform_param {
    mirror: false
    crop_size: 224
    mean_file: "/home/dl/caffe-master/models/bvlc_reference_caffenet/imagenet_mean.binaryproto"
  }
  image_data_param {
    source: "/home/dl/caffe-master/data/oxford102/train.txt"
    batch_size: 50
    new_height: 256
    new_width: 256
  }
}
layer {
  name: "conv1"
  type: "Convolution"
  bottom: "data"
  top: "conv1"
  param {
    lr_mult: 1
    decay_mult: 1
  }
  param {
    lr_mult: 2
    decay_mult: 0
  }
  convolution_param {
    num_output: 96
    kernel_size: 7
    stride: 2
    weight_filler {
      type: "gaussian"
      std: 0.01
    }
    bias_filler {
      type: "constant"
      value: 0
    }
  }
}
layer {
  name: "relu1"
  type: "ReLU"
  bottom: "conv1"
  top: "conv1"
}
layer {
  name: "norm1"
  type: "LRN"
  bottom: "conv1"
  top: "norm1"
  lrn_param {
    local_size: 5
    alpha: 0.0005
    beta: 0.75
    k: 2
  }
}
layer {
  name: "pool1"
  type: "Pooling"
  bottom: "norm1"
  top: "pool1"
  pooling_param {
    pool: MAX
    kernel_size: 3
    stride: 3
  }
}
layer {
  name: "conv2"
  type: "Convolution"
  bottom: "pool1"
  top: "conv2"
  param {
    lr_mult: 1
    decay_mult: 1
  }
  param {
    lr_mult: 2
    decay_mult: 0
  }
  convolution_param {
    num_output: 256
    kernel_size: 5
    weight_filler {
      type: "gaussian"
      std: 0.01
    }
    bias_filler {
      type: "constant"
      value: 1
    }
  }
}
layer {
  name: "relu2"
  type: "ReLU"
  bottom: "conv2"
  top: "conv2"
}
layer {
  name: "pool2"
  type: "Pooling"
  bottom: "conv2"
  top: "pool2"
  pooling_param {
    pool: MAX
    kernel_size: 2
    stride: 2
  }
}
layer {
  name: "conv3"
  type: "Convolution"
  bottom: "pool2"
  top: "conv3"
  param {
    lr_mult: 1
    decay_mult: 1
  }
  param {
    lr_mult: 2
    decay_mult: 0
  }
  convolution_param {
    num_output: 512
    pad: 1
    kernel_size: 3
    weight_filler {
      type: "gaussian"
      std: 0.01
    }
    bias_filler {
      type: "constant"
      value: 1
    }
  }
}
layer {
  name: "relu3"
  type: "ReLU"
  bottom: "conv3"
  top: "conv3"
}
layer {
  name: "conv4"
  type: "Convolution"
  bottom: "conv3"
  top: "conv4"
  param {
    lr_mult: 1
    decay_mult: 1
  }
  param {
    lr_mult: 2
    decay_mult: 0
  }
  convolution_param {
    num_output: 512
    pad: 1
    kernel_size: 3
    weight_filler {
      type: "gaussian"
      std: 0.01
    }
    bias_filler {
      type: "constant"
      value: 1
    }
  }
}
layer {
  name: "relu4"
  type: "ReLU"
  bottom: "conv4"
  top: "conv4"
}
layer {
  name: "conv5"
  type: "Convolution"
  bottom: "conv4"
  top: "conv5"
  param {
    lr_mult: 1
    decay_mult: 1
  }
  param {
    lr_mult: 2
    decay_mult: 0
  }
  convolution_param {
    num_output: 512
    pad: 1
    kernel_size: 3
    weight_filler {
      type: "gaussian"
      std: 0.005
    }
    bias_filler {
      type: "constant"
      value: 1
    }
  }
}
layer {
  name: "relu5"
  type: "ReLU"
  bottom: "conv5"
  top: "conv5"
}
layer {
  name: "pool5"
  type: "Pooling"
  bottom: "conv5"
  top: "pool5"
  pooling_param {
    pool: MAX
    kernel_size: 3
    stride: 3
  }
}
layer {
  name: "fc6"
  type: "InnerProduct"
  bottom: "pool5"
  top: "fc6"
  inner_product_param {
    num_output: 4096
  }
}
layer {
  name: "relu6"
  type: "ReLU"
  bottom: "fc6"
  top: "fc6"
}
layer {
  name: "drop6"
  type: "Dropout"
  bottom: "fc6"
  top: "fc6"
  dropout_param {
    dropout_ratio: 0.5
  }
}
layer {
  name: "fc7"
  type: "InnerProduct"
  bottom: "fc6"
  top: "fc7"
  inner_product_param {
    num_output: 4096
  }
}
layer {
  name: "relu7"
  type: "ReLU"
  bottom: "fc7"
  top: "fc7"
}
layer {
  name: "drop7"
  type: "Dropout"
  bottom: "fc7"
  top: "fc7"
  dropout_param {
    dropout_ratio: 0.5
  }
}
layer {
  name: "ip1"
  type: "InnerProduct"
  bottom: "fc7"
  top: "ip1"
  param {
    lr_mult: 1
    decay_mult: 1
  }
  param {
    lr_mult: 2
    decay_mult: 0
  }
  inner_product_param {
    num_output: 128
    weight_filler {
      type: "gaussian"
      std: 0.01
    }
    bias_filler {
      type: "constant"
      value: 0
    }
  }
}
layer {
  name: "ip2"
  type: "Sigmoid"
  bottom: "ip1"
  top: "ip2"
}
layer {
  name: "fc8_oxford102_hash"
  type: "InnerProduct"
  bottom: "ip2"
  top: "fc8_oxford102_hash"
  param {
    lr_mult: 10
    decay_mult: 1
  }
  param {
    lr_mult: 20
    decay_mult: 0
  }
  inner_product_param {
    num_output: 102
    weight_filler {
      type: "gaussian"
      std: 0.01
    }
    bias_filler {
      type: "constant"
      value: 0
    }
  }
}
layer {
  name: "loss"
  type: "SoftmaxWithLoss"
  bottom: "fc8_oxford102_hash"
  bottom: "label"
}
layer {
  name: "accuracy"
  type: "Accuracy"
  bottom: "fc8_oxford102_hash"
  bottom: "label"
  top: "accuracy"
  include {
    phase: TEST
  }
}
I0125 13:36:34.808935 16145 layer_factory.hpp:76] Creating layer data
I0125 13:36:34.808960 16145 net.cpp:106] Creating Layer data
I0125 13:36:34.808970 16145 net.cpp:411] data -> data
I0125 13:36:34.808984 16145 net.cpp:411] data -> label
I0125 13:36:34.808995 16145 data_transformer.cpp:25] Loading mean file from: /home/dl/caffe-master/models/bvlc_reference_caffenet/imagenet_mean.binaryproto
I0125 13:36:34.811496 16145 image_data_layer.cpp:36] Opening file /home/dl/caffe-master/data/oxford102/train.txt
I0125 13:36:34.812057 16145 image_data_layer.cpp:51] A total of 1020 images.
I0125 13:36:34.816696 16145 image_data_layer.cpp:78] output data size: 50,3,224,224
I0125 13:36:34.870831 16145 net.cpp:150] Setting up data
I0125 13:36:34.870863 16145 net.cpp:157] Top shape: 50 3 224 224 (7526400)
I0125 13:36:34.870873 16145 net.cpp:157] Top shape: 50 (50)
I0125 13:36:34.870878 16145 net.cpp:165] Memory required for data: 30105800
I0125 13:36:34.870888 16145 layer_factory.hpp:76] Creating layer label_data_1_split
I0125 13:36:34.870910 16145 net.cpp:106] Creating Layer label_data_1_split
I0125 13:36:34.870949 16145 net.cpp:454] label_data_1_split <- label
I0125 13:36:34.870966 16145 net.cpp:411] label_data_1_split -> label_data_1_split_0
I0125 13:36:34.871002 16145 net.cpp:411] label_data_1_split -> label_data_1_split_1
I0125 13:36:34.871083 16145 net.cpp:150] Setting up label_data_1_split
I0125 13:36:34.871098 16145 net.cpp:157] Top shape: 50 (50)
I0125 13:36:34.871125 16145 net.cpp:157] Top shape: 50 (50)
I0125 13:36:34.871134 16145 net.cpp:165] Memory required for data: 30106200
I0125 13:36:34.871140 16145 layer_factory.hpp:76] Creating layer conv1
I0125 13:36:34.871175 16145 net.cpp:106] Creating Layer conv1
I0125 13:36:34.871186 16145 net.cpp:454] conv1 <- data
I0125 13:36:34.871194 16145 net.cpp:411] conv1 -> conv1
I0125 13:36:34.873160 16145 cudnn_conv_layer.cpp:194] Reallocating workspace storage: 213876
I0125 13:36:34.873203 16145 net.cpp:150] Setting up conv1
I0125 13:36:34.873216 16145 net.cpp:157] Top shape: 50 96 109 109 (57028800)
I0125 13:36:34.873224 16145 net.cpp:165] Memory required for data: 258221400
I0125 13:36:34.873239 16145 layer_factory.hpp:76] Creating layer relu1
I0125 13:36:34.873251 16145 net.cpp:106] Creating Layer relu1
I0125 13:36:34.873260 16145 net.cpp:454] relu1 <- conv1
I0125 13:36:34.873268 16145 net.cpp:397] relu1 -> conv1 (in-place)
I0125 13:36:34.873463 16145 net.cpp:150] Setting up relu1
I0125 13:36:34.873478 16145 net.cpp:157] Top shape: 50 96 109 109 (57028800)
I0125 13:36:34.873520 16145 net.cpp:165] Memory required for data: 486336600
I0125 13:36:34.873545 16145 layer_factory.hpp:76] Creating layer norm1
I0125 13:36:34.873559 16145 net.cpp:106] Creating Layer norm1
I0125 13:36:34.873567 16145 net.cpp:454] norm1 <- conv1
I0125 13:36:34.873575 16145 net.cpp:411] norm1 -> norm1
I0125 13:36:34.873966 16145 net.cpp:150] Setting up norm1
I0125 13:36:34.873985 16145 net.cpp:157] Top shape: 50 96 109 109 (57028800)
I0125 13:36:34.873992 16145 net.cpp:165] Memory required for data: 714451800
I0125 13:36:34.873999 16145 layer_factory.hpp:76] Creating layer pool1
I0125 13:36:34.874011 16145 net.cpp:106] Creating Layer pool1
I0125 13:36:34.874018 16145 net.cpp:454] pool1 <- norm1
I0125 13:36:34.874027 16145 net.cpp:411] pool1 -> pool1
I0125 13:36:34.874259 16145 net.cpp:150] Setting up pool1
I0125 13:36:34.874275 16145 net.cpp:157] Top shape: 50 96 37 37 (6571200)
I0125 13:36:34.874282 16145 net.cpp:165] Memory required for data: 740736600
I0125 13:36:34.874289 16145 layer_factory.hpp:76] Creating layer conv2
I0125 13:36:34.874302 16145 net.cpp:106] Creating Layer conv2
I0125 13:36:34.874310 16145 net.cpp:454] conv2 <- pool1
I0125 13:36:34.874318 16145 net.cpp:411] conv2 -> conv2
I0125 13:36:34.898447 16145 cudnn_conv_layer.cpp:194] Reallocating workspace storage: 21972
I0125 13:36:34.898537 16145 net.cpp:150] Setting up conv2
I0125 13:36:34.898573 16145 net.cpp:157] Top shape: 50 256 33 33 (13939200)
I0125 13:36:34.898597 16145 net.cpp:165] Memory required for data: 796493400
I0125 13:36:34.898634 16145 layer_factory.hpp:76] Creating layer relu2
I0125 13:36:34.898668 16145 net.cpp:106] Creating Layer relu2
I0125 13:36:34.898692 16145 net.cpp:454] relu2 <- conv2
I0125 13:36:34.898720 16145 net.cpp:397] relu2 -> conv2 (in-place)
I0125 13:36:34.899081 16145 net.cpp:150] Setting up relu2
I0125 13:36:34.899119 16145 net.cpp:157] Top shape: 50 256 33 33 (13939200)
I0125 13:36:34.899143 16145 net.cpp:165] Memory required for data: 852250200
I0125 13:36:34.899166 16145 layer_factory.hpp:76] Creating layer pool2
I0125 13:36:34.899197 16145 net.cpp:106] Creating Layer pool2
I0125 13:36:34.899222 16145 net.cpp:454] pool2 <- conv2
I0125 13:36:34.899248 16145 net.cpp:411] pool2 -> pool2
I0125 13:36:34.899502 16145 net.cpp:150] Setting up pool2
I0125 13:36:34.899539 16145 net.cpp:157] Top shape: 50 256 17 17 (3699200)
I0125 13:36:34.899562 16145 net.cpp:165] Memory required for data: 867047000
I0125 13:36:34.899585 16145 layer_factory.hpp:76] Creating layer conv3
I0125 13:36:34.899617 16145 net.cpp:106] Creating Layer conv3
I0125 13:36:34.899642 16145 net.cpp:454] conv3 <- pool2
I0125 13:36:34.899669 16145 net.cpp:411] conv3 -> conv3
I0125 13:36:34.944900 16145 cudnn_conv_layer.cpp:194] Reallocating workspace storage: 11748
I0125 13:36:34.944952 16145 net.cpp:150] Setting up conv3
I0125 13:36:34.944967 16145 net.cpp:157] Top shape: 50 512 17 17 (7398400)
I0125 13:36:34.944973 16145 net.cpp:165] Memory required for data: 896640600
I0125 13:36:34.944993 16145 layer_factory.hpp:76] Creating layer relu3
I0125 13:36:34.945039 16145 net.cpp:106] Creating Layer relu3
I0125 13:36:34.945067 16145 net.cpp:454] relu3 <- conv3
I0125 13:36:34.945096 16145 net.cpp:397] relu3 -> conv3 (in-place)
I0125 13:36:34.945437 16145 net.cpp:150] Setting up relu3
I0125 13:36:34.945456 16145 net.cpp:157] Top shape: 50 512 17 17 (7398400)
I0125 13:36:34.945461 16145 net.cpp:165] Memory required for data: 926234200
I0125 13:36:34.945467 16145 layer_factory.hpp:76] Creating layer conv4
I0125 13:36:34.945480 16145 net.cpp:106] Creating Layer conv4
I0125 13:36:34.945487 16145 net.cpp:454] conv4 <- conv3
I0125 13:36:34.945497 16145 net.cpp:411] conv4 -> conv4
I0125 13:36:35.034261 16145 cudnn_conv_layer.cpp:194] Reallocating workspace storage: 11748
I0125 13:36:35.034315 16145 net.cpp:150] Setting up conv4
I0125 13:36:35.034329 16145 net.cpp:157] Top shape: 50 512 17 17 (7398400)
I0125 13:36:35.034335 16145 net.cpp:165] Memory required for data: 955827800
I0125 13:36:35.034348 16145 layer_factory.hpp:76] Creating layer relu4
I0125 13:36:35.034363 16145 net.cpp:106] Creating Layer relu4
I0125 13:36:35.034395 16145 net.cpp:454] relu4 <- conv4
I0125 13:36:35.034407 16145 net.cpp:397] relu4 -> conv4 (in-place)
I0125 13:36:35.034747 16145 net.cpp:150] Setting up relu4
I0125 13:36:35.034765 16145 net.cpp:157] Top shape: 50 512 17 17 (7398400)
I0125 13:36:35.034770 16145 net.cpp:165] Memory required for data: 985421400
I0125 13:36:35.034776 16145 layer_factory.hpp:76] Creating layer conv5
I0125 13:36:35.034790 16145 net.cpp:106] Creating Layer conv5
I0125 13:36:35.034797 16145 net.cpp:454] conv5 <- conv4
I0125 13:36:35.034806 16145 net.cpp:411] conv5 -> conv5
I0125 13:36:35.127377 16145 cudnn_conv_layer.cpp:194] Reallocating workspace storage: 11748
I0125 13:36:35.127430 16145 net.cpp:150] Setting up conv5
I0125 13:36:35.127444 16145 net.cpp:157] Top shape: 50 512 17 17 (7398400)
I0125 13:36:35.127450 16145 net.cpp:165] Memory required for data: 1015015000
I0125 13:36:35.127470 16145 layer_factory.hpp:76] Creating layer relu5
I0125 13:36:35.127485 16145 net.cpp:106] Creating Layer relu5
I0125 13:36:35.127492 16145 net.cpp:454] relu5 <- conv5
I0125 13:36:35.127501 16145 net.cpp:397] relu5 -> conv5 (in-place)
I0125 13:36:35.127698 16145 net.cpp:150] Setting up relu5
I0125 13:36:35.127715 16145 net.cpp:157] Top shape: 50 512 17 17 (7398400)
I0125 13:36:35.127720 16145 net.cpp:165] Memory required for data: 1044608600
I0125 13:36:35.127727 16145 layer_factory.hpp:76] Creating layer pool5
I0125 13:36:35.127737 16145 net.cpp:106] Creating Layer pool5
I0125 13:36:35.127743 16145 net.cpp:454] pool5 <- conv5
I0125 13:36:35.127750 16145 net.cpp:411] pool5 -> pool5
I0125 13:36:35.128124 16145 net.cpp:150] Setting up pool5
I0125 13:36:35.128142 16145 net.cpp:157] Top shape: 50 512 6 6 (921600)
I0125 13:36:35.128149 16145 net.cpp:165] Memory required for data: 1048295000
I0125 13:36:35.128154 16145 layer_factory.hpp:76] Creating layer fc6
I0125 13:36:35.128167 16145 net.cpp:106] Creating Layer fc6
I0125 13:36:35.128173 16145 net.cpp:454] fc6 <- pool5
I0125 13:36:35.128181 16145 net.cpp:411] fc6 -> fc6
I0125 13:36:35.296703 16145 net.cpp:150] Setting up fc6
I0125 13:36:35.296753 16145 net.cpp:157] Top shape: 50 4096 (204800)
I0125 13:36:35.296759 16145 net.cpp:165] Memory required for data: 1049114200
I0125 13:36:35.296774 16145 layer_factory.hpp:76] Creating layer relu6
I0125 13:36:35.296788 16145 net.cpp:106] Creating Layer relu6
I0125 13:36:35.296797 16145 net.cpp:454] relu6 <- fc6
I0125 13:36:35.296807 16145 net.cpp:397] relu6 -> fc6 (in-place)
I0125 13:36:35.297081 16145 net.cpp:150] Setting up relu6
I0125 13:36:35.297098 16145 net.cpp:157] Top shape: 50 4096 (204800)
I0125 13:36:35.297103 16145 net.cpp:165] Memory required for data: 1049933400
I0125 13:36:35.297109 16145 layer_factory.hpp:76] Creating layer drop6
I0125 13:36:35.297121 16145 net.cpp:106] Creating Layer drop6
I0125 13:36:35.297127 16145 net.cpp:454] drop6 <- fc6
I0125 13:36:35.297134 16145 net.cpp:397] drop6 -> fc6 (in-place)
I0125 13:36:35.297175 16145 net.cpp:150] Setting up drop6
I0125 13:36:35.297188 16145 net.cpp:157] Top shape: 50 4096 (204800)
I0125 13:36:35.297194 16145 net.cpp:165] Memory required for data: 1050752600
I0125 13:36:35.297199 16145 layer_factory.hpp:76] Creating layer fc7
I0125 13:36:35.297209 16145 net.cpp:106] Creating Layer fc7
I0125 13:36:35.297214 16145 net.cpp:454] fc7 <- fc6
I0125 13:36:35.297221 16145 net.cpp:411] fc7 -> fc7
I0125 13:36:35.334455 16145 net.cpp:150] Setting up fc7
I0125 13:36:35.334493 16145 net.cpp:157] Top shape: 50 4096 (204800)
I0125 13:36:35.334501 16145 net.cpp:165] Memory required for data: 1051571800
I0125 13:36:35.334514 16145 layer_factory.hpp:76] Creating layer relu7
I0125 13:36:35.334529 16145 net.cpp:106] Creating Layer relu7
I0125 13:36:35.334537 16145 net.cpp:454] relu7 <- fc7
I0125 13:36:35.334547 16145 net.cpp:397] relu7 -> fc7 (in-place)
I0125 13:36:35.335059 16145 net.cpp:150] Setting up relu7
I0125 13:36:35.335078 16145 net.cpp:157] Top shape: 50 4096 (204800)
I0125 13:36:35.335084 16145 net.cpp:165] Memory required for data: 1052391000
I0125 13:36:35.335090 16145 layer_factory.hpp:76] Creating layer drop7
I0125 13:36:35.335124 16145 net.cpp:106] Creating Layer drop7
I0125 13:36:35.335131 16145 net.cpp:454] drop7 <- fc7
I0125 13:36:35.335139 16145 net.cpp:397] drop7 -> fc7 (in-place)
I0125 13:36:35.335183 16145 net.cpp:150] Setting up drop7
I0125 13:36:35.335196 16145 net.cpp:157] Top shape: 50 4096 (204800)
I0125 13:36:35.335201 16145 net.cpp:165] Memory required for data: 1053210200
I0125 13:36:35.335207 16145 layer_factory.hpp:76] Creating layer ip1
I0125 13:36:35.335218 16145 net.cpp:106] Creating Layer ip1
I0125 13:36:35.335224 16145 net.cpp:454] ip1 <- fc7
I0125 13:36:35.335233 16145 net.cpp:411] ip1 -> ip1
I0125 13:36:35.354821 16145 net.cpp:150] Setting up ip1
I0125 13:36:35.354846 16145 net.cpp:157] Top shape: 50 128 (6400)
I0125 13:36:35.354851 16145 net.cpp:165] Memory required for data: 1053235800
I0125 13:36:35.354863 16145 layer_factory.hpp:76] Creating layer ip2
I0125 13:36:35.354876 16145 net.cpp:106] Creating Layer ip2
I0125 13:36:35.354882 16145 net.cpp:454] ip2 <- ip1
I0125 13:36:35.354890 16145 net.cpp:411] ip2 -> ip2
I0125 13:36:35.355160 16145 net.cpp:150] Setting up ip2
I0125 13:36:35.355177 16145 net.cpp:157] Top shape: 50 128 (6400)
I0125 13:36:35.355183 16145 net.cpp:165] Memory required for data: 1053261400
I0125 13:36:35.355188 16145 layer_factory.hpp:76] Creating layer fc8_oxford102_hash
I0125 13:36:35.355201 16145 net.cpp:106] Creating Layer fc8_oxford102_hash
I0125 13:36:35.355206 16145 net.cpp:454] fc8_oxford102_hash <- ip2
I0125 13:36:35.355216 16145 net.cpp:411] fc8_oxford102_hash -> fc8_oxford102_hash
I0125 13:36:35.355829 16145 net.cpp:150] Setting up fc8_oxford102_hash
I0125 13:36:35.355844 16145 net.cpp:157] Top shape: 50 102 (5100)
I0125 13:36:35.355850 16145 net.cpp:165] Memory required for data: 1053281800
I0125 13:36:35.355865 16145 layer_factory.hpp:76] Creating layer fc8_oxford102_hash_fc8_oxford102_hash_0_split
I0125 13:36:35.355875 16145 net.cpp:106] Creating Layer fc8_oxford102_hash_fc8_oxford102_hash_0_split
I0125 13:36:35.355880 16145 net.cpp:454] fc8_oxford102_hash_fc8_oxford102_hash_0_split <- fc8_oxford102_hash
I0125 13:36:35.355888 16145 net.cpp:411] fc8_oxford102_hash_fc8_oxford102_hash_0_split -> fc8_oxford102_hash_fc8_oxford102_hash_0_split_0
I0125 13:36:35.355898 16145 net.cpp:411] fc8_oxford102_hash_fc8_oxford102_hash_0_split -> fc8_oxford102_hash_fc8_oxford102_hash_0_split_1
I0125 13:36:35.355952 16145 net.cpp:150] Setting up fc8_oxford102_hash_fc8_oxford102_hash_0_split
I0125 13:36:35.355964 16145 net.cpp:157] Top shape: 50 102 (5100)
I0125 13:36:35.355972 16145 net.cpp:157] Top shape: 50 102 (5100)
I0125 13:36:35.355976 16145 net.cpp:165] Memory required for data: 1053322600
I0125 13:36:35.355981 16145 layer_factory.hpp:76] Creating layer loss
I0125 13:36:35.355989 16145 net.cpp:106] Creating Layer loss
I0125 13:36:35.355995 16145 net.cpp:454] loss <- fc8_oxford102_hash_fc8_oxford102_hash_0_split_0
I0125 13:36:35.356003 16145 net.cpp:454] loss <- label_data_1_split_0
I0125 13:36:35.356010 16145 net.cpp:411] loss -> (automatic)
…
