…
I0118 16:28:04.733201 10090 net.cpp:322] The NetState phase (0) differed from the phase (1) specified by a rule in layer mnist
I0118 16:28:04.733227 10090 net.cpp:322] The NetState phase (0) differed from the phase (1) specified by a rule in layer accuracy
I0118 16:28:04.733343 10090 net.cpp:49] Initializing net from parameters: 
name: "LeNet"
state {
  phase: TRAIN
}
layer {
  name: "mnist"
  type: "Data"
  top: "data"
  top: "label"
  include {
    phase: TRAIN
  }
  transform_param {
    scale: 0.00390625
  }
  data_param {
    source: "examples/A-mnist/mnist_train_lmdb"
    batch_size: 64
    backend: LMDB
  }
}
layer {
  name: "conv1"
  type: "Convolution"
  bottom: "data"
  top: "conv1"
  param {
    lr_mult: 1
  }
  param {
    lr_mult: 2
  }
  convolution_param {
    num_output: 20
    kernel_size: 5
    stride: 1
    weight_filler {
      type: "xavier"
    }
    bias_filler {
      type: "constant"
    }
  }
}
layer {
  name: "pool1"
  type: "Pooling"
  bottom: "conv1"
  top: "pool1"
  pooling_param {
    pool: MAX
    kernel_size: 2
    stride: 2
  }
}
layer {
  name: "conv2"
  type: "Convolution"
  bottom: "pool1"
  top: "conv2"
  param {
    lr_mult: 1
  }
  param {
    lr_mult: 2
  }
  convolution_param {
    num_output: 50
    kernel_size: 5
    stride: 1
    weight_filler {
      type: "xavier"
    }
    bias_filler {
      type: "constant"
    }
  }
}
layer {
  name: "pool2"
  type: "Pooling"
  bottom: "conv2"
  top: "pool2"
  pooling_param {
    pool: MAX
    kernel_size: 2
    stride: 2
  }
}
layer {
  name: "ip1"
  type: "InnerProduct"
  bottom: "pool2"
  top: "ip1"
  param {
    lr_mult: 1
  }
  param {
    lr_mult: 2
  }
  inner_product_param {
    num_output: 500
    weight_filler {
      type: "xavier"
    }
    bias_filler {
      type: "constant"
    }
  }
}
layer {
  name: "relu1"
  type: "ReLU"
  bottom: "ip1"
  top: "ip1"
}
layer {
  name: "ip2_sig"
  type: "InnerProduct"
  bottom: "ip1"
  top: "ip2_sig"
  param {
    lr_mult: 1
  }
  param {
    lr_mult: 2
  }
  inner_product_param {
    num_output: 4
    weight_filler {
      type: "xavier"
    }
    bias_filler {
      type: "constant"
    }
  }
}
layer {
  name: "ip2_hash"
  type: "Sigmoid"
  bottom: "ip2_sig"
  top: "ip2_hash"
}
layer {
  name: "ip3"
  type: "InnerProduct"
  bottom: "ip2_hash"
  top: "ip3"
  param {
    lr_mult: 1
  }
  param {
    lr_mult: 2
  }
  inner_product_param {
    num_output: 10
    weight_filler {
      type: "xavier"
    }
    bias_filler {
      type: "constant"
    }
  }
}
layer {
  name: "loss"
  type: "SoftmaxWithLoss"
  bottom: "ip3"
  bottom: "label"
  top: "loss"
}
I0118 16:28:04.733446 10090 layer_factory.hpp:76] Creating layer mnist
I0118 16:28:04.734091 10090 net.cpp:106] Creating Layer mnist
I0118 16:28:04.734141 10090 net.cpp:411] mnist -> data
I0118 16:28:04.734189 10090 net.cpp:411] mnist -> label
I0118 16:28:04.735155 10096 db_lmdb.cpp:38] Opened lmdb examples/A-mnist/mnist_train_lmdb
I0118 16:28:04.745146 10090 data_layer.cpp:41] output data size: 64,1,28,28
I0118 16:28:04.746311 10090 net.cpp:150] Setting up mnist
I0118 16:28:04.746343 10090 net.cpp:157] Top shape: 64 1 28 28 (50176)
I0118 16:28:04.746354 10090 net.cpp:157] Top shape: 64 (64)
I0118 16:28:04.746362 10090 net.cpp:165] Memory required for data: 200960
I0118 16:28:04.746376 10090 layer_factory.hpp:76] Creating layer conv1
I0118 16:28:04.746407 10090 net.cpp:106] Creating Layer conv1
I0118 16:28:04.746417 10090 net.cpp:454] conv1 <- data
I0118 16:28:04.746439 10090 net.cpp:411] conv1 -> conv1
I0118 16:28:04.906862 10090 cudnn_conv_layer.cpp:194] Reallocating workspace storage: 20664
I0118 16:28:04.906949 10090 net.cpp:150] Setting up conv1
I0118 16:28:04.906968 10090 net.cpp:157] Top shape: 64 20 24 24 (737280)
I0118 16:28:04.906975 10090 net.cpp:165] Memory required for data: 3150080
I0118 16:28:04.907006 10090 layer_factory.hpp:76] Creating layer pool1
I0118 16:28:04.907029 10090 net.cpp:106] Creating Layer pool1
I0118 16:28:04.907039 10090 net.cpp:454] pool1 <- conv1
I0118 16:28:04.907050 10090 net.cpp:411] pool1 -> pool1
I0118 16:28:04.907300 10090 net.cpp:150] Setting up pool1
I0118 16:28:04.907316 10090 net.cpp:157] Top shape: 64 20 12 12 (184320)
I0118 16:28:04.907322 10090 net.cpp:165] Memory required for data: 3887360
I0118 16:28:04.907328 10090 layer_factory.hpp:76] Creating layer conv2
I0118 16:28:04.907343 10090 net.cpp:106] Creating Layer conv2
I0118 16:28:04.907349 10090 net.cpp:454] conv2 <- pool1
I0118 16:28:04.907358 10090 net.cpp:411] conv2 -> conv2
I0118 16:28:04.908588 10090 cudnn_conv_layer.cpp:194] Reallocating workspace storage: 10272
I0118 16:28:04.908741 10090 net.cpp:150] Setting up conv2
I0118 16:28:04.908759 10090 net.cpp:157] Top shape: 64 50 8 8 (204800)
I0118 16:28:04.908766 10090 net.cpp:165] Memory required for data: 4706560
I0118 16:28:04.908779 10090 layer_factory.hpp:76] Creating layer pool2
I0118 16:28:04.908793 10090 net.cpp:106] Creating Layer pool2
I0118 16:28:04.908799 10090 net.cpp:454] pool2 <- conv2
I0118 16:28:04.908808 10090 net.cpp:411] pool2 -> pool2
I0118 16:28:04.909162 10090 net.cpp:150] Setting up pool2
I0118 16:28:04.909179 10090 net.cpp:157] Top shape: 64 50 4 4 (51200)
I0118 16:28:04.909185 10090 net.cpp:165] Memory required for data: 4911360
I0118 16:28:04.909191 10090 layer_factory.hpp:76] Creating layer ip1
I0118 16:28:04.909207 10090 net.cpp:106] Creating Layer ip1
I0118 16:28:04.909214 10090 net.cpp:454] ip1 <- pool2
I0118 16:28:04.909224 10090 net.cpp:411] ip1 -> ip1
I0118 16:28:04.913208 10090 net.cpp:150] Setting up ip1
I0118 16:28:04.913228 10090 net.cpp:157] Top shape: 64 500 (32000)
I0118 16:28:04.913233 10090 net.cpp:165] Memory required for data: 5039360
I0118 16:28:04.913247 10090 layer_factory.hpp:76] Creating layer relu1
I0118 16:28:04.913257 10090 net.cpp:106] Creating Layer relu1
I0118 16:28:04.913264 10090 net.cpp:454] relu1 <- ip1
I0118 16:28:04.913272 10090 net.cpp:397] relu1 -> ip1 (in-place)
I0118 16:28:04.913467 10090 net.cpp:150] Setting up relu1
I0118 16:28:04.913483 10090 net.cpp:157] Top shape: 64 500 (32000)
I0118 16:28:04.913489 10090 net.cpp:165] Memory required for data: 5167360
I0118 16:28:04.913496 10090 layer_factory.hpp:76] Creating layer ip2_sig
I0118 16:28:04.913506 10090 net.cpp:106] Creating Layer ip2_sig
I0118 16:28:04.913511 10090 net.cpp:454] ip2_sig <- ip1
I0118 16:28:04.913521 10090 net.cpp:411] ip2_sig -> ip2_sig
I0118 16:28:04.914120 10090 net.cpp:150] Setting up ip2_sig
I0118 16:28:04.914137 10090 net.cpp:157] Top shape: 64 4 (256)
I0118 16:28:04.914144 10090 net.cpp:165] Memory required for data: 5168384
I0118 16:28:04.914154 10090 layer_factory.hpp:76] Creating layer ip2_hash
I0118 16:28:04.914165 10090 net.cpp:106] Creating Layer ip2_hash
I0118 16:28:04.914170 10090 net.cpp:454] ip2_hash <- ip2_sig
I0118 16:28:04.914180 10090 net.cpp:411] ip2_hash -> ip2_hash
I0118 16:28:04.914521 10090 net.cpp:150] Setting up ip2_hash
I0118 16:28:04.914540 10090 net.cpp:157] Top shape: 64 4 (256)
I0118 16:28:04.914546 10090 net.cpp:165] Memory required for data: 5169408
I0118 16:28:04.914551 10090 layer_factory.hpp:76] Creating layer ip3
I0118 16:28:04.914561 10090 net.cpp:106] Creating Layer ip3
I0118 16:28:04.914568 10090 net.cpp:454] ip3 <- ip2_hash
I0118 16:28:04.914577 10090 net.cpp:411] ip3 -> ip3
I0118 16:28:04.914692 10090 net.cpp:150] Setting up ip3
I0118 16:28:04.914705 10090 net.cpp:157] Top shape: 64 10 (640)
I0118 16:28:04.914710 10090 net.cpp:165] Memory required for data: 5171968
I0118 16:28:04.914723 10090 layer_factory.hpp:76] Creating layer loss
I0118 16:28:04.914736 10090 net.cpp:106] Creating Layer loss
I0118 16:28:04.914743 10090 net.cpp:454] loss <- ip3
I0118 16:28:04.914751 10090 net.cpp:454] loss <- label
I0118 16:28:04.914779 10090 net.cpp:411] loss -> loss
I0118 16:28:04.914803 10090 layer_factory.hpp:76] Creating layer loss
…
I0118 16:28:04.915698 10090 solver.cpp:180] Creating test net (#0) specified by net file: examples/A-mnist/train_test.prototxt
I0118 16:28:04.915745 10090 net.cpp:322] The NetState phase (1) differed from the phase (0) specified by a rule in layer mnist
I0118 16:28:04.915876 10090 net.cpp:49] Initializing net from parameters: 
name: "LeNet"
state {
  phase: TEST
}
layer {
  name: "mnist"
  type: "Data"
  top: "data"
  top: "label"
  include {
    phase: TEST
  }
  transform_param {
    scale: 0.00390625
  }
  data_param {
    source: "examples/A-mnist/mnist_test_lmdb"
    batch_size: 100
    backend: LMDB
  }
}
layer {
  name: "conv1"
  type: "Convolution"
  bottom: "data"
  top: "conv1"
  param {
    lr_mult: 1
  }
  param {
    lr_mult: 2
  }
  convolution_param {
    num_output: 20
    kernel_size: 5
    stride: 1
    weight_filler {
      type: "xavier"
    }
    bias_filler {
      type: "constant"
    }
  }
}
layer {
  name: "pool1"
  type: "Pooling"
  bottom: "conv1"
  top: "pool1"
  pooling_param {
    pool: MAX
    kernel_size: 2
    stride: 2
  }
}
layer {
  name: "conv2"
  type: "Convolution"
  bottom: "pool1"
  top: "conv2"
  param {
    lr_mult: 1
  }
  param {
    lr_mult: 2
  }
  convolution_param {
    num_output: 50
    kernel_size: 5
    stride: 1
    weight_filler {
      type: "xavier"
    }
    bias_filler {
      type: "constant"
    }
  }
}
layer {
  name: "pool2"
  type: "Pooling"
  bottom: "conv2"
  top: "pool2"
  pooling_param {
    pool: MAX
    kernel_size: 2
    stride: 2
  }
}
layer {
  name: "ip1"
  type: "InnerProduct"
  bottom: "pool2"
  top: "ip1"
  param {
    lr_mult: 1
  }
  param {
    lr_mult: 2
  }
  inner_product_param {
    num_output: 500
    weight_filler {
      type: "xavier"
    }
    bias_filler {
      type: "constant"
    }
  }
}
layer {
  name: "relu1"
  type: "ReLU"
  bottom: "ip1"
  top: "ip1"
}
layer {
  name: "ip2_sig"
  type: "InnerProduct"
  bottom: "ip1"
  top: "ip2_sig"
  param {
    lr_mult: 1
  }
  param {
    lr_mult: 2
  }
  inner_product_param {
    num_output: 4
    weight_filler {
      type: "xavier"
    }
    bias_filler {
      type: "constant"
    }
  }
}
layer {
  name: "ip2_hash"
  type: "Sigmoid"
  bottom: "ip2_sig"
  top: "ip2_hash"
}
layer {
  name: "ip3"
  type: "InnerProduct"
  bottom: "ip2_hash"
  top: "ip3"
  param {
    lr_mult: 1
  }
  param {
    lr_mult: 2
  }
  inner_product_param {
    num_output: 10
    weight_filler {
      type: "xavier"
    }
    bias_filler {
      type: "constant"
    }
  }
}
layer {
  name: "accuracy"
  type: "Accuracy"
  bottom: "ip3"
  bottom: "label"
  top: "accuracy"
  include {
    phase: TEST
  }
}
layer {
  name: "loss"
  type: "SoftmaxWithLoss"
  bottom: "ip3"
  bottom: "label"
  top: "loss"
}
I0118 16:28:04.915992 10090 layer_factory.hpp:76] Creating layer mnist
I0118 16:28:04.916121 10090 net.cpp:106] Creating Layer mnist
I0118 16:28:04.916134 10090 net.cpp:411] mnist -> data
I0118 16:28:04.916147 10090 net.cpp:411] mnist -> label
I0118 16:28:04.917152 10098 db_lmdb.cpp:38] Opened lmdb examples/A-mnist/mnist_test_lmdb
I0118 16:28:04.917275 10090 data_layer.cpp:41] output data size: 100,1,28,28
I0118 16:28:04.918393 10090 net.cpp:150] Setting up mnist
I0118 16:28:04.918412 10090 net.cpp:157] Top shape: 100 1 28 28 (78400)
I0118 16:28:04.918421 10090 net.cpp:157] Top shape: 100 (100)
I0118 16:28:04.918426 10090 net.cpp:165] Memory required for data: 314000
I0118 16:28:04.918432 10090 layer_factory.hpp:76] Creating layer label_mnist_1_split
I0118 16:28:04.918447 10090 net.cpp:106] Creating Layer label_mnist_1_split
I0118 16:28:04.918454 10090 net.cpp:454] label_mnist_1_split <- label
I0118 16:28:04.918462 10090 net.cpp:411] label_mnist_1_split -> label_mnist_1_split_0
I0118 16:28:04.918474 10090 net.cpp:411] label_mnist_1_split -> label_mnist_1_split_1
I0118 16:28:04.918596 10090 net.cpp:150] Setting up label_mnist_1_split
I0118 16:28:04.918611 10090 net.cpp:157] Top shape: 100 (100)
I0118 16:28:04.918617 10090 net.cpp:157] Top shape: 100 (100)
I0118 16:28:04.918622 10090 net.cpp:165] Memory required for data: 314800
I0118 16:28:04.918628 10090 layer_factory.hpp:76] Creating layer conv1
I0118 16:28:04.918640 10090 net.cpp:106] Creating Layer conv1
I0118 16:28:04.918647 10090 net.cpp:454] conv1 <- data
I0118 16:28:04.918655 10090 net.cpp:411] conv1 -> conv1
I0118 16:28:04.920076 10090 cudnn_conv_layer.cpp:194] Reallocating workspace storage: 20664
I0118 16:28:04.920112 10090 net.cpp:150] Setting up conv1
I0118 16:28:04.920161 10090 net.cpp:157] Top shape: 100 20 24 24 (1152000)
I0118 16:28:04.920172 10090 net.cpp:165] Memory required for data: 4922800
I0118 16:28:04.920192 10090 layer_factory.hpp:76] Creating layer pool1
I0118 16:28:04.920205 10090 net.cpp:106] Creating Layer pool1
I0118 16:28:04.920213 10090 net.cpp:454] pool1 <- conv1
I0118 16:28:04.920238 10090 net.cpp:411] pool1 -> pool1
I0118 16:28:04.920734 10090 net.cpp:150] Setting up pool1
I0118 16:28:04.920755 10090 net.cpp:157] Top shape: 100 20 12 12 (288000)
I0118 16:28:04.920799 10090 net.cpp:165] Memory required for data: 6074800
I0118 16:28:04.920809 10090 layer_factory.hpp:76] Creating layer conv2
I0118 16:28:04.920826 10090 net.cpp:106] Creating Layer conv2
I0118 16:28:04.920832 10090 net.cpp:454] conv2 <- pool1
I0118 16:28:04.920842 10090 net.cpp:411] conv2 -> conv2
I0118 16:28:04.922596 10090 cudnn_conv_layer.cpp:194] Reallocating workspace storage: 10272
I0118 16:28:04.922637 10090 net.cpp:150] Setting up conv2
I0118 16:28:04.922662 10090 net.cpp:157] Top shape: 100 50 8 8 (320000)
I0118 16:28:04.922672 10090 net.cpp:165] Memory required for data: 7354800
I0118 16:28:04.922693 10090 layer_factory.hpp:76] Creating layer pool2
I0118 16:28:04.922713 10090 net.cpp:106] Creating Layer pool2
I0118 16:28:04.922724 10090 net.cpp:454] pool2 <- conv2
I0118 16:28:04.922734 10090 net.cpp:411] pool2 -> pool2
I0118 16:28:04.923163 10090 net.cpp:150] Setting up pool2
I0118 16:28:04.923188 10090 net.cpp:157] Top shape: 100 50 4 4 (80000)
I0118 16:28:04.923198 10090 net.cpp:165] Memory required for data: 7674800
I0118 16:28:04.923205 10090 layer_factory.hpp:76] Creating layer ip1
I0118 16:28:04.923221 10090 net.cpp:106] Creating Layer ip1
I0118 16:28:04.923230 10090 net.cpp:454] ip1 <- pool2
I0118 16:28:04.923243 10090 net.cpp:411] ip1 -> ip1
I0118 16:28:04.927764 10090 net.cpp:150] Setting up ip1
I0118 16:28:04.927785 10090 net.cpp:157] Top shape: 100 500 (50000)
I0118 16:28:04.927793 10090 net.cpp:165] Memory required for data: 7874800
I0118 16:28:04.927808 10090 layer_factory.hpp:76] Creating layer relu1
I0118 16:28:04.927825 10090 net.cpp:106] Creating Layer relu1
I0118 16:28:04.927834 10090 net.cpp:454] relu1 <- ip1
I0118 16:28:04.927845 10090 net.cpp:397] relu1 -> ip1 (in-place)
I0118 16:28:04.928356 10090 net.cpp:150] Setting up relu1
I0118 16:28:04.928431 10090 net.cpp:157] Top shape: 100 500 (50000)
I0118 16:28:04.928448 10090 net.cpp:165] Memory required for data: 8074800
I0118 16:28:04.928462 10090 layer_factory.hpp:76] Creating layer ip2_sig
I0118 16:28:04.928490 10090 net.cpp:106] Creating Layer ip2_sig
I0118 16:28:04.928508 10090 net.cpp:454] ip2_sig <- ip1
I0118 16:28:04.928529 10090 net.cpp:411] ip2_sig -> ip2_sig
I0118 16:28:04.928840 10090 net.cpp:150] Setting up ip2_sig
I0118 16:28:04.928867 10090 net.cpp:157] Top shape: 100 4 (400)
I0118 16:28:04.928879 10090 net.cpp:165] Memory required for data: 8076400
I0118 16:28:04.928900 10090 layer_factory.hpp:76] Creating layer ip2_hash
I0118 16:28:04.928917 10090 net.cpp:106] Creating Layer ip2_hash
I0118 16:28:04.928930 10090 net.cpp:454] ip2_hash <- ip2_sig
I0118 16:28:04.928949 10090 net.cpp:411] ip2_hash -> ip2_hash
I0118 16:28:04.929409 10090 net.cpp:150] Setting up ip2_hash
I0118 16:28:04.929441 10090 net.cpp:157] Top shape: 100 4 (400)
I0118 16:28:04.929452 10090 net.cpp:165] Memory required for data: 8078000
I0118 16:28:04.929466 10090 layer_factory.hpp:76] Creating layer ip3
I0118 16:28:04.929489 10090 net.cpp:106] Creating Layer ip3
I0118 16:28:04.929502 10090 net.cpp:454] ip3 <- ip2_hash
I0118 16:28:04.929524 10090 net.cpp:411] ip3 -> ip3
I0118 16:28:04.929769 10090 net.cpp:150] Setting up ip3
I0118 16:28:04.929785 10090 net.cpp:157] Top shape: 100 10 (1000)
I0118 16:28:04.929791 10090 net.cpp:165] Memory required for data: 8082000
I0118 16:28:04.929806 10090 layer_factory.hpp:76] Creating layer ip3_ip3_0_split
I0118 16:28:04.929818 10090 net.cpp:106] Creating Layer ip3_ip3_0_split
I0118 16:28:04.929826 10090 net.cpp:454] ip3_ip3_0_split <- ip3
I0118 16:28:04.929833 10090 net.cpp:411] ip3_ip3_0_split -> ip3_ip3_0_split_0
I0118 16:28:04.929849 10090 net.cpp:411] ip3_ip3_0_split -> ip3_ip3_0_split_1
I0118 16:28:04.929903 10090 net.cpp:150] Setting up ip3_ip3_0_split
I0118 16:28:04.929918 10090 net.cpp:157] Top shape: 100 10 (1000)
I0118 16:28:04.929924 10090 net.cpp:157] Top shape: 100 10 (1000)
I0118 16:28:04.929930 10090 net.cpp:165] Memory required for data: 8090000
I0118 16:28:04.929936 10090 layer_factory.hpp:76] Creating layer accuracy
I0118 16:28:04.929971 10090 net.cpp:106] Creating Layer accuracy
I0118 16:28:04.929988 10090 net.cpp:454] accuracy <- ip3_ip3_0_split_0
I0118 16:28:04.930003 10090 net.cpp:454] accuracy <- label_mnist_1_split_0
I0118 16:28:04.930021 10090 net.cpp:411] accuracy -> accuracy
…
