…
I0125 19:14:21.589998 18460 net.cpp:322] The NetState phase (0) differed from the phase (1) specified by a rule in layer mnist
I0125 19:14:21.590029 18460 net.cpp:322] The NetState phase (0) differed from the phase (1) specified by a rule in layer accuracy
I0125 19:14:21.590152 18460 net.cpp:49] Initializing net from parameters: 
name: "LeNet"
state {
  phase: TRAIN
}
layer {
  name: "mnist"
  type: "Data"
  top: "data"
  top: "label"
  include {
    phase: TRAIN
  }
  transform_param {
    scale: 0.00390625
  }
  data_param {
    source: "examples/A-mnist/mnist_train_lmdb"
    batch_size: 64
    backend: LMDB
  }
}
layer {
  name: "conv1"
  type: "Convolution"
  bottom: "data"
  top: "conv1"
  param {
    lr_mult: 1
  }
  param {
    lr_mult: 2
  }
  convolution_param {
    num_output: 20
    kernel_size: 5
    stride: 1
    weight_filler {
      type: "xavier"
    }
    bias_filler {
      type: "constant"
    }
  }
}
layer {
  name: "pool1"
  type: "Pooling"
  bottom: "conv1"
  top: "pool1"
  pooling_param {
    pool: MAX
    kernel_size: 2
    stride: 2
  }
}
layer {
  name: "conv2"
  type: "Convolution"
  bottom: "pool1"
  top: "conv2"
  param {
    lr_mult: 1
  }
  param {
    lr_mult: 2
  }
  convolution_param {
    num_output: 50
    kernel_size: 5
    stride: 1
    weight_filler {
      type: "xavier"
    }
    bias_filler {
      type: "constant"
    }
  }
}
layer {
  name: "pool2"
  type: "Pooling"
  bottom: "conv2"
  top: "pool2"
  pooling_param {
    pool: MAX
    kernel_size: 2
    stride: 2
  }
}
layer {
  name: "ip1"
  type: "InnerProduct"
  bottom: "pool2"
  top: "ip1"
  param {
    lr_mult: 1
  }
  param {
    lr_mult: 2
  }
  inner_product_param {
    num_output: 500
    weight_filler {
      type: "xavier"
    }
    bias_filler {
      type: "constant"
    }
  }
}
layer {
  name: "relu1"
  type: "ReLU"
  bottom: "ip1"
  top: "ip1"
}
layer {
  name: "ip2_sig"
  type: "InnerProduct"
  bottom: "ip1"
  top: "ip2_sig"
  param {
    lr_mult: 1
  }
  param {
    lr_mult: 2
  }
  inner_product_param {
    num_output: 64
    weight_filler {
      type: "xavier"
    }
    bias_filler {
      type: "constant"
    }
  }
}
layer {
  name: "ip2_hash"
  type: "Sigmoid"
  bottom: "ip2_sig"
  top: "ip2_hash"
}
layer {
  name: "ip3"
  type: "InnerProduct"
  bottom: "ip2_hash"
  top: "ip3"
  param {
    lr_mult: 1
  }
  param {
    lr_mult: 2
  }
  inner_product_param {
    num_output: 10
    weight_filler {
      type: "xavier"
    }
    bias_filler {
      type: "constant"
    }
  }
}
layer {
  name: "loss"
  type: "SoftmaxWithLoss"
  bottom: "ip3"
  bottom: "label"
  top: "loss"
}
I0125 19:14:21.590257 18460 layer_factory.hpp:76] Creating layer mnist
I0125 19:14:21.590879 18460 net.cpp:106] Creating Layer mnist
I0125 19:14:21.590940 18460 net.cpp:411] mnist -> data
I0125 19:14:21.590988 18460 net.cpp:411] mnist -> label
I0125 19:14:21.591958 18466 db_lmdb.cpp:38] Opened lmdb examples/A-mnist/mnist_train_lmdb
I0125 19:14:21.601594 18460 data_layer.cpp:41] output data size: 64,1,28,28
I0125 19:14:21.602972 18460 net.cpp:150] Setting up mnist
I0125 19:14:21.603004 18460 net.cpp:157] Top shape: 64 1 28 28 (50176)
I0125 19:14:21.603018 18460 net.cpp:157] Top shape: 64 (64)
I0125 19:14:21.603026 18460 net.cpp:165] Memory required for data: 200960
I0125 19:14:21.603041 18460 layer_factory.hpp:76] Creating layer conv1
I0125 19:14:21.603070 18460 net.cpp:106] Creating Layer conv1
I0125 19:14:21.603082 18460 net.cpp:454] conv1 <- data
I0125 19:14:21.603103 18460 net.cpp:411] conv1 -> conv1
I0125 19:14:21.762969 18460 cudnn_conv_layer.cpp:194] Reallocating workspace storage: 20664
I0125 19:14:21.763059 18460 net.cpp:150] Setting up conv1
I0125 19:14:21.763078 18460 net.cpp:157] Top shape: 64 20 24 24 (737280)
I0125 19:14:21.763085 18460 net.cpp:165] Memory required for data: 3150080
I0125 19:14:21.763115 18460 layer_factory.hpp:76] Creating layer pool1
I0125 19:14:21.763139 18460 net.cpp:106] Creating Layer pool1
I0125 19:14:21.763147 18460 net.cpp:454] pool1 <- conv1
I0125 19:14:21.763159 18460 net.cpp:411] pool1 -> pool1
I0125 19:14:21.763409 18460 net.cpp:150] Setting up pool1
I0125 19:14:21.763425 18460 net.cpp:157] Top shape: 64 20 12 12 (184320)
I0125 19:14:21.763432 18460 net.cpp:165] Memory required for data: 3887360
I0125 19:14:21.763438 18460 layer_factory.hpp:76] Creating layer conv2
I0125 19:14:21.763453 18460 net.cpp:106] Creating Layer conv2
I0125 19:14:21.763458 18460 net.cpp:454] conv2 <- pool1
I0125 19:14:21.763468 18460 net.cpp:411] conv2 -> conv2
I0125 19:14:21.764791 18460 cudnn_conv_layer.cpp:194] Reallocating workspace storage: 10272
I0125 19:14:21.764950 18460 net.cpp:150] Setting up conv2
I0125 19:14:21.764968 18460 net.cpp:157] Top shape: 64 50 8 8 (204800)
I0125 19:14:21.764974 18460 net.cpp:165] Memory required for data: 4706560
I0125 19:14:21.764987 18460 layer_factory.hpp:76] Creating layer pool2
I0125 19:14:21.764999 18460 net.cpp:106] Creating Layer pool2
I0125 19:14:21.765008 18460 net.cpp:454] pool2 <- conv2
I0125 19:14:21.765019 18460 net.cpp:411] pool2 -> pool2
I0125 19:14:21.765400 18460 net.cpp:150] Setting up pool2
I0125 19:14:21.765416 18460 net.cpp:157] Top shape: 64 50 4 4 (51200)
I0125 19:14:21.765422 18460 net.cpp:165] Memory required for data: 4911360
I0125 19:14:21.765429 18460 layer_factory.hpp:76] Creating layer ip1
I0125 19:14:21.765446 18460 net.cpp:106] Creating Layer ip1
I0125 19:14:21.765453 18460 net.cpp:454] ip1 <- pool2
I0125 19:14:21.765462 18460 net.cpp:411] ip1 -> ip1
I0125 19:14:21.769466 18460 net.cpp:150] Setting up ip1
I0125 19:14:21.769484 18460 net.cpp:157] Top shape: 64 500 (32000)
I0125 19:14:21.769490 18460 net.cpp:165] Memory required for data: 5039360
I0125 19:14:21.769503 18460 layer_factory.hpp:76] Creating layer relu1
I0125 19:14:21.769513 18460 net.cpp:106] Creating Layer relu1
I0125 19:14:21.769520 18460 net.cpp:454] relu1 <- ip1
I0125 19:14:21.769531 18460 net.cpp:397] relu1 -> ip1 (in-place)
I0125 19:14:21.769754 18460 net.cpp:150] Setting up relu1
I0125 19:14:21.769772 18460 net.cpp:157] Top shape: 64 500 (32000)
I0125 19:14:21.769779 18460 net.cpp:165] Memory required for data: 5167360
I0125 19:14:21.769786 18460 layer_factory.hpp:76] Creating layer ip2_sig
I0125 19:14:21.769796 18460 net.cpp:106] Creating Layer ip2_sig
I0125 19:14:21.769803 18460 net.cpp:454] ip2_sig <- ip1
I0125 19:14:21.769811 18460 net.cpp:411] ip2_sig -> ip2_sig
I0125 19:14:21.770210 18460 net.cpp:150] Setting up ip2_sig
I0125 19:14:21.770225 18460 net.cpp:157] Top shape: 64 64 (4096)
I0125 19:14:21.770229 18460 net.cpp:165] Memory required for data: 5183744
I0125 19:14:21.770239 18460 layer_factory.hpp:76] Creating layer ip2_hash
I0125 19:14:21.770253 18460 net.cpp:106] Creating Layer ip2_hash
I0125 19:14:21.770261 18460 net.cpp:454] ip2_hash <- ip2_sig
I0125 19:14:21.770268 18460 net.cpp:411] ip2_hash -> ip2_hash
I0125 19:14:21.770627 18460 net.cpp:150] Setting up ip2_hash
I0125 19:14:21.770643 18460 net.cpp:157] Top shape: 64 64 (4096)
I0125 19:14:21.770649 18460 net.cpp:165] Memory required for data: 5200128
I0125 19:14:21.770655 18460 layer_factory.hpp:76] Creating layer ip3
I0125 19:14:21.770666 18460 net.cpp:106] Creating Layer ip3
I0125 19:14:21.770673 18460 net.cpp:454] ip3 <- ip2_hash
I0125 19:14:21.770684 18460 net.cpp:411] ip3 -> ip3
I0125 19:14:21.770817 18460 net.cpp:150] Setting up ip3
I0125 19:14:21.770830 18460 net.cpp:157] Top shape: 64 10 (640)
I0125 19:14:21.770836 18460 net.cpp:165] Memory required for data: 5202688
I0125 19:14:21.770848 18460 layer_factory.hpp:76] Creating layer loss
I0125 19:14:21.770864 18460 net.cpp:106] Creating Layer loss
I0125 19:14:21.770872 18460 net.cpp:454] loss <- ip3
I0125 19:14:21.770894 18460 net.cpp:454] loss <- label
I0125 19:14:21.770907 18460 net.cpp:411] loss -> loss
I0125 19:14:21.770930 18460 layer_factory.hpp:76] Creating layer loss
…
I0125 19:14:21.771847 18460 solver.cpp:180] Creating test net (#0) specified by net file: examples/A-mnist/train_test.prototxt
I0125 19:14:21.771893 18460 net.cpp:322] The NetState phase (1) differed from the phase (0) specified by a rule in layer mnist
I0125 19:14:21.772037 18460 net.cpp:49] Initializing net from parameters: 
name: "LeNet"
state {
  phase: TEST
}
layer {
  name: "mnist"
  type: "Data"
  top: "data"
  top: "label"
  include {
    phase: TEST
  }
  transform_param {
    scale: 0.00390625
  }
  data_param {
    source: "examples/A-mnist/mnist_test_lmdb"
    batch_size: 100
    backend: LMDB
  }
}
layer {
  name: "conv1"
  type: "Convolution"
  bottom: "data"
  top: "conv1"
  param {
    lr_mult: 1
  }
  param {
    lr_mult: 2
  }
  convolution_param {
    num_output: 20
    kernel_size: 5
    stride: 1
    weight_filler {
      type: "xavier"
    }
    bias_filler {
      type: "constant"
    }
  }
}
layer {
  name: "pool1"
  type: "Pooling"
  bottom: "conv1"
  top: "pool1"
  pooling_param {
    pool: MAX
    kernel_size: 2
    stride: 2
  }
}
layer {
  name: "conv2"
  type: "Convolution"
  bottom: "pool1"
  top: "conv2"
  param {
    lr_mult: 1
  }
  param {
    lr_mult: 2
  }
  convolution_param {
    num_output: 50
    kernel_size: 5
    stride: 1
    weight_filler {
      type: "xavier"
    }
    bias_filler {
      type: "constant"
    }
  }
}
layer {
  name: "pool2"
  type: "Pooling"
  bottom: "conv2"
  top: "pool2"
  pooling_param {
    pool: MAX
    kernel_size: 2
    stride: 2
  }
}
layer {
  name: "ip1"
  type: "InnerProduct"
  bottom: "pool2"
  top: "ip1"
  param {
    lr_mult: 1
  }
  param {
    lr_mult: 2
  }
  inner_product_param {
    num_output: 500
    weight_filler {
      type: "xavier"
    }
    bias_filler {
      type: "constant"
    }
  }
}
layer {
  name: "relu1"
  type: "ReLU"
  bottom: "ip1"
  top: "ip1"
}
layer {
  name: "ip2_sig"
  type: "InnerProduct"
  bottom: "ip1"
  top: "ip2_sig"
  param {
    lr_mult: 1
  }
  param {
    lr_mult: 2
  }
  inner_product_param {
    num_output: 64
    weight_filler {
      type: "xavier"
    }
    bias_filler {
      type: "constant"
    }
  }
}
layer {
  name: "ip2_hash"
  type: "Sigmoid"
  bottom: "ip2_sig"
  top: "ip2_hash"
}
layer {
  name: "ip3"
  type: "InnerProduct"
  bottom: "ip2_hash"
  top: "ip3"
  param {
    lr_mult: 1
  }
  param {
    lr_mult: 2
  }
  inner_product_param {
    num_output: 10
    weight_filler {
      type: "xavier"
    }
    bias_filler {
      type: "constant"
    }
  }
}
layer {
  name: "accuracy"
  type: "Accuracy"
  bottom: "ip3"
  bottom: "label"
  top: "accuracy"
  include {
    phase: TEST
  }
}
layer {
  name: "loss"
  type: "SoftmaxWithLoss"
  bottom: "ip3"
  bottom: "label"
  top: "loss"
}
I0125 19:14:21.772161 18460 layer_factory.hpp:76] Creating layer mnist
I0125 19:14:21.772300 18460 net.cpp:106] Creating Layer mnist
I0125 19:14:21.772313 18460 net.cpp:411] mnist -> data
I0125 19:14:21.772326 18460 net.cpp:411] mnist -> label
I0125 19:14:21.773330 18468 db_lmdb.cpp:38] Opened lmdb examples/A-mnist/mnist_test_lmdb
I0125 19:14:21.773461 18460 data_layer.cpp:41] output data size: 100,1,28,28
I0125 19:14:21.774610 18460 net.cpp:150] Setting up mnist
I0125 19:14:21.774628 18460 net.cpp:157] Top shape: 100 1 28 28 (78400)
I0125 19:14:21.774636 18460 net.cpp:157] Top shape: 100 (100)
I0125 19:14:21.774641 18460 net.cpp:165] Memory required for data: 314000
I0125 19:14:21.774648 18460 layer_factory.hpp:76] Creating layer label_mnist_1_split
I0125 19:14:21.774662 18460 net.cpp:106] Creating Layer label_mnist_1_split
I0125 19:14:21.774669 18460 net.cpp:454] label_mnist_1_split <- label
I0125 19:14:21.774677 18460 net.cpp:411] label_mnist_1_split -> label_mnist_1_split_0
I0125 19:14:21.774690 18460 net.cpp:411] label_mnist_1_split -> label_mnist_1_split_1
I0125 19:14:21.774749 18460 net.cpp:150] Setting up label_mnist_1_split
I0125 19:14:21.774760 18460 net.cpp:157] Top shape: 100 (100)
I0125 19:14:21.774767 18460 net.cpp:157] Top shape: 100 (100)
I0125 19:14:21.774772 18460 net.cpp:165] Memory required for data: 314800
I0125 19:14:21.774778 18460 layer_factory.hpp:76] Creating layer conv1
I0125 19:14:21.774801 18460 net.cpp:106] Creating Layer conv1
I0125 19:14:21.774809 18460 net.cpp:454] conv1 <- data
I0125 19:14:21.774821 18460 net.cpp:411] conv1 -> conv1
I0125 19:14:21.776211 18460 cudnn_conv_layer.cpp:194] Reallocating workspace storage: 20664
I0125 19:14:21.776244 18460 net.cpp:150] Setting up conv1
I0125 19:14:21.776260 18460 net.cpp:157] Top shape: 100 20 24 24 (1152000)
I0125 19:14:21.776270 18460 net.cpp:165] Memory required for data: 4922800
I0125 19:14:21.776288 18460 layer_factory.hpp:76] Creating layer pool1
I0125 19:14:21.776298 18460 net.cpp:106] Creating Layer pool1
I0125 19:14:21.776309 18460 net.cpp:454] pool1 <- conv1
I0125 19:14:21.776316 18460 net.cpp:411] pool1 -> pool1
I0125 19:14:21.776715 18460 net.cpp:150] Setting up pool1
I0125 19:14:21.776736 18460 net.cpp:157] Top shape: 100 20 12 12 (288000)
I0125 19:14:21.776746 18460 net.cpp:165] Memory required for data: 6074800
I0125 19:14:21.776751 18460 layer_factory.hpp:76] Creating layer conv2
I0125 19:14:21.776770 18460 net.cpp:106] Creating Layer conv2
I0125 19:14:21.776780 18460 net.cpp:454] conv2 <- pool1
I0125 19:14:21.776793 18460 net.cpp:411] conv2 -> conv2
I0125 19:14:21.778152 18460 cudnn_conv_layer.cpp:194] Reallocating workspace storage: 10272
I0125 19:14:21.778192 18460 net.cpp:150] Setting up conv2
I0125 19:14:21.778205 18460 net.cpp:157] Top shape: 100 50 8 8 (320000)
I0125 19:14:21.778211 18460 net.cpp:165] Memory required for data: 7354800
I0125 19:14:21.778225 18460 layer_factory.hpp:76] Creating layer pool2
I0125 19:14:21.778239 18460 net.cpp:106] Creating Layer pool2
I0125 19:14:21.778249 18460 net.cpp:454] pool2 <- conv2
I0125 19:14:21.778260 18460 net.cpp:411] pool2 -> pool2
I0125 19:14:21.778705 18460 net.cpp:150] Setting up pool2
I0125 19:14:21.778730 18460 net.cpp:157] Top shape: 100 50 4 4 (80000)
I0125 19:14:21.778738 18460 net.cpp:165] Memory required for data: 7674800
I0125 19:14:21.778745 18460 layer_factory.hpp:76] Creating layer ip1
I0125 19:14:21.778759 18460 net.cpp:106] Creating Layer ip1
I0125 19:14:21.778770 18460 net.cpp:454] ip1 <- pool2
I0125 19:14:21.778786 18460 net.cpp:411] ip1 -> ip1
I0125 19:14:21.782915 18460 net.cpp:150] Setting up ip1
I0125 19:14:21.782935 18460 net.cpp:157] Top shape: 100 500 (50000)
I0125 19:14:21.782941 18460 net.cpp:165] Memory required for data: 7874800
I0125 19:14:21.782956 18460 layer_factory.hpp:76] Creating layer relu1
I0125 19:14:21.782973 18460 net.cpp:106] Creating Layer relu1
I0125 19:14:21.782980 18460 net.cpp:454] relu1 <- ip1
I0125 19:14:21.782989 18460 net.cpp:397] relu1 -> ip1 (in-place)
I0125 19:14:21.783368 18460 net.cpp:150] Setting up relu1
I0125 19:14:21.783402 18460 net.cpp:157] Top shape: 100 500 (50000)
I0125 19:14:21.783411 18460 net.cpp:165] Memory required for data: 8074800
I0125 19:14:21.783418 18460 layer_factory.hpp:76] Creating layer ip2_sig
I0125 19:14:21.783435 18460 net.cpp:106] Creating Layer ip2_sig
I0125 19:14:21.783444 18460 net.cpp:454] ip2_sig <- ip1
I0125 19:14:21.783457 18460 net.cpp:411] ip2_sig -> ip2_sig
I0125 19:14:21.784368 18460 net.cpp:150] Setting up ip2_sig
I0125 19:14:21.784385 18460 net.cpp:157] Top shape: 100 64 (6400)
I0125 19:14:21.784392 18460 net.cpp:165] Memory required for data: 8100400
I0125 19:14:21.784404 18460 layer_factory.hpp:76] Creating layer ip2_hash
I0125 19:14:21.784414 18460 net.cpp:106] Creating Layer ip2_hash
I0125 19:14:21.784420 18460 net.cpp:454] ip2_hash <- ip2_sig
I0125 19:14:21.784431 18460 net.cpp:411] ip2_hash -> ip2_hash
I0125 19:14:21.784679 18460 net.cpp:150] Setting up ip2_hash
I0125 19:14:21.784696 18460 net.cpp:157] Top shape: 100 64 (6400)
I0125 19:14:21.784703 18460 net.cpp:165] Memory required for data: 8126000
I0125 19:14:21.784708 18460 layer_factory.hpp:76] Creating layer ip3
I0125 19:14:21.784723 18460 net.cpp:106] Creating Layer ip3
I0125 19:14:21.784729 18460 net.cpp:454] ip3 <- ip2_hash
I0125 19:14:21.784741 18460 net.cpp:411] ip3 -> ip3
I0125 19:14:21.784893 18460 net.cpp:150] Setting up ip3
I0125 19:14:21.784906 18460 net.cpp:157] Top shape: 100 10 (1000)
I0125 19:14:21.784912 18460 net.cpp:165] Memory required for data: 8130000
I0125 19:14:21.784926 18460 layer_factory.hpp:76] Creating layer ip3_ip3_0_split
I0125 19:14:21.784939 18460 net.cpp:106] Creating Layer ip3_ip3_0_split
I0125 19:14:21.784945 18460 net.cpp:454] ip3_ip3_0_split <- ip3
I0125 19:14:21.784955 18460 net.cpp:411] ip3_ip3_0_split -> ip3_ip3_0_split_0
I0125 19:14:21.784968 18460 net.cpp:411] ip3_ip3_0_split -> ip3_ip3_0_split_1
I0125 19:14:21.785020 18460 net.cpp:150] Setting up ip3_ip3_0_split
I0125 19:14:21.785032 18460 net.cpp:157] Top shape: 100 10 (1000)
I0125 19:14:21.785040 18460 net.cpp:157] Top shape: 100 10 (1000)
I0125 19:14:21.785045 18460 net.cpp:165] Memory required for data: 8138000
I0125 19:14:21.785051 18460 layer_factory.hpp:76] Creating layer accuracy
I0125 19:14:21.785070 18460 net.cpp:106] Creating Layer accuracy
I0125 19:14:21.785079 18460 net.cpp:454] accuracy <- ip3_ip3_0_split_0
I0125 19:14:21.785086 18460 net.cpp:454] accuracy <- label_mnist_1_split_0
I0125 19:14:21.785096 18460 net.cpp:411] accuracy -> accuracy
…
